model/test/run_test4.pth (torch, 4228 bytes, 11 tensors)

word_embeddings.weight f4 [10, 3]
000000 9a 6d 17 40 8b 23 4e bf e3 ca 12 3f 1f 83 2e be
       2.3660645 -0.80522984 0.5734083 -0.17042206
000010 3e 69 04 3f c0 2e c3 bf 1a fe fc 3f 5c af 33 3f
       0.51723087 -1.5248642 1.9765046 0.7018945
000020 06 df af 3f 19 d2 88 3e 00 03 c0 bf 8b 09 90 3f
       1.3739936 0.26722792 -1.5000916 1.1252912
000030 27 76 4e 3f 7a 4e 88 bf c9 26 a5 bf bc bf 00 c0
       0.80649036 -1.0648949 -1.2902461 -2.0117025
000040 7f c3 84 bf 37 42 04 3f fa 9e d7 3e 65 47 07 3e
       -1.0372161 0.51663536 0.42113477 0.13210829
000050 d4 aa 17 bf 13 72 62 bf 97 6f 7c bf 01 90 92 3f
       -0.5924504 -0.88455313 -0.9860777 1.1450197
000060 87 12 4e bf b1 44 00 40 17 d3 24 3e 72 50 95 3f
       -0.8049702 2.0041926 0.1609615 1.1665175
000070 24 9b a9 be a9 9a 88 3e
       -0.33126175 0.26680496

lstm.weight_ih_l0 f4 [12, 3]
000000 6f 59 7b 3e e9 5d cc 3e 88 60 a1 bf b5 9e 15 3f
       0.24545835 0.39915398 -1.2607584 0.5844529
000010 25 b3 ed 3e df a4 b0 3f 92 7f f0 3e 3f 4c ad be
       0.4642574 1.3800315 0.46972328 -0.33847234
000020 48 67 16 3f d6 33 09 3f 80 de c3 bb 68 89 b9 be
       0.58751345 0.5359472 -0.005977452 -0.36237645
000030 c6 32 b5 be 06 a3 28 be 12 0b 9b be 17 11 90 be
       -0.353903 -0.16468439 -0.30281883 -0.2813804
000040 1b 6c 0e bf 2a 52 cb be ce 33 8f 3f 04 9b 77 bf
       -0.55633706 -0.39711124 1.1187685 -0.9672091
000050 00 99 b5 3e 52 de b9 be 05 e6 6d be b8 02 a0 be
       0.35468292 -0.3630243 -0.23232277 -0.31252074
000060 92 93 4e 3f a4 bd b4 bd 62 2c b5 3f a3 f9 30 3e
       0.80693924 -0.088252336 1.415417 0.17282729
000070 82 d6 5e 3f 17 2b 8b bf 80 f9 85 3e 54 85 20 3f
       0.8704606 -1.0872525 0.26166916 0.6270344
000080 16 2a c0 3f 44 81 81 3f 37 35 6c be 65 86 a7 3e
       1.5012844 1.0117574 -0.23067175 0.32719722

lstm.weight_hh_l0 f4 [12, 3]
000000 08 f1 fc 3e f0 2c 93 bd 3e b8 a2 3e 26 f7 6b be
       0.49402642 -0.071863055 0.3178119 -0.23043498
000010 a4 45 0e bf e4 93 a4 be e8 30 0c 3e 70 b3 39 3e
       -0.55575013 -0.32144082 0.13690531 0.18134856
000020 b8 6b 82 bd 23 8d a5 be e0 cb e9 3c b8 0c 78 3e
       -0.06368202 -0.3233424 0.028539598 0.24223602
000030 04 0c 05 3e c0 f4 fe 3d 10 1f f9 3e d9 6b 06 bf
       0.12992865 0.12449026 0.4865651 -0.5250831
000040 a8 93 0c bf e4 13 09 3f 0c 96 03 3e 88 e8 65 3e
       -0.54912806 0.53545976 0.12850207 0.22451985
000050 47 5a 0d bf d8 94 eb be 06 62 a4 3e 70 54 1f 3d
       -0.5521588 -0.46011996 0.32106036 0.038898885
000060 32 3f 23 be 2a 63 bc 3e 64 c7 ff 3e 38 c2 e1 3e
       -0.15942076 0.36794406 0.4995681 0.4409349
000070 14 6e d7 3e 9d 4a 99 be 88 1e c7 3d 5c a6 28 be
       0.4207617 -0.29939738 0.0972262 -0.16469711
000080 f4 16 33 3e 3e 93 e3 be 72 94 01 3f 98 de eb 3e
       0.17489225 -0.44448274 0.50617135 0.46068263

lstm.bias_ih_l0 f4 [12]
000000 ea 45 89 3e e9 5d b8 bd c0 a3 6f 3f 20 26 07 bf
       0.26811153 -0.09002287 0.9360924 -0.5279255
000010 2e 63 c1 be 90 cd 1c bd df 5e 59 be ee e2 49 bf
       -0.3777098 -0.038281977 -0.21227597 -0.7886189
000020 4e 97 f2 3d 81 45 e5 3e 24 eb e0 be d3 e7 35 3f
       0.11845265 0.4477959 -0.43929398 0.7105686

lstm.bias_hh_l0 f4 [12]
000000 c7 f1 1d 3f 5f ec a6 be ee a3 b6 3f 30 af f0 3e
       0.6169705 -0.32602212 1.4268777 0.47008657
000010 20 fd 9c 3d e4 9d 10 3f cf 21 a6 be 76 36 88 bf
       0.07665467 0.5649092 -0.3244767 -1.064162
000020 bf ba de be 60 ac 44 3f 0e c7 92 be b7 9d ad 3f
       -0.4350185 0.76825523 -0.28667492 1.3563756

lstm.weight_ih_l0_reverse f4 [12, 3]
000000 ce 86 66 3e 07 e1 9d 3f 07 13 91 3f 66 79 20 3f
       0.22512361 1.2334298 1.1333932 0.6268524
000010 23 f2 ae bf 91 29 be 3f b5 f7 ed 3e 84 5f 3b 3f
       -1.3667644 1.4856435 0.46478048 0.7319262
000020 35 04 88 3f f0 8a da be b0 be b1 3e e4 63 22 3e
       1.0626284 -0.42684126 0.34715796 0.15858418
000030 0e 63 d2 3e b0 95 5e 3e 64 35 03 3e 00 a4 87 3a
       0.41091198 0.21736789 0.12813336 0.0010348558
000040 e3 6e fc be 7a 27 02 be cc a3 64 3f 96 7f a5 3e
       -0.4930335 -0.12710372 0.89312434 0.32323903
000050 b2 bc af bd 13 d6 8a bf 66 32 99 bf 47 52 5f be
       -0.08580913 -1.084658 -1.1968505 -0.2180873
000060 5e 0b 93 bf c9 a8 4c be aa f0 76 bf 24 09 c2 3f
       -1.1487844 -0.19986261 -0.96460974 1.515904
000070 1d 7e 1e 3f b2 11 91 be 69 1a 95 3f 9b 70 6b bf
       0.61911184 -0.28333813 1.1648685 -0.919687
000080 fe b6 1c 3f cd 36 42 3f ba bb cf 3e 7c cf 58 3f
       0.61216724 0.7586487 0.40572912 0.84691596

lstm.weight_hh_l0_reverse f4 [12, 3]
000000 84 8f f2 be e6 dc a3 3e 7a 9a ac 3e d8 15 e2 bd
       -0.4737512 0.3200447 0.33711606 -0.110393226
000010 9c 74 e2 3e f4 86 65 be 8d 0e ef be 00 7c e7 3d
       0.4422959 -0.22414762 -0.4669079 0.11302948
000020 00 64 46 ba a6 f7 00 be 38 7d d8 3d 98 08 df 3d
       -0.0007568002 -0.1259447 0.105707586 0.10890311
000030 88 07 f6 3d a8 8f 57 3e 6a 59 43 be d4 15 98 3e
       0.12013155 0.21050894 -0.19077078 0.29704154
000040 0a 51 11 be 58 e8 b7 be 7a 08 08 3f 50 40 57 3d
       -0.1419107 -0.35919452 0.53137934 0.052551568
000050 cb 86 a4 be ae 48 55 be 48 6f 84 3e f0 2a ba 3e
       -0.3213409 -0.20828506 0.2586615 0.36360884
000060 10 07 05 3e cc bd b5 be 52 62 12 3f b2 65 0e be
       0.12990975 -0.35496366 0.57181275 -0.13905981
000070 75 2d fe be f4 30 12 3f 30 d2 10 3e 80 68 9c 3e
       -0.49644056 0.57105947 0.1414268 0.30548477
000080 98 4b d2 3e 00 cb 69 3e 52 1d c1 3e c8 60 d5 3d
       0.41073298 0.22831345 0.37717682 0.1041885

lstm.bias_ih_l0_reverse f4 [12]
000000 ce 3d 9c 3e 6a 60 93 3f e4 f1 28 3f 40 8a c8 3c
       0.30515903 1.1513798 0.65994096 0.024479985
000010 58 93 12 be 64 ae 0e bf 39 7d 80 3f 12 1a 89 3d
       -0.1431402 -0.5573485 1.0038215 0.06694426
000020 a1 f6 4f be 05 9a b3 3e c3 86 95 3f fb ef 01 3f
       -0.20308925 0.35078445 1.1681751 0.50756806

lstm.bias_hh_l0_reverse f4 [12]
000000 09 26 39 bd e5 23 9e 3e 0c 3d 7d 3e e0 6b a9 be
       -0.04520229 0.3088676 0.24730319 -0.33090115
000010 90 6c 07 3f 3e d7 a6 3e ff f1 9c 3f 81 76 4d 3f
       0.5290003 0.32586092 1.2261351 0.8025895
000020 33 0d 8b 3e 22 98 2e 3f 14 c3 12 3e 9a 56 2f 3f
       0.27158508 0.68200886 0.14332229 0.6849152

hidden2tag.weight f4 [5, 6]
000000 cb 58 2d 3f 6d bb 64 3e 8c 22 1b bf 3b 5d 8f bf
       0.6771361 0.22337122 -0.6059959 -1.1200327
000010 75 2e 93 3c 07 1f 89 3f ae d5 6c 3f 1e 97 6d 3f
       0.017966488 1.0712594 0.9251355 0.9280871
000020 d7 66 1e bf 63 77 44 bf 90 07 a2 bd 3b a6 35 3f
       -0.6187567 -0.7674467 -0.07911599 0.7095677
000030 a4 44 f7 3e a2 96 3d be 0c 70 65 3f 7b d0 b4 3e
       0.48294556 -0.18514493 0.89624095 0.35315308
000040 b4 34 47 3f bc 42 99 be 08 db 48 3f 96 26 ee be
       0.77814794 -0.29933727 0.78459215 -0.46513814
000050 61 2f 55 3f 27 cb 84 3f 45 46 a3 bf 65 10 7f bf
       0.8327542 1.0374497 -1.275582 -0.9963439
000060 b4 81 ac bf e0 d3 5b 3e ce 9c 8a bf 2c 79 c8 3e
       -1.3477082 0.21467543 -1.0829103 0.39154947
000070 29 64 bd be b6 69 a1 3f
       -0.3699048 1.2610385

hidden2tag.bias f4 [5]
000000 7c b6 fc be 2b 46 b1 be ad 03 9a 3e 7a b0 41 be
       -0.49357975 -0.34623846 0.3008093 -0.18914977
000010 e2 13 be 3d
       0.09281136
