model/test/run_test3.pth (torch, 4228 bytes, 11 tensors)

word_embeddings.weight f4 [10, 3]
00000000: 9a6d 1740 8b23 4ebf e3ca 123f 2721 b2be
00000010: 3dee 973e b294 afbf cb82 dd3f 6e54 ef3e
00000020: 2406 923f dd40 2b3e bdaf a3bf dc36 643f
00000030: d674 693f a5f0 66bf a046 90bf 72a1 f4bf
00000040: 07b9 6bbf 8697 d93e fa9e d73e 6547 073e
00000050: d4aa 17bf 1372 62bf 976f 7cbf 0190 923f
00000060: 8712 4ebf b144 0040 17d3 243e 7250 953f
00000070: 249b a9be a99a 883e
2.3660645 -0.80522984 0.5734083 -0.34790918 0.2967395 -1.3717253 1.730554 0.46744102
1.1408124 0.16723962 -1.2788006 0.8914621 0.911939 -0.90210944 -1.1271553 -1.9111769
-0.92079204 0.42498416 0.42113477 0.13210829 -0.5924504 -0.88455313 -0.9860777 1.1450197
-0.8049702 2.0041926 0.1609615 1.1665175 -0.33126175 0.26680496

lstm.weight_ih_l0 f4 [12, 3]
00000000: 3c40 ec3d ac70 303e 2094 82bf 2b9f ce3e
00000010: 0a2f 0d3f 17be 8c3f 78cd bb3e 5fcc abbe
00000020: 413a 293f d633 093f 80de c3bb 6889 b9be
00000030: c632 b5be 06a3 28be 120b 9bbe 1711 90be
00000040: 1b6c 0ebf 2a52 cbbe b42d 653f 7eb1 59bf
00000050: 715a e63e 0cdb 8dbe 7cf9 8ebe 5339 51be
00000060: 5030 4d3f e390 4fbe 916d 973f 33f5 793d
00000070: c99c 253f ed59 57bf 9d38 623d e423 2d3f
00000080: c4de 9a3f 4ef6 813f d9bf 1cbe e4b0 ed3e
0.11535689 0.17230481 -1.0201454 0.4035581 0.551499 1.0995511 0.36680198 -0.3355436
0.66104513 0.5359472 -0.005977452 -0.36237645 -0.353903 -0.16468439 -0.30281883 -0.2813804
-0.55633706 -0.39711124 0.8952286 -0.85036457 0.44990876 -0.27706182 -0.27924716 -0.20432024
0.80151844 -0.20270114 1.1830312 0.061024856 0.6469236 -0.8412159 0.055229772 0.6763289
1.2099233 1.0153291 -0.15307559 0.4642402

lstm.weight_hh_l0 f4 [12, 3]
00000000: 08f1 fc3e f02c 93bd 3eb8 a23e 26f7 6bbe
00000010: a445 0ebf e493 a4be e830 0c3e 70b3 393e
00000020: b86b 82bd 238d a5be e0cb e93c b80c 783e
00000030: 040c 053e c0f4 fe3d 101f f93e d96b 06bf
00000040: a893 0cbf e413 093f 0c96 033e 88e8 653e
00000050: 475a 0dbf d894 ebbe 0662 a43e 7054 1f3d
00000060: 323f 23be 2a63 bc3e 64c7 ff3e 38c2 e13e
00000070: 146e d73e 9d4a 99be 881e c73d 5ca6 28be
00000080: f416 333e 3e93 e3be 7294 013f 98de eb3e
0.49402642 -0.071863055 0.3178119 -0.23043498 -0.55575013 -0.32144082 0.13690531 0.18134856
-0.06368202 -0.3233424 0.028539598 0.24223602 0.12992865 0.12449026 0.4865651 -0.5250831
-0.54912806 0.53545976 0.12850207 0.22451985 -0.5521588 -0.46011996 0.32106036 0.038898885
-0.15942076 0.36794406 0.4995681 0.4409349 0.4207617 -0.29939738 0.0972262 -0.16469711
0.17489225 -0.44448274 0.50617135 0.46068263

lstm.bias_ih_l0 f4 [12]
00000000: d9a2 d13d be42 05be 5d9e 2c3f 2026 07bf
00000010: 2e63 c1be 90cd 1cbd 440c aebe 25b5 2bbf
00000020: a2e5 7f3e 265d 8b3e 5f7e 04bf 31ee e63e
0.10236139 -0.13013741 0.67429143 -0.5279255 -0.3777098 -0.038281977 -0.33993733 -0.6707328
0.24989942 0.27219504 -0.51755327 0.451036

lstm.bias_hh_l0 f4 [12]
00000000: 5c06 e73e 4376 bbbe 3d21 953f 30af f03e
00000010: 20fd 9c3d e49d 103f a37e e7be 243f 72bf
00000020: c26d 9bbe 33b8 173f a8d8 babe 5a65 8c3f
0.4512204 -0.36613664 1.1650769 0.47008657 0.07665467 0.5649092 -0.45213804 -0.94627595
-0.30357176 0.5926544 -0.3649342 1.096843

lstm.weight_ih_l0_reverse f4 [12, 3]
00000000: 1402 563e 7af9 843f c1d3 7e3f 68ca c63e
00000010: 2659 9abf d9bf 9a3f 532a d23e b467 143f
00000020: b129 753f f08a dabe b0be b13e e463 223e
00000030: 0e63 d23e b095 5e3e 6435 033e 00a4 873a
00000040: e36e fcbe 7a27 02be b686 343f b5b0 053e
00000050: 181b 9c3b c81c 5cbf ae49 7cbf 3669 9abe
00000060: 671e 82bf b4cb a9bd c9b9 36bf cc62 a23f
00000070: 84b0 d83e 0ce6 babe cf30 6f3f 226f 32bf
00000080: ca3d b43e 9684 2e3f 352c 8c3e 41d2 393f
0.2089923 1.0388634 0.9954186 0.388263 -1.2058456 1.2089797 0.41047916 0.5797074
0.9576674 -0.42684126 0.34715796 0.15858418 0.41091198 0.21736789 0.12813336 0.0010348558
-0.4930335 -0.12710372 0.7051805 0.1305569 0.004763972 -0.85981417 -0.98549926 -0.30158395
-1.0165528 -0.082908064 -0.71377236 1.26864 0.4232217 -0.36503637 0.9343385 -0.69700825
0.3520339 0.6817106 0.27377477 0.72586447

lstm.weight_hh_l0_reverse f4 [12, 3]
00000000: 848f f2be e6dc a33e 7a9a ac3e d815 e2bd
00000010: 9c74 e23e f486 65be 8d0e efbe 007c e73d
00000020: 0064 46ba a6f7 00be 387d d83d 9808 df3d
00000030: 8807 f63d a88f 573e 6a59 43be d415 983e
00000040: 0a51 11be 58e8 b7be 7a08 083f 5040 573d
00000050: cb86 a4be ae48 55be 486f 843e f02a ba3e
00000060: 1007 053e ccbd b5be 5262 123f b265 0ebe
00000070: 752d febe f430 123f 30d2 103e 8068 9c3e
00000080: 984b d23e 00cb 693e 521d c13e c860 d53d
-0.4737512 0.3200447 0.33711606 -0.110393226 0.4422959 -0.22414762 -0.4669079 0.11302948
-0.0007568002 -0.1259447 0.105707586 0.10890311 0.12013155 0.21050894 -0.19077078 0.29704154
-0.1419107 -0.35919452 0.53137934 0.052551568 -0.3213409 -0.20828506 0.2586615 0.36360884
0.12990975 -0.35496366 0.57181275 -0.13905981 -0.49644056 0.57105947 0.1414268 0.30548477
0.41073298 0.22831345 0.37717682 0.1041885

lstm.bias_ih_l0_reverse f4 [12]
00000000: bf01 9a3e eeb3 733f fee2 ca3e 408a c83c
00000010: 5893 12be 64ae 0ebf 2728 793f 6525 2abd
00000020: 6cd5 9ebe 7046 763e ada7 6f3f 0eef 703e
0.30079457 0.95196426 0.39626306 0.024479985 -0.1431402 -0.5573485 0.9732689 -0.04153957
-0.31022203 0.24050307 0.9361523 0.23528692

lstm.bias_hh_l0_reverse f4 [12]
00000000: 7e06 4bbd 6928 e03d 5824 86bc e06b a9be
00000010: 906c 073f 3ed7 a63e da08 993f e8b0 313f
00000020: 2d66 283e bc5c 123f 9fa8 b5bd c544 d33e
-0.04956674 0.109452076 -0.016374752 -0.33090115 0.5290003 0.32586092 1.1955826 0.6941056
0.16445227 0.5717275 -0.088700525 0.41263404

hidden2tag.weight f4 [5, 6]
00000000: e769 3c3f f849 f73d 4427 dcbe 7672 63bf
00000010: a450 30bd 1271 4a3f f48c 383f 6ff6 2d3f
00000020: 3894 f7be 9bb9 2abf 0661 18be bcf2 213f
00000030: ba62 6e3e 085e 26be 4ee4 2d3f 9dcc 9e3e
00000040: ec2f 113f aa51 19be 50f6 123f afec 93be
00000050: 38db 493f 9404 4b3f 21bd 7cbf 829d 44bf
00000060: 7761 8cbf 3c8a 033e 6fb3 51bf 33e5 b23e
00000070: 1edc 79be d53f 7b3f
0.73599094 0.12074655 -0.42998707 -0.8884653 -0.043045655 0.7907878 0.7209008 0.6795415
-0.4835527 -0.6668946 -0.14880762 0.6326101 0.23279849 -0.16246808 0.6792649 0.31015483
0.5671375 -0.14972559 0.57407093 -0.28891513 0.78850126 0.7930386 -0.9872609 -0.7680284
-1.0967244 0.12845701 -0.8191442 0.3494049 -0.24400374 0.98144275

hidden2tag.bias f4 [5]
00000000: 2310 f0be 0e11 8bbe 71a1 513e 4328 8b3d
00000010: ba76 133d
-0.4688731 -0.2716145 0.20471741 0.06794789 0.0360019
