model/test/run_test16.pth (torch, 4228 bytes, 11 tensors)

word_embeddings.weight f4 [10, 3]
00000000: 9a6d 1740 8b23 4ebf e3ca 123f 358c c23e
00000010: 81f0 0040 e438 c1bf 6dc1 3640 fa81 e83f
00000020: 1a3f f83f 27cc 163f 06fc 14c0 25a8 0740
00000030: 89b9 8a3f e73f c5bf 8b50 0fc0 6365 dfbf
00000040: 6497 c5bf d311 c53f fa9e d73e 6547 073e
00000050: d4aa 17bf 1372 62bf 976f 7cbf 0190 923f
00000060: 8712 4ebf b144 0040 17d3 243e 7250 953f
00000070: 249b a9be a99a 883e
2.3660645 -0.80522984 0.5734083 0.37997594 2.0146792 -1.5095487 2.8555558 1.8164666
1.9394257 0.5890526 -2.3278823 2.1196377 1.0837871 -1.5410126 -2.239291 -1.7452816
-1.5436826 1.5396065 0.42113477 0.13210829 -0.5924504 -0.88455313 -0.9860777 1.1450197
-0.8049702 2.0041926 0.1609615 1.1665175 -0.33126175 0.26680496

lstm.weight_ih_l0 f4 [12, 3]
00000000: 0ae2 a83f 51db b93f 9577 08c0 1838 b6bd
00000010: 2d61 11bf 1edd 4240 580f 273f e871 17bf
00000020: d9da 54bd d633 093f 80de c3bb 6889 b9be
00000030: c632 b5be 06a3 28be 120b 9bbe 1711 90be
00000040: 1b6c 0ebf 2a52 cbbe 404a f23f 0c42 e2bf
00000050: 3fa1 743e 8952 febe 8a99 9d3e 8c67 3cbf
00000060: e3a3 c13f 2ba7 0c3f 1a19 fc3f a02b 983f
00000070: 04ce be3f 71ad 0ac0 01b5 5abe 19c5 35be
00000080: ffb0 4c40 98ca 053f 3e0d 72bf b127 b7be
1.3193982 1.4520055 -2.1322987 -0.08897418 -0.56788903 3.044746 0.6525779 -0.5915818
-0.051966522 0.5359472 -0.005977452 -0.36237645 -0.353903 -0.16468439 -0.30281883 -0.2813804
-0.55633706 -0.39711124 1.8928909 -1.7676406 0.23889636 -0.49672344 0.30781204 -0.735955
1.5128139 0.5494258 1.969516 1.1888313 1.4906621 -2.166836 -0.2135811 -0.17750968
3.198303 0.5226226 -0.94551456 -0.3577247

lstm.weight_hh_l0 f4 [12, 3]
00000000: 08f1 fc3e f02c 93bd 3eb8 a23e 26f7 6bbe
00000010: a445 0ebf e493 a4be e830 0c3e 70b3 393e
00000020: b86b 82bd 238d a5be e0cb e93c b80c 783e
00000030: 040c 053e c0f4 fe3d 101f f93e d96b 06bf
00000040: a893 0cbf e413 093f 0c96 033e 88e8 653e
00000050: 475a 0dbf d894 ebbe 0662 a43e 7054 1f3d
00000060: 323f 23be 2a63 bc3e 64c7 ff3e 38c2 e13e
00000070: 146e d73e 9d4a 99be 881e c73d 5ca6 28be
00000080: f416 333e 3e93 e3be 7294 013f 98de eb3e
0.49402642 -0.071863055 0.3178119 -0.23043498 -0.55575013 -0.32144082 0.13690531 0.18134856
-0.06368202 -0.3233424 0.028539598 0.24223602 0.12992865 0.12449026 0.4865651 -0.5250831
-0.54912806 0.53545976 0.12850207 0.22451985 -0.5521588 -0.46011996 0.32106036 0.038898885
-0.15942076 0.36794406 0.4995681 0.4409349 0.4207617 -0.29939738 0.0972262 -0.16469711
0.17489225 -0.44448274 0.50617135 0.46068263

lstm.bias_ih_l0 f4 [12]
00000000: 8d25 723f 98bd 213f 5587 0240 2026 07bf
00000010: 2e63 c1be 90cd 1cbd 0f4f 1e3e bab6 a2bf
00000020: cfa5 eebe 9c1e a63f 7a61 e13e 1efe f03f
0.9458855 0.6317992 2.03951 -0.5279255 -0.3777098 -0.038281977 0.15459846 -1.2712014
-0.46610877 1.2978091 0.4401968 1.882755

lstm.bias_hh_l0 f4 [12]
00000000: 2dba a53f 47a6 ca3e 5bf0 2140 30af f03e
00000010: 20fd 9c3d e49d 103f 3ea9 2d3d b8fb c5bf
00000020: 9881 82bf 6c23 cf3f c9c2 173f f8d3 2140
1.2947441 0.39579985 2.5302951 0.47008657 0.07665467 0.5649092 0.04239773 -1.5467443
-1.0195799 1.6182685 0.59281594 2.5285625

lstm.weight_ih_l0_reverse f4 [12, 3]
00000000: 6c9c 193e 9ad8 1e40 711a 1d3f 4140 983f
00000010: 5cd5 c3bf 8dc3 2b40 e244 1abf e3be 443f
00000020: 13e5 da3f f08a dabe b0be b13e e463 223e
00000030: 0e63 d23e b095 5e3e 6435 033e 00a4 873a
00000040: e36e fcbe 7a27 02be 0d2a ce3f e0be d63f
00000050: 87de a2bf 31dc e2bf de40 f0bf c33b 783e
00000060: beee e8bf b863 46bf a7b4 e8bf c21c 0640
00000070: f5e4 c33f 8951 27bf 76dd ab3f 6c18 e9bf
00000080: c66c db3f 8738 43be f591 94be f607 b53f
0.15001076 2.4819703 0.6136847 1.1894609 -1.5299487 2.6838105 -0.60261357 0.7685377
1.7101158 -0.42684126 0.34715796 0.15858418 0.41091198 0.21736789 0.12813336 0.0010348558
-0.4930335 -0.12710372 1.6106583 1.6777 -1.272416 -1.7723447 -1.8769796 0.24241547
-1.8197858 -0.7749591 -1.8180131 2.0955052 1.5304247 -0.6535879 1.342696 -1.8210578
1.714257 -0.19064532 -0.29017606 1.4143054

lstm.weight_hh_l0_reverse f4 [12, 3]
00000000: 848f f2be e6dc a33e 7a9a ac3e d815 e2bd
00000010: 9c74 e23e f486 65be 8d0e efbe 007c e73d
00000020: 0064 46ba a6f7 00be 387d d83d 9808 df3d
00000030: 8807 f63d a88f 573e 6a59 43be d415 983e
00000040: 0a51 11be 58e8 b7be 7a08 083f 5040 573d
00000050: cb86 a4be ae48 55be 486f 843e f02a ba3e
00000060: 1007 053e ccbd b5be 5262 123f b265 0ebe
00000070: 752d febe f430 123f 30d2 103e 8068 9c3e
00000080: 984b d23e 00cb 693e 521d c13e c860 d53d
-0.4737512 0.3200447 0.33711606 -0.110393226 0.4422959 -0.22414762 -0.4669079 0.11302948
-0.0007568002 -0.1259447 0.105707586 0.10890311 0.12013155 0.21050894 -0.19077078 0.29704154
-0.1419107 -0.35919452 0.53137934 0.052551568 -0.3213409 -0.20828506 0.2586615 0.36360884
0.12990975 -0.35496366 0.57181275 -0.13905981 -0.49644056 0.57105947 0.1414268 0.30548477
0.41073298 0.22831345 0.37717682 0.1041885

lstm.bias_ih_l0_reverse f4 [12]
00000000: 273b 2c3f ec9f d43f 5ad7 e53f 408a c83c
00000010: 5893 12be 64ae 0ebf 504a 093f b638 c03e
00000020: a60f bb3e a9ab 343f 16b9 0340 3b6d f23f
0.6727776 1.6611304 1.7956345 0.024479985 -0.1431402 -0.5573485 0.53629017 0.37543267
0.36535376 0.7057443 2.0581717 1.8939584

lstm.bias_hh_l0_reverse f4 [12]
00000000: c313 a53e f390 513f 0a06 b13f e06b a9be
00000010: 906c 073f 3ed7 a63e d833 423f cf37 8e3f
00000020: 120c 573f 63bb 843f cc43 843f 4590 0440
0.3224164 0.818618 1.3829968 -0.33090115 0.5290003 0.32586092 0.7586036 1.1110781
0.8400279 1.0369686 1.033319 2.0713055

hidden2tag.weight f4 [5, 6]
00000000: dab3 40bf 03ab 78bf 3663 a8bf 3f4b 30c0
00000010: 1489 8a3f ff01 3a40 9b5a 3540 ebd6 5140
00000020: 8414 05c0 a6b9 93bf c277 763f b766 cf3f
00000030: a209 a63d f8a2 87be 81a6 0640 dbc4 f7bd
00000040: a837 e33f 1807 e1bf a94f 1440 8e39 9abf
00000050: 047b 653f 3f3e 4240 de5e 39c0 a8b9 e3bf
00000060: 7898 36c0 5f9f c13f 4914 d1bf c978 bc3f
00000070: 0666 fdbf 01e6 c33f
-0.7527443 -0.97135943 -1.3155277 -2.7545927 1.0823083 2.9063718 2.833655 3.2787426
-2.0793772 -1.154103 0.96276486 1.6203221 0.08107306 -0.26491523 2.1039126 -0.12098094
1.775136 -1.758029 2.317362 -1.2048814 0.8964083 3.0350492 -2.8964152 -1.7791033
-2.853056 1.5126761 -1.6334316 1.4724361 -1.979676 1.5304567

hidden2tag.bias f4 [5]
00000000: af99 71be c8b5 bcbd 3d73 e13e e189 9fbf
00000010: bc46 bfbd
-0.23593782 -0.092143595 0.44033232 -1.2463952 -0.093396634
