model/test/run_test15.pth (torch, 4228 bytes, 11 tensors)

word_embeddings.weight f4 [10, 3]
0	0x40176d9a	2.3660645
1	0xbf4e238b	-0.80522984
2	0x3f12cae3	0.5734083
3	0x3ebdf136	0.37098092
4	0x3ffde0b7	1.9834203
5	0xbfc0c2de	-1.5059469
6	0x4035f6d5	2.8431904
7	0x3fe5d4e4	1.7955594
8	0x3ff7ca7c	1.9358668
9	0x3f0bdb6d	0.5463169
10	0xc0148fdb	-2.3212802
11	0x40059d09	2.0877097
12	0x3f895e6f	1.0731944
13	0xbfc4ec73	-1.5384659
14	0xc00dd01e	-2.2158275
15	0xbfde5dda	-1.7372391
16	0xbfc48ff9	-1.5356437
17	0x3fc2d861	1.5222284
18	0x3ed79efa	0.42113477
19	0x3e074765	0.13210829
20	0xbf17aad4	-0.5924504
21	0xbf627213	-0.88455313
22	0xbf7c6f97	-0.9860777
23	0x3f929001	1.1450197
24	0xbf4e1287	-0.8049702
25	0x400044b1	2.0041926
26	0x3e24d317	0.1609615
27	0x3f955072	1.1665175
28	0xbea99b24	-0.33126175
29	0x3e889aa9	0.26680496

lstm.weight_ih_l0 f4 [12, 3]
0	0x3fa66920	1.3000832
1	0x3fb84f72	1.4399245
2	0xc007bbd4	-2.120839
3	0xbd45ffec	-0.04833977
4	0xbf066b53	-0.52507514
5	0x403feb19	2.9987242
6	0x3f26e253	0.65189093
7	0xbf15c8ce	-0.5850953
8	0xbd2e6c41	-0.042583708
9	0x3f0933d6	0.5359472
10	0xbbc3de80	-0.005977452
11	0xbeb98968	-0.36237645
12	0xbeb532c6	-0.353903
13	0xbe28a306	-0.16468439
14	0xbe9b0b12	-0.30281883
15	0xbe901117	-0.2813804
16	0xbf0e6c1b	-0.55633706
17	0xbecb522a	-0.39711124
18	0x3ff12bad	1.8841454
19	0xbfe0500b	-1.7524427
20	0x3e6f5b33	0.23374633
21	0xbf001c82	-0.500435
22	0x3e8f903b	0.28039727
23	0xbf399e93	-0.7250759
24	0x3fbe17cf	1.4851016
25	0x3f08cbe7	0.5343613
26	0x3ffc13ff	1.9693602
27	0x3f95bf7b	1.169906
28	0x3fbe83bb	1.4883951
29	0xc009a897	-2.150915
30	0xbe2d1ca5	-0.16905458
31	0xbe055db2	-0.13024023
32	0x4049743d	3.1477196
33	0x3f08b0ea	0.5339495
34	0xbf6ecd06	-0.9328159
35	0xbeb16894	-0.346501

lstm.weight_hh_l0 f4 [12, 3]
0	0x3efcf108	0.49402642
1	0xbd932cf0	-0.071863055
2	0x3ea2b83e	0.3178119
3	0xbe6bf726	-0.23043498
4	0xbf0e45a4	-0.55575013
5	0xbea493e4	-0.32144082
6	0x3e0c30e8	0.13690531
7	0x3e39b370	0.18134856
8	0xbd826bb8	-0.06368202
9	0xbea58d23	-0.3233424
10	0x3ce9cbe0	0.028539598
11	0x3e780cb8	0.24223602
12	0x3e050c04	0.12992865
13	0x3dfef4c0	0.12449026
14	0x3ef91f10	0.4865651
15	0xbf066bd9	-0.5250831
16	0xbf0c93a8	-0.54912806
17	0x3f0913e4	0.53545976
18	0x3e03960c	0.12850207
19	0x3e65e888	0.22451985
20	0xbf0d5a47	-0.5521588
21	0xbeeb94d8	-0.46011996
22	0x3ea46206	0.32106036
23	0x3d1f5470	0.038898885
24	0xbe233f32	-0.15942076
25	0x3ebc632a	0.36794406
26	0x3effc764	0.4995681
27	0x3ee1c238	0.4409349
28	0x3ed76e14	0.4207617
29	0xbe994a9d	-0.29939738
30	0x3dc71e88	0.0972262
31	0xbe28a65c	-0.16469711
32	0x3e3316f4	0.17489225
33	0xbee3933e	-0.44448274
34	0x3f019472	0.50617135
35	0x3eebde98	0.46068263

lstm.bias_ih_l0 f4 [12]
0	0x3f6ec377	0.93267006
1	0x3f1a93f6	0.6038202
2	0x40018c8a	2.0242028
3	0xbf072620	-0.5279255
4	0xbec1632e	-0.3777098
5	0xbd1ccd90	-0.038281977
6	0x3e1d1772	0.15340975
7	0xbfa11401	-1.258423
8	0xbee89d7c	-0.4543265
9	0x3fa406d9	1.281459
10	0x3ecfdc86	0.40597934
11	0x3feee8ea	1.866483

lstm.bias_hh_l0 f4 [12]
0	0x3fa40922	1.2815287
1	0x3ebc5303	0.36782083
2	0x4020f590	2.514988
3	0x3ef0af30	0.47008657
4	0x3d9cfd20	0.07665467
5	0x3f109de4	0.5649092
6	0x3d28caca	0.04120902
7	0xbfc458ff	-1.533966
8	0xbf80ff83	-1.0077976
9	0x3fcd0ba9	1.6019183
10	0x3f0f004f	0.55859846
11	0x4020c95e	2.5122905

lstm.weight_ih_l0_reverse f4 [12, 3]
0	0x3e13754c	0.14400214
1	0x401db07b	2.4638965
2	0x3f2324e4	0.63728166
3	0x3f977d6a	1.1835148
4	0xbfc43dab	-1.533132
5	0x402afaef	2.6715658
6	0xbf0fdea6	-0.5619911
7	0x3f406d3d	0.75166684
8	0x3fd277e8	1.6442842
9	0xbeda8af0	-0.42684126
10	0x3eb1beb0	0.34715796
11	0x3e2263e4	0.15858418
12	0x3ed2630e	0.41091198
13	0x3e5e95b0	0.21736789
14	0x3e033564	0.12813336
15	0x3a87a400	0.0010348558
16	0xbefc6ee3	-0.4930335
17	0xbe02277a	-0.12710372
18	0x3fcd1b5b	1.6023973
19	0x3fd4326b	1.6577886
20	0xbfa066bf	-1.2531356
21	0xbfe1d5af	-1.7643336
22	0xbfef3fb6	-1.8691318
23	0x3e72298a	0.23648658
24	0xbfe4b8dc	-1.7868915
25	0xbf42ea93	-0.7613918
26	0xbfe7dafd	-1.8113705
27	0x4005bd53	2.0896804
28	0x3fc2f964	1.5232358
29	0xbf26f9ef	-0.6522512
30	0x3fac4c31	1.3460752
31	0xbfe79fc8	-1.8095636
32	0x3fd98bc9	1.6995784
33	0xbe258f85	-0.1616803
34	0xbe7be4e0	-0.24599028
35	0x3fad5dac	1.3544211

lstm.weight_hh_l0_reverse f4 [12, 3]
0	0xbef28f84	-0.4737512
1	0x3ea3dce6	0.3200447
2	0x3eac9a7a	0.33711606
3	0xbde215d8	-0.110393226
4	0x3ee2749c	0.4422959
5	0xbe6586f4	-0.22414762
6	0xbeef0e8d	-0.4669079
7	0x3de77c00	0.11302948
8	0xba466400	-0.0007568002
9	0xbe00f7a6	-0.1259447
10	0x3dd87d38	0.105707586
11	0x3ddf0898	0.10890311
12	0x3df60788	0.12013155
13	0x3e578fa8	0.21050894
14	0xbe43596a	-0.19077078
15	0x3e9815d4	0.29704154
16	0xbe11510a	-0.1419107
17	0xbeb7e858	-0.35919452
18	0x3f08087a	0.53137934
19	0x3d574050	0.052551568
20	0xbea486cb	-0.3213409
21	0xbe5548ae	-0.20828506
22	0x3e846f48	0.2586615
23	0x3eba2af0	0.36360884
24	0x3e050710	0.12990975
25	0xbeb5bdcc	-0.35496366
26	0x3f126252	0.57181275
27	0xbe0e65b2	-0.13905981
28	0xbefe2d75	-0.49644056
29	0x3f1230f4	0.57105947
30	0x3e10d230	0.1414268
31	0x3e9c6880	0.30548477
32	0x3ed24b98	0.41073298
33	0x3e69cb00	0.22831345
34	0x3ec11d52	0.37717682
35	0x3dd560c8	0.1041885

lstm.bias_ih_l0_reverse f4 [12]
0	0x3f27c915	0.655412
1	0x3fd3a55d	1.653484
2	0x3fe68c7c	1.8011622
3	0x3cc88a40	0.024479985
4	0xbe129358	-0.1431402
5	0xbf0eae64	-0.5573485
6	0x3f0b465e	0.54404247
7	0x3ebe84e6	0.37210768
8	0x3eba7a4a	0.36421424
9	0x3f31e256	0.69485986
10	0x4002e9cd	2.04552
11	0x3ff1e32e	1.8897455

lstm.bias_hh_l0_reverse f4 [12]
0	0x3e9c2f9f	0.30505082
1	0x3f4f9bd5	0.81097156
2	0x3fb1bb2c	1.3885245
3	0xbea96be0	-0.33090115
4	0x3f076c90	0.5290003
5	0x3ea6d73e	0.32586092
6	0x3f442fe6	0.7663559
7	0x3f8dcadb	1.1077532
8	0x3f56c165	0.83888847
9	0x3f8356bb	1.0260843
10	0x3f82a53a	1.0206673
11	0x40044b3e	2.0670924

hidden2tag.weight f4 [5, 6]
0	0xbf326683	-0.6968767
1	0xbf594802	-0.848755
2	0xbfab9433	-1.3404602
3	0xc029f2a5	-2.6554348
4	0x3f864f30	1.0492916
5	0x4036a001	2.8535159
6	0x4030235d	2.7521584
7	0x40482924	3.127511
8	0xc001f377	-2.030485
9	0xbf91d7ac	-1.1393943
10	0x3f6e7d9c	0.93160415
11	0x3fd30f52	1.648905
12	0x3e01c9af	0.12674592
13	0xbe831125	-0.25599018
14	0x4004d529	2.0755103
15	0xbdc5b9ff	-0.096546166
16	0x3fe08562	1.7540705
17	0xbfda3468	-1.7047243
18	0x40113975	2.269132
19	0xbf9b0c6d	-1.2113167
20	0x3f661412	0.89874375
21	0x403e548f	2.973911
22	0xc036e105	-2.857484
23	0xbfe330eb	-1.7749304
24	0xc033266a	-2.7992196
25	0x3fb97690	1.4489307
26	0xbfceb70b	-1.614961
27	0x3fb0a412	1.380007
28	0xbff7bf27	-1.935521
29	0x3fc1ad76	1.5131061

hidden2tag.bias f4 [5]
0	0xbe68d6df	-0.22738217
1	0xbde266bd	-0.11054752
2	0x3ee22987	0.44172308
3	0xbf9cec3f	-1.2259597
4	0xbdc73b86	-0.0972815
