model/test/run_test24.pth (torch, 4228 bytes, 11 tensors)

word_embeddings.weight f4 [10, 3]
2.3660645 -0.80522984 0.5734083 0.45228848 2.1111333 -1.5576398 2.89341 1.8856462
1.947009 0.8119495 -2.3355658 2.2593365 1.1350194 -1.5629674 -2.2795386 -1.7712997
-1.5659976 1.5930444 0.42113477 0.13210829 -0.5924504 -0.88455313 -0.9860777 1.1450197
-0.8049702 2.0041926 0.1609615 1.1665175 -0.33126175 0.26680496
00000000: 9a6d 1740 8b23 4ebf e3ca 123f 5b92 e73e
00000010: cf1c 0740 be60 c7bf a12d 3940 db5c f13f
00000020: 9737 f93f ecdb 4f3f e979 15c0 f898 1040
00000030: 5148 913f 510f c8bf f6e3 11c0 f3b9 e2bf
00000040: 9c72 c8bf e1e8 cb3f fa9e d73e 6547 073e
00000050: d4aa 17bf 1372 62bf 976f 7cbf 0190 923f
00000060: 8712 4ebf b144 0040 17d3 243e 7250 953f
00000070: 249b a9be a99a 883e

lstm.weight_ih_l0 f4 [12, 3]
1.3783581 1.4859111 -2.1641412 -0.19996387 -0.6856395 3.1763186 0.65883076 -0.5996042
-0.087333865 0.5359472 -0.005977452 -0.36237645 -0.353903 -0.16468439 -0.30281883 -0.2813804
-0.55633706 -0.39711124 1.9197205 -1.8115753 0.25874856 -0.4827459 0.3990577 -0.7708455
1.5864036 0.5786145 1.9800062 1.2476997 1.5002801 -2.2094927 -0.33693445 -0.30898684
3.3417985 0.47743744 -0.97496516 -0.4155997
00000000: 0a6e b03f 5632 be3f 4a81 0ac0 54c3 4cbe
00000010: 1286 2fbf ce48 4b40 22a9 283f a97f 19bf
00000020: 19dc b2bd d633 093f 80de c3bb 6889 b9be
00000030: c632 b5be 06a3 28be 120b 9bbe 1711 90be
00000040: 1b6c 0ebf 2a52 cbbe 67b9 f53f b3e1 e7bf
00000050: b17a 843e 782a f7be 4a51 cc3e 2156 45bf
00000060: 460f cb3f 1420 143f d870 fd3f a0b4 9f3f
00000070: 2e09 c03f 5468 0dc0 ac82 acbe 8633 9ebe
00000080: 07e0 5540 ae72 f43e 5197 79bf 7cc9 d4be

lstm.weight_hh_l0 f4 [12, 3]
0.49402642 -0.071863055 0.3178119 -0.23043498 -0.55575013 -0.32144082 0.13690531 0.18134856
-0.06368202 -0.3233424 0.028539598 0.24223602 0.12992865 0.12449026 0.4865651 -0.5250831
-0.54912806 0.53545976 0.12850207 0.22451985 -0.5521588 -0.46011996 0.32106036 0.038898885
-0.15942076 0.36794406 0.4995681 0.4409349 0.4207617 -0.29939738 0.0972262 -0.16469711
0.17489225 -0.44448274 0.50617135 0.46068263
00000000: 08f1 fc3e f02c 93bd 3eb8 a23e 26f7 6bbe
00000010: a445 0ebf e493 a4be e830 0c3e 70b3 393e
00000020: b86b 82bd 238d a5be e0cb e93c b80c 783e
00000030: 040c 053e c0f4 fe3d 101f f93e d96b 06bf
00000040: a893 0cbf e413 093f 0c96 033e 88e8 653e
00000050: 475a 0dbf d894 ebbe 0662 a43e 7054 1f3d
00000060: 323f 23be 2a63 bc3e 64c7 ff3e 38c2 e13e
00000070: 146e d73e 9d4a 99be 881e c73d 5ca6 28be
00000080: f416 333e 3e93 e3be 7294 013f 98de eb3e

lstm.bias_ih_l0 f4 [12]
0.98702943 0.7102694 2.0841992 -0.5279255 -0.3777098 -0.038281977 0.15694167 -1.3111978
-0.494803 1.3475469 0.53590333 1.9284842
00000000: f6ad 7c3f 37d4 353f 8563 0540 2026 07bf
00000010: 2e63 c1be 90cd 1cbd 51b5 203e 54d5 a7bf
00000020: d256 fdbe 6b7c ac3f f630 093f 92d8 f63f

lstm.bias_hh_l0 f4 [12]
1.335888 0.47427008 2.5749843 0.47008657 0.07665467 0.5649092 0.044740953 -1.5867407
-1.0482744 1.6680063 0.6885225 2.5742922
00000000: 61fe aa3f 87d3 f23e 8bcc 2440 30af f03e
00000010: 20fd 9c3d e49d 103f 4a42 373d 521a cbbf
00000020: db2d 86bf 3b81 d53f 0343 303f 34c1 2440

lstm.weight_ih_l0_reverse f4 [12, 3]
0.18308978 2.5193586 0.5314491 1.2737209 -1.6266141 2.599392 -0.7187003 0.75192153
1.921489 -0.42684126 0.34715796 0.15858418 0.41091198 0.21736789 0.12813336 0.0010348558
-0.4930335 -0.12710372 1.6330246 1.7311472 -1.3249006 -1.7907424 -1.9011065 0.24898092
-1.9565915 -0.83418155 -1.8300076 2.1140962 1.5404023 -0.64200157 1.3386445 -1.8518882
1.750348 -0.2853227 -0.5633769 1.6830614
00000000: e37b 3b3e 2c3d 2140 0c0d 083f 4909 a33f
00000010: e434 d0bf 705c 2640 befc 37bf ee7d 403f
00000020: 5af3 f53f f08a dabe b0be b13e e463 223e
00000030: 0e63 d23e b095 5e3e 6435 033e 00a4 873a
00000040: e36e fcbe 7a27 02be f306 d13f 3b96 dd3f
00000050: 5896 a9bf 0c37 e5bf 7557 f3bf dbf4 7e3e
00000060: 9771 fabf ec8c 55bf b03d eabf 5a4d 0740
00000070: e72b c53f 375a 24bf b458 ab3f ac0a edbf
00000080: 670b e03f d115 92be 7839 10bf 8e6e d73f

lstm.weight_hh_l0_reverse f4 [12, 3]
-0.4737512 0.3200447 0.33711606 -0.110393226 0.4422959 -0.22414762 -0.4669079 0.11302948
-0.0007568002 -0.1259447 0.105707586 0.10890311 0.12013155 0.21050894 -0.19077078 0.29704154
-0.1419107 -0.35919452 0.53137934 0.052551568 -0.3213409 -0.20828506 0.2586615 0.36360884
0.12990975 -0.35496366 0.57181275 -0.13905981 -0.49644056 0.57105947 0.1414268 0.30548477
0.41073298 0.22831345 0.37717682 0.1041885
00000000: 848f f2be e6dc a33e 7a9a ac3e d815 e2bd
00000010: 9c74 e23e f486 65be 8d0e efbe 007c e73d
00000020: 0064 46ba a6f7 00be 387d d83d 9808 df3d
00000030: 8807 f63d a88f 573e 6a59 43be d415 983e
00000040: 0a51 11be 58e8 b7be 7a08 083f 5040 573d
00000050: cb86 a4be ae48 55be 486f 843e f02a ba3e
00000060: 1007 053e ccbd b5be 5262 123f b265 0ebe
00000070: 752d febe f430 123f 30d2 103e 8068 9c3e
00000080: 984b d23e 00cb 693e 521d c13e c860 d53d

lstm.bias_ih_l0_reverse f4 [12]
0.73675 1.729808 1.7688613 0.024479985 -0.1431402 -0.5573485 0.5155646 0.38728365
0.33936659 0.74724406 2.0953774 1.858992
00000000: a69b 3c3f 596a dd3f 0c6a e23f 408a c83c
00000010: 5893 12be 64ae 0ebf 0bfc 033f 0b4a c63e
00000020: 75c1 ad3e 634b 3f3f aa1a 0640 73f3 ed3f

lstm.bias_hh_l0_reverse f4 [12]
0.38638875 0.8872955 1.3562236 -0.33090115 0.5290003 0.32586092 0.737878 1.122929
0.81404084 1.0784682 1.0705253 2.036338
00000000: bfd4 c53e cc25 633f bc98 ad3f e06b a9be
00000010: 906c 073f 3ed7 a63e 93e5 3c3f 23bc 8f3f
00000020: fb64 503f 3f0b 8a3f f906 893f 5d53 0240

hidden2tag.weight f4 [5, 6]
-0.95098805 -1.5341022 -1.194624 -3.2409124 1.2080468 3.187902 3.193929 4.0273213
-2.2703779 -1.2255418 1.0675938 1.2742141 -0.17059381 -0.35452542 2.2241142 -0.2456742
1.8696046 -1.9949424 2.5371182 -1.1410612 0.8909881 3.3068867 -3.0619063 -1.7698667
-3.1004531 1.7803837 -1.7398971 1.9561858 -2.134055 1.6437491
00000000: f473 73bf 765d c4bf 70e9 98bf 1c6b 4fc0
00000010: 47a1 9a3f 9606 4c40 5569 4c40 d1df 8040
00000020: df4d 11c0 8ede 9cbf eaa6 883f 7319 a33f
00000030: 25b0 2ebe 5b84 b5be e357 0e40 0492 7bbe
00000040: 344f ef3f 465a ffbf 2560 2240 4b0e 92bf
00000050: cc17 643f 08a4 5340 46f6 43c0 fe8a e2bf
00000060: d36d 46c0 9de3 e33f f3b4 debf 4c64 fa3f
00000070: 5b94 08c0 5f66 d23f

hidden2tag.bias f4 [5]
-0.30217263 -0.011711297 0.432024 -1.3312695 -0.04482554
00000000: 5fb6 9abe bde0 3fbc 4032 dd3e 0a67 aabf
00000010: fc9a 37bd
