model/test/run_test18.pth (torch, 4228 bytes, 11 tensors)

word_embeddings.weight f4 [10, 3]
0	0x40176d9a	2.3660645
1	0xbf4e238b	-0.80522984
2	0x3f12cae3	0.5734083
3	0x3ecda20c	0.40162694
4	0x4003bae0	2.058281
5	0xbfc2c6d6	-1.521693
6	0x4037d655	2.8724568
7	0x3fec430b	1.845796
8	0x3ff8cc6d	1.9437386
9	0x3f2a2fd1	0.6647921
10	0xc0156e42	-2.3348546
11	0x400afb19	2.1715758
12	0x3f8cf2b4	1.1011567
13	0xbfc5f715	-1.5466028
14	0xc0110c80	-2.266388
15	0xbfe0dc26	-1.7567184
16	0xbfc6fb53	-1.5545448
17	0x3fc82720	1.563694
18	0x3ed79efa	0.42113477
19	0x3e074765	0.13210829
20	0xbf17aad4	-0.5924504
21	0xbf627213	-0.88455313
22	0xbf7c6f97	-0.9860777
23	0x3f929001	1.1450197
24	0xbf4e1287	-0.8049702
25	0x400044b1	2.0041926
26	0x3e24d317	0.1609615
27	0x3f955072	1.1665175
28	0xbea99b24	-0.33126175
29	0x3e889aa9	0.26680496

lstm.weight_ih_l0 f4 [12, 3]
0	0x3fac4559	1.3458663
1	0x3fbbe723	1.4679912
2	0xc0097209	-2.1475852
3	0xbe12502f	-0.142884
4	0xbf1ff5fd	-0.62484723
5	0x4046d38c	3.1066618
6	0x3f277412	0.65411484
7	0xbf1955ca	-0.5989653
8	0xbd8699b9	-0.06572289
9	0x3f0933d6	0.5359472
10	0xbbc3de80	-0.005977452
11	0xbeb98968	-0.36237645
12	0xbeb532c6	-0.353903
13	0xbe28a306	-0.16468439
14	0xbe9b0b12	-0.30281883
15	0xbe901117	-0.2813804
16	0xbf0e6c1b	-0.55633706
17	0xbecb522a	-0.39711124
18	0x3ff3cf89	1.904771
19	0xbfe4e6c2	-1.7882922
20	0x3e7c8dc6	0.24663457
21	0xbefb6db2	-0.49107128
22	0x3eb1c77a	0.347225
23	0xbf405714	-0.7513287
24	0x3fc64a6b	1.549146
25	0x3f1135ca	0.567227
26	0x3ffc5956	1.9714763
27	0x3f9b8266	1.214917
28	0x3fbf3bd9	1.4940139
29	0xc00c0535	-2.1878178
30	0xbe8bc08e	-0.27295345
31	0xbe766c99	-0.24064864
32	0x40510a3c	3.2662497
33	0x3f018ac5	0.5060237
34	0xbf7621d9	-0.961454
35	0xbec08cb3	-0.37607345

lstm.weight_hh_l0 f4 [12, 3]
0	0x3efcf108	0.49402642
1	0xbd932cf0	-0.071863055
2	0x3ea2b83e	0.3178119
3	0xbe6bf726	-0.23043498
4	0xbf0e45a4	-0.55575013
5	0xbea493e4	-0.32144082
6	0x3e0c30e8	0.13690531
7	0x3e39b370	0.18134856
8	0xbd826bb8	-0.06368202
9	0xbea58d23	-0.3233424
10	0x3ce9cbe0	0.028539598
11	0x3e780cb8	0.24223602
12	0x3e050c04	0.12992865
13	0x3dfef4c0	0.12449026
14	0x3ef91f10	0.4865651
15	0xbf066bd9	-0.5250831
16	0xbf0c93a8	-0.54912806
17	0x3f0913e4	0.53545976
18	0x3e03960c	0.12850207
19	0x3e65e888	0.22451985
20	0xbf0d5a47	-0.5521588
21	0xbeeb94d8	-0.46011996
22	0x3ea46206	0.32106036
23	0x3d1f5470	0.038898885
24	0xbe233f32	-0.15942076
25	0x3ebc632a	0.36794406
26	0x3effc764	0.4995681
27	0x3ee1c238	0.4409349
28	0x3ed76e14	0.4207617
29	0xbe994a9d	-0.29939738
30	0x3dc71e88	0.0972262
31	0xbe28a65c	-0.16469711
32	0x3e3316f4	0.17489225
33	0xbee3933e	-0.44448274
34	0x3f019472	0.50617135
35	0x3eebde98	0.46068263

lstm.bias_ih_l0 f4 [12]
0	0x3f76d2b4	0.9641526
1	0x3f2b4e29	0.6691614
2	0x4003d948	2.0601368
3	0xbf072620	-0.5279255
4	0xbec1632e	-0.3777098
5	0xbd1ccd90	-0.038281977
6	0x3e1fabb4	0.15592843
7	0xbfa50095	-1.2890803
8	0xbef645ed	-0.48100224
9	0x3fa8fcba	1.3202126
10	0x3ef8c7e7	0.48590013
11	0x3ff3c587	1.9044656

lstm.bias_hh_l0 f4 [12]
0	0x3fa810c1	1.3130113
1	0x3eddc768	0.43316197
2	0x4023424e	2.550922
3	0x3ef0af30	0.47008657
4	0x3d9cfd20	0.07665467
5	0x3f109de4	0.5649092
6	0x3d331bd1	0.0437277
7	0xbfc84593	-1.5646232
8	0xbf8469a1	-1.0344735
9	0x3fd2018a	1.640672
10	0x3f237600	0.6385193
11	0x402337ae	2.5502734

lstm.weight_ih_l0_reverse f4 [12, 3]
0	0x3e24270a	0.16030517
1	0x40204bcc	2.5046263
2	0x3f146505	0.57966644
3	0x3f9a9863	1.2077755
4	0xbfc55b45	-1.5418478
5	0x402b9f76	2.6816077
6	0xbf283b36	-0.6571535
7	0x3f46e6e1	0.77696043
8	0x3fe6c404	1.8028569
9	0xbeda8af0	-0.42684126
10	0x3eb1beb0	0.34715796
11	0x3e2263e4	0.15858418
12	0x3ed2630e	0.41091198
13	0x3e5e95b0	0.21736789
14	0x3e033564	0.12813336
15	0x3a87a400	0.0010348558
16	0xbefc6ee3	-0.4930335
17	0xbe02277a	-0.12710372
18	0x3fcf8e67	1.6215333
19	0x3fda1783	1.7038425
20	0xbfa61fad	-1.2978417
21	0xbfe426a8	-1.7824297
22	0xbff1a0b0	-1.8877163
23	0x3e7edac3	0.24888138
24	0xbfef9673	-1.8717788
25	0xbf4c596a	-0.79823935
26	0xbfe99af6	-1.8250415
27	0x4006a087	2.1035478
28	0x3fc4f700	1.5387878
29	0xbf274ffd	-0.6535643
30	0x3fab6301	1.3389589
31	0xbfeb04d5	-1.836085
32	0x3fddd269	1.7329837
33	0xbe6d864b	-0.2319576
34	0xbec2bf40	-0.38036537
35	0x3fc1ed70	1.5150585

lstm.weight_hh_l0_reverse f4 [12, 3]
0	0xbef28f84	-0.4737512
1	0x3ea3dce6	0.3200447
2	0x3eac9a7a	0.33711606
3	0xbde215d8	-0.110393226
4	0x3ee2749c	0.4422959
5	0xbe6586f4	-0.22414762
6	0xbeef0e8d	-0.4669079
7	0x3de77c00	0.11302948
8	0xba466400	-0.0007568002
9	0xbe00f7a6	-0.1259447
10	0x3dd87d38	0.105707586
11	0x3ddf0898	0.10890311
12	0x3df60788	0.12013155
13	0x3e578fa8	0.21050894
14	0xbe43596a	-0.19077078
15	0x3e9815d4	0.29704154
16	0xbe11510a	-0.1419107
17	0xbeb7e858	-0.35919452
18	0x3f08087a	0.53137934
19	0x3d574050	0.052551568
20	0xbea486cb	-0.3213409
21	0xbe5548ae	-0.20828506
22	0x3e846f48	0.2586615
23	0x3eba2af0	0.36360884
24	0x3e050710	0.12990975
25	0xbeb5bdcc	-0.35496366
26	0x3f126252	0.57181275
27	0xbe0e65b2	-0.13905981
28	0xbefe2d75	-0.49644056
29	0x3f1230f4	0.57105947
30	0x3e10d230	0.1414268
31	0x3e9c6880	0.30548477
32	0x3ed24b98	0.41073298
33	0x3e69cb00	0.22831345
34	0x3ec11d52	0.37717682
35	0x3dd560c8	0.1041885

lstm.bias_ih_l0_reverse f4 [12]
0	0x3f32c632	0.6983367
1	0x3fd6e11d	1.6787449
2	0x3fe49542	1.785805
3	0x3cc88a40	0.024479985
4	0xbe129358	-0.1431402
5	0xbf0eae64	-0.5573485
6	0x3f06b02b	0.5261256
7	0x3ec2ab47	0.380213
8	0x3eb8c268	0.3608582
9	0x3f38d98a	0.7220694
10	0x4004d1b8	2.0753002
11	0x3ff1e852	1.8899024

lstm.bias_hh_l0_reverse f4 [12]
0	0x3eb229d8	0.3479755
1	0x3f561353	0.83623236
2	0x3fafc3f2	1.3731673
3	0xbea96be0	-0.33090115
4	0x3f076c90	0.5290003
5	0x3ea6d73e	0.32586092
6	0x3f3f99b3	0.748439
7	0x3f8ed473	1.1158584
8	0x3f55e573	0.83553237
9	0x3f86d254	1.0532937
10	0x3f867512	1.0504477
11	0x40044dd0	2.0672493

hidden2tag.weight f4 [5, 6]
0	0xbf54e48c	-0.83161235
1	0xbf963310	-1.1734333
2	0xbfa2cbad	-1.2718407
3	0xc03b32f4	-2.924985
4	0x3f9122ff	1.1338805
5	0x403faac0	2.9947968
6	0x403da4a0	2.963173
7	0x4062523b	3.536269
8	0xc009b978	-2.151945
9	0xbf96e7a6	-1.1789443
10	0x3f80aa70	1.0052013
11	0x3fc4a5f6	1.5363147
12	0x3b138d7c	0.0022514751
13	0xbe92cbe4	-0.2867118
14	0x40097645	2.1478436
15	0xbe251c94	-0.16124183
16	0x3fe773de	1.8082235
17	0xbfebdb0e	-1.8426225
18	0x401923c1	2.3928072
19	0xbf98012b	-1.1875356
20	0x3f648056	0.89258325
21	0x40485dc4	3.130723
22	0xc03d386d	-2.956569
23	0xbfe3e4e0	-1.7804222
24	0xc03c41fc	-2.9415274
25	0x3fce4309	1.6114208
26	0xbfd58165	-1.6680113
27	0x3fd13f2c	1.6347404
28	0xc002c4a7	-2.0432527
29	0x3fc8bec3	1.5683216

hidden2tag.bias f4 [5]
0	0xbe822ec2	-0.25426298
1	0xbd828577	-0.06373113
2	0x3ee03282	0.43788534
3	0xbfa39bc1	-1.2781907
4	0xbda6a09d	-0.08136103
