model/test/run_test23.pth (torch, 4228 bytes, 11 tensors)

word_embeddings.weight f4 [10, 3]
0	0x40176d9a	2.3660645
1	0xbf4e238b	-0.80522984
2	0x3f12cae3	0.5734083
3	0x3ee4e704	0.447075
4	0x4006d8b0	2.1069756
5	0xbfc6d764	-1.5534482
6	0x40390de7	2.8914735
7	0x3ff0d685	1.8815466
8	0x3ff9349c	1.946918
9	0x3f4b4ec7	0.7941708
10	0xc01585f2	-2.3363004
11	0x400ff98b	2.249606
12	0x3f90beda	1.1308243
13	0xbfc7ce9f	-1.5609931
14	0xc011ea41	-2.2799227
15	0xbfe28ea1	-1.7699777
16	0xbfc858c2	-1.5652087
17	0x3fcb964f	1.5905246
18	0x3ed79efa	0.42113477
19	0x3e074765	0.13210829
20	0xbf17aad4	-0.5924504
21	0xbf627213	-0.88455313
22	0xbf7c6f97	-0.9860777
23	0x3f929001	1.1450197
24	0xbf4e1287	-0.8049702
25	0x400044b1	2.0041926
26	0x3e24d317	0.1609615
27	0x3f955072	1.1665175
28	0xbea99b24	-0.33126175
29	0x3e889aa9	0.26680496

lstm.weight_ih_l0 f4 [12, 3]
0	0x3fb00e22	1.3754313
1	0x3fbe025f	1.4844474
2	0xc00a6d68	-2.1629276
3	0xbe48a0ea	-0.19592634
4	0xbf2e68dc	-0.6812875
5	0x404aef08	3.1708393
6	0x3f2878ad	0.65809137
7	0xbf19c16f	-0.6006078
8	0xbdadb46a	-0.08481677
9	0x3f0933d6	0.5359472
10	0xbbc3de80	-0.005977452
11	0xbeb98968	-0.36237645
12	0xbeb532c6	-0.353903
13	0xbe28a306	-0.16468439
14	0xbe9b0b12	-0.30281883
15	0xbe901117	-0.2813804
16	0xbf0e6c1b	-0.55633706
17	0xbecb522a	-0.39711124
18	0x3ff58a33	1.91828
19	0xbfe7a743	-1.8097919
20	0x3e83c583	0.25736627
21	0xbef79908	-0.4835894
22	0x3ec9de39	0.39427355
23	0xbf44e3b2	-0.76909935
24	0x3fcabcfd	1.5838925
25	0x3f1420dc	0.5786264
26	0x3ffd451c	1.9786716
27	0x3f9f50d1	1.2446538
28	0x3fbfecb1	1.4994107
29	0xc00d5068	-2.2080326
30	0xbeaa1efb	-0.3322676
31	0xbe9ba266	-0.30397338
32	0x405580b9	3.3359816
33	0x3ef6655a	0.481242
34	0xbf796f23	-0.97435206
35	0xbed1d4eb	-0.40982756

lstm.weight_hh_l0 f4 [12, 3]
0	0x3efcf108	0.49402642
1	0xbd932cf0	-0.071863055
2	0x3ea2b83e	0.3178119
3	0xbe6bf726	-0.23043498
4	0xbf0e45a4	-0.55575013
5	0xbea493e4	-0.32144082
6	0x3e0c30e8	0.13690531
7	0x3e39b370	0.18134856
8	0xbd826bb8	-0.06368202
9	0xbea58d23	-0.3233424
10	0x3ce9cbe0	0.028539598
11	0x3e780cb8	0.24223602
12	0x3e050c04	0.12992865
13	0x3dfef4c0	0.12449026
14	0x3ef91f10	0.4865651
15	0xbf066bd9	-0.5250831
16	0xbf0c93a8	-0.54912806
17	0x3f0913e4	0.53545976
18	0x3e03960c	0.12850207
19	0x3e65e888	0.22451985
20	0xbf0d5a47	-0.5521588
21	0xbeeb94d8	-0.46011996
22	0x3ea46206	0.32106036
23	0x3d1f5470	0.038898885
24	0xbe233f32	-0.15942076
25	0x3ebc632a	0.36794406
26	0x3effc764	0.4995681
27	0x3ee1c238	0.4409349
28	0x3ed76e14	0.4207617
29	0xbe994a9d	-0.29939738
30	0x3dc71e88	0.0972262
31	0xbe28a65c	-0.16469711
32	0x3e3316f4	0.17489225
33	0xbee3933e	-0.44448274
34	0x3f019472	0.50617135
35	0x3eebde98	0.46068263

lstm.bias_ih_l0 f4 [12]
0	0x3f7c2467	0.98493046
1	0x3f3506d5	0.7071355
2	0x40054202	2.0821538
3	0xbf072620	-0.5279255
4	0xbec1632e	-0.3777098
5	0xbd1ccd90	-0.038281977
6	0x3e20a614	0.15688354
7	0xbfa79641	-1.3092729
8	0xbefcecee	-0.49399513
9	0x3fac2ca7	1.3451127
10	0x3f083a4d	0.5321396
11	0x3ff69bd0	1.92663

lstm.bias_hh_l0 f4 [12]
0	0x3faab999	1.333789
1	0x3ef138c2	0.47113615
2	0x4024ab08	2.572939
3	0x3ef0af30	0.47008657
4	0x3d9cfd20	0.07665467
5	0x3f109de4	0.5649092
6	0x3d370552	0.04468281
7	0xbfcadb3f	-1.5848159
8	0xbf861361	-1.0474664
9	0x3fd53177	1.665572
10	0x3f2f4c5a	0.6847588
11	0x4024a2d3	2.572438

lstm.weight_ih_l0_reverse f4 [12, 3]
0	0x3e380088	0.17968953
1	0x40214571	2.5198634
2	0x3f09618a	0.5366446
3	0x3fa1d4f0	1.2643108
4	0xbfce84c7	-1.613427
5	0x40273e98	2.6131954
6	0xbf36bbec	-0.71380496
7	0x3f41667e	0.75547016
8	0x3ff49505	1.9107977
9	0xbeda8af0	-0.42684126
10	0x3eb1beb0	0.34715796
11	0x3e2263e4	0.15858418
12	0x3ed2630e	0.41091198
13	0x3e5e95b0	0.21736789
14	0x3e033564	0.12813336
15	0x3a87a400	0.0010348558
16	0xbefc6ee3	-0.4930335
17	0xbe02277a	-0.12710372
18	0x3fd0ebd8	1.6321974
19	0x3fdd5759	1.7292281
20	0xbfa9559a	-1.3229249
21	0xbfe52c46	-1.7904136
22	0xbff33055	-1.8999125
23	0x3e7fb907	0.24972926
24	0xbff946a7	-1.9474686
25	0xbf54fb12	-0.831956
26	0xbfea255e	-1.8292654
27	0x40073bf7	2.113035
28	0x3fc54cb2	1.541403
29	0xbf2502db	-0.6445748
30	0x3fab4a5d	1.3382069
31	0xbfece63d	-1.8507763
32	0x3fdfea41	1.7493364
33	0xbe8fc442	-0.2807942
34	0xbf0b9ee5	-0.5453933
35	0x3fd565f2	1.6671736

lstm.weight_hh_l0_reverse f4 [12, 3]
0	0xbef28f84	-0.4737512
1	0x3ea3dce6	0.3200447
2	0x3eac9a7a	0.33711606
3	0xbde215d8	-0.110393226
4	0x3ee2749c	0.4422959
5	0xbe6586f4	-0.22414762
6	0xbeef0e8d	-0.4669079
7	0x3de77c00	0.11302948
8	0xba466400	-0.0007568002
9	0xbe00f7a6	-0.1259447
10	0x3dd87d38	0.105707586
11	0x3ddf0898	0.10890311
12	0x3df60788	0.12013155
13	0x3e578fa8	0.21050894
14	0xbe43596a	-0.19077078
15	0x3e9815d4	0.29704154
16	0xbe11510a	-0.1419107
17	0xbeb7e858	-0.35919452
18	0x3f08087a	0.53137934
19	0x3d574050	0.052551568
20	0xbea486cb	-0.3213409
21	0xbe5548ae	-0.20828506
22	0x3e846f48	0.2586615
23	0x3eba2af0	0.36360884
24	0x3e050710	0.12990975
25	0xbeb5bdcc	-0.35496366
26	0x3f126252	0.57181275
27	0xbe0e65b2	-0.13905981
28	0xbefe2d75	-0.49644056
29	0x3f1230f4	0.57105947
30	0x3e10d230	0.1414268
31	0x3e9c6880	0.30548477
32	0x3ed24b98	0.41073298
33	0x3e69cb00	0.22831345
34	0x3ec11d52	0.37717682
35	0x3dd560c8	0.1041885

lstm.bias_ih_l0_reverse f4 [12]
0	0x3f3b81d0	0.73244953
1	0x3fdc88a0	1.7229195
2	0x3fe2a063	1.7705196
3	0x3cc88a40	0.024479985
4	0xbe129358	-0.1431402
5	0xbf0eae64	-0.5573485
6	0x3f042c31	0.5162993
7	0x3ec5e996	0.38654774
8	0x3eaf20fe	0.3420486
9	0x3f3e9461	0.7444516
10	0x4005ff40	2.0937042
11	0x3fee705a	1.8628037

lstm.bias_hh_l0_reverse f4 [12]
0	0x3ec3a112	0.38208824
1	0x3f61625a	0.880407
2	0x3fadcf13	1.3578819
3	0xbea96be0	-0.33090115
4	0x3f076c90	0.5290003
5	0x3ea6d73e	0.32586092
6	0x3f3d15b9	0.7386127
7	0x3f8fa405	1.122193
8	0x3f5114c0	0.81672287
9	0x3f89afbf	1.0756758
10	0x3f88d023	1.0688518
11	0x400291d1	2.04015

hidden2tag.weight f4 [5, 6]
0	0xbf6fc9be	-0.9366721
1	0xbfbef5a9	-1.491872
2	0xbf99fff1	-1.2031232
3	0xc04d0a30	-3.2037468
4	0x3f99d43e	1.2017896
5	0x404a4263	3.160302
6	0x404a990e	3.1655917
7	0x407de79b	3.967261
8	0xc0106246	-2.2559981
9	0xbf9c246f	-1.2198619
10	0x3f87a0d2	1.0595953
11	0x3fa7fd70	1.3124218
12	0xbe15aecb	-0.1461746
13	0xbeb01ef5	-0.34398618
14	0x400dbde3	2.2147148
15	0xbe6f4f32	-0.23370054
16	0x3fee49ed	1.861631
17	0xbffcecbe	-1.9759748
18	0x40211a9c	2.517249
19	0xbf92d2ca	-1.1470578
20	0x3f63ef55	0.89037067
21	0x40522d18	3.2840023
22	0xc0431fad	-3.0488083
23	0xbfe2c2ec	-1.7715735
24	0xc045375d	-3.081504
25	0x3fe14399	1.7598754
26	0xbfdd8d51	-1.7308751
27	0x3ff53b5c	1.915874
28	0xc007f7a5	-2.12449
29	0x3fd16713	1.6359581

hidden2tag.bias f4 [5]
0	0xbe971f9c	-0.29516304
1	0xbc983e8f	-0.018584518
2	0x3edda8cc	0.43292844
3	0xbfa9a043	-1.3252033
4	0xbd4cf987	-0.050042655
