model/test/run_test39.pth (torch, 4228 bytes, 11 tensors)

word_embeddings.weight f4 [10, 3]
00000000: 9a6d 1740 8b23 4ebf e3ca 123f f629 e83e
00000010: 1284 0740 a1b8 c8bf 3d12 3a40 702b f63f
00000020: 500c f93f cb85 733f 3d89 14c0 7fd2 1440
00000030: 4f2e 963f adb9 c8bf ff68 11c0 eae9 e3bf
00000040: 1cbc c8bf 5d80 cd3f fa9e d73e 6547 073e
00000050: d4aa 17bf 1372 62bf 976f 7cbf 0190 923f
00000060: 8712 4ebf b144 0040 17d3 243e 7250 953f
00000070: 249b a9be a99a 883e
2.3660645 -0.80522984 0.5734083 0.45344514 2.117436 -1.5681344 2.9073632 1.9232006
1.9456882 0.95126027 -2.3208764 2.3253477 1.1732882 -1.5681664 -2.2720335 -1.780576
-1.5682406 1.6054798 0.42113477 0.13210829 -0.5924504 -0.88455313 -0.9860777 1.1450197
-0.8049702 2.0041926 0.1609615 1.1665175 -0.33126175 0.26680496

lstm.weight_ih_l0 f4 [12, 3]
00000000: d9e2 b23f d64b bf3f b8b9 0ac0 b19f 57be
00000010: f59e 32bf 3dca 4c40 13dc 2a3f 80fa 13bf
00000020: d116 e4bd d633 093f 80de c3bb 6889 b9be
00000030: c632 b5be 06a3 28be 120b 9bbe 1711 90be
00000040: 1b6c 0ebf 2a52 cbbe d244 f73f 949b e8bf
00000050: 1456 8b3e ed37 f4be a1cd da3e 9bd9 47bf
00000060: 4d9e cb3f 6c66 113f 9a21 ff3f 406f a23f
00000070: 8575 c13f 488c 0dc0 82ef b3be 8f58 a6be
00000080: a558 5740 4890 d83e 472b 7bbf 3a6d fbbe
1.3975478 1.4945018 -2.1675854 -0.21057011 -0.697738 3.1998436 0.66742057 -0.5780411
-0.111371644 0.5359472 -0.005977452 -0.36237645 -0.353903 -0.16468439 -0.30281883 -0.2813804
-0.55633706 -0.39711124 1.9317877 -1.8172479 0.2721411 -0.47698918 0.42735007 -0.78066415
1.5907685 0.5679691 1.9932129 1.2690201 1.5113989 -2.211687 -0.35143667 -0.3248944
3.3647854 0.42297578 -0.9811291 -0.4910677

lstm.weight_hh_l0 f4 [12, 3]
00000000: 08f1 fc3e f02c 93bd 3eb8 a23e 26f7 6bbe
00000010: a445 0ebf e493 a4be e830 0c3e 70b3 393e
00000020: b86b 82bd 238d a5be e0cb e93c b80c 783e
00000030: 040c 053e c0f4 fe3d 101f f93e d96b 06bf
00000040: a893 0cbf e413 093f 0c96 033e 88e8 653e
00000050: 475a 0dbf d894 ebbe 0662 a43e 7054 1f3d
00000060: 323f 23be 2a63 bc3e 64c7 ff3e 38c2 e13e
00000070: 146e d73e 9d4a 99be 881e c73d 5ca6 28be
00000080: f416 333e 3e93 e3be 7294 013f 98de eb3e
0.49402642 -0.071863055 0.3178119 -0.23043498 -0.55575013 -0.32144082 0.13690531 0.18134856
-0.06368202 -0.3233424 0.028539598 0.24223602 0.12992865 0.12449026 0.4865651 -0.5250831
-0.54912806 0.53545976 0.12850207 0.22451985 -0.5521588 -0.46011996 0.32106036 0.038898885
-0.15942076 0.36794406 0.4995681 0.4409349 0.4207617 -0.29939738 0.0972262 -0.16469711
0.17489225 -0.44448274 0.50617135 0.46068263

lstm.bias_ih_l0 f4 [12]
00000000: a421 803f 92eb 383f 1428 0640 2026 07bf
00000010: 2e63 c1be 90cd 1cbd ad5a 213e c423 a9bf
00000020: 81c5 fdbe 4d73 ae3f e3b1 0c3f c2a1 f73f
1.0010266 0.7223445 2.0961962 -0.5279255 -0.3777098 -0.038281977 0.15757246 -1.321404
-0.49564746 1.3628937 0.54958934 1.934624

lstm.bias_hh_l0 f4 [12]
00000000: 0bc9 ac3f 3e02 f93e 1a91 2540 30af f03e
00000010: 20fd 9c3d e49d 103f c4d7 393d c268 ccbf
00000020: 8849 86bf 1d78 d73f f0c3 333f cb25 2540
1.3498853 0.48634523 2.5869813 0.47008657 0.07665467 0.5649092 0.045371786 -1.596947
-1.049119 1.6833531 0.7022085 2.5804317

lstm.weight_ih_l0_reverse f4 [12, 3]
00000000: 2dcf 6f3e 0796 1e40 68cd f53e dfee ac3f
00000010: 802a debf e397 1e40 5e5b 3ebf 7864 433f
00000020: 4b99 fe3f f08a dabe b0be b13e e463 223e
00000030: 0e63 d23e b095 5e3e 6435 033e 00a4 873a
00000040: e36e fcbe 7a27 02be 135c d13f 693b de3f
00000050: 1676 aabf 42d2 e4bf 4440 f4bf 3383 713e
00000060: c716 01c0 686e 4fbf 5b4d ecbf 11fe 0740
00000070: ce66 c13f 6ad1 17bf 2487 ac3f 8d62 edbf
00000080: b912 e03f cdb4 99be 2b01 12bf 51ec db3f
0.23418875 2.477907 0.48008275 1.3510398 -1.735672 2.4780204 -0.74358165 0.7632518
1.9890531 -0.42684126 0.34715796 0.15858418 0.41091198 0.21736789 0.12813336 0.0010348558
-0.4930335 -0.12710372 1.6356224 1.736188 -1.3317287 -1.7876666 -1.9082112 0.23585205
-2.0170152 -0.8102784 -1.8461107 2.124882 1.5109499 -0.59303916 1.3478742 -1.85457
1.7505714 -0.30020753 -0.5703303 1.7181493

lstm.weight_hh_l0_reverse f4 [12, 3]
00000000: 848f f2be e6dc a33e 7a9a ac3e d815 e2bd
00000010: 9c74 e23e f486 65be 8d0e efbe 007c e73d
00000020: 0064 46ba a6f7 00be 387d d83d 9808 df3d
00000030: 8807 f63d a88f 573e 6a59 43be d415 983e
00000040: 0a51 11be 58e8 b7be 7a08 083f 5040 573d
00000050: cb86 a4be ae48 55be 486f 843e f02a ba3e
00000060: 1007 053e ccbd b5be 5262 123f b265 0ebe
00000070: 752d febe f430 123f 30d2 103e 8068 9c3e
00000080: 984b d23e 00cb 693e 521d c13e c860 d53d
-0.4737512 0.3200447 0.33711606 -0.110393226 0.4422959 -0.22414762 -0.4669079 0.11302948
-0.0007568002 -0.1259447 0.105707586 0.10890311 0.12013155 0.21050894 -0.19077078 0.29704154
-0.1419107 -0.35919452 0.53137934 0.052551568 -0.3213409 -0.20828506 0.2586615 0.36360884
0.12990975 -0.35496366 0.57181275 -0.13905981 -0.49644056 0.57105947 0.1414268 0.30548477
0.41073298 0.22831345 0.37717682 0.1041885

lstm.bias_ih_l0_reverse f4 [12]
00000000: 0e2b 483f 6158 e43f f25f e13f 408a c83c
00000010: 5893 12be 64ae 0ebf 7987 033f 5829 c93e
00000020: dba3 ab3e a13d 463f 4da9 0640 a76b ed3f
0.78190696 1.7839471 1.7607405 0.024479985 -0.1431402 -0.5573485 0.5137859 0.39289355
0.3352345 0.7743779 2.1040833 1.8548478

lstm.bias_hh_l0_reverse f4 [12]
00000000: 8ff3 dc3e da01 713f a28e ac3f e06b a9be
00000010: 906c 073f 3ed7 a63e 0171 3c3f f473 903f
00000020: 2e56 4f3f 5d84 8d3f 3c24 8a3f 7a0f 0240
0.4315457 0.9414345 1.3481028 -0.33090115 0.5290003 0.32586092 0.7360993 1.1285386
0.80990875 1.1056019 1.0792308 2.0321946

hidden2tag.weight f4 [5, 6]
00000000: 48bf 8cbf 3615 f0bf b764 92bf a6d7 62c0
00000010: 9272 9a3f ad86 6040 f393 5d40 ae42 9140
00000020: 16b5 1ac0 8226 a3bf ef17 973f 0684 673f
00000030: 0b9f e6be 9940 f5be de79 1440 6d33 c8be
00000040: 6853 fa3f ca06 0cc0 0901 3240 55aa 8cbf
00000050: 5475 693f e8b9 6340 058d 4cc0 ac69 e1bf
00000060: 7f26 51c0 897e fe3f 1cf1 e8bf 0a28 1540
00000070: abc4 0dc0 4b33 d63f
-1.0995874 -1.8756473 -1.1436986 -3.5444121 1.2066214 3.50822 3.462155 4.5393896
-2.4173026 -1.2746127 1.1804179 0.90435827 -0.45043215 -0.47900847 2.3199382 -0.39101735
1.9556704 -2.1879144 2.7813132 -1.0989481 0.91194654 3.5582218 -3.1961071 -1.7610373
-3.2679746 1.9882365 -1.8198581 2.3305688 -2.2151287 1.6734403

hidden2tag.bias f4 [5]
00000000: cfff c2be 0cc7 843d 723c d73e 23b7 b0bf
00000010: 32ff c43b
-0.3808579 0.06483278 0.42038304 -1.3805889 0.006011867
