model/test/run_test19.pth (torch, 4228 bytes, 11 tensors)

word_embeddings.weight f4 [10, 3]
0	0x3fb2e780	1.3976898
1	0xbfae7b5c	-1.3631396
2	0x3f9b9526	1.2154891
3	0x40336693	2.8031356
4	0x3f689da8	0.90865564
5	0xbeccf0e9	-0.4002755
6	0xbf89c43b	-1.076301
7	0xc00fb009	-2.2451193
8	0x4075faa8	3.8434238
9	0x3f16b866	0.5887512
10	0x4059a2c1	3.4005587
11	0xc0336e9e	-2.8036265
12	0x3fd54151	1.6660558
13	0xbe6bd636	-0.23030934
14	0x3fb07754	1.3786416
15	0xbf3810f9	-0.719009
16	0x402a4647	2.6605394
17	0x3fcd7df4	1.6054063
18	0xbcb6d52e	-0.022318449
19	0xbef61ebc	-0.48070323
20	0xbea741bd	-0.32667342
21	0x3f1bd5a6	0.60872877
22	0x3e923f61	0.2856398
23	0xbf4aef63	-0.79271525
24	0xbf74c33e	-0.95610416
25	0x3f9e2a2d	1.2356621
26	0xbe215181	-0.15753748
27	0x3f09fa69	0.5389772
28	0x402fc565	2.746423
29	0x3f18578c	0.59508586

lstm.weight_ih_l0 f4 [12, 3]
0	0x3ffc3ab5	1.9705416
1	0x3f166cad	0.58759576
2	0x3fa99799	1.3249389
3	0xbf496447	-0.78668636
4	0x3edc773a	0.43059713
5	0x4033e356	2.8107505
6	0x3e86db3e	0.26339144
7	0x3fb128b1	1.3840543
8	0xbef10802	-0.47076422
9	0x3f08e9ec	0.53481936
10	0xbe7d331e	-0.24726531
11	0xbecc942e	-0.39956802
12	0x3eddd38c	0.4332546
13	0xbeb44c16	-0.352143
14	0xbec00256	-0.37501782
15	0xbe02b668	-0.12764895
16	0x3ef4ef9c	0.47839057
17	0xbe1a6a20	-0.15079546
18	0x3fc37e89	1.527299
19	0x3dad05b4	0.084483534
20	0xbfcf3545	-1.6188132
21	0xbffcdfce	-1.97558
22	0xbfd2953a	-1.645179
23	0xbeae5665	-0.3405029
24	0xbfa225cc	-1.2667785
25	0x3ecf0f92	0.40441567
26	0xbfb7f225	-1.4370772
27	0x3fddb569	1.7320987
28	0x3f65609d	0.89600545
29	0x3fc0a050	1.5048923
30	0xbf66d21a	-0.9016434
31	0x3eb31222	0.34974772
32	0x401766e4	2.365655
33	0xbdd9fcef	-0.106439464
34	0x3fef4ca6	1.8695266
35	0xbeb84480	-0.3598976

lstm.weight_hh_l0 f4 [12, 3]
0	0xbf0c0dfc	-0.5470884
1	0xbea34a37	-0.3189256
2	0x3efa7714	0.48918974
3	0xbd997a08	-0.07493979
4	0xbe9e1387	-0.30874273
5	0x3e04b66c	0.12960213
6	0x3e36e0e0	0.1785922
7	0x3f0b1e9e	0.54343593
8	0x3f078a48	0.52945375
9	0x3b7abe00	0.0038260221
10	0x3f097380	0.53691864
11	0x3ebb0698	0.36528468
12	0xbe2d324c	-0.16913718
13	0xbf092646	-0.53574026
14	0x3e971b5e	0.29513067
15	0x3ed99ea4	0.42503846
16	0x3f02b7fc	0.5106199
17	0x3cfd9b60	0.030957878
18	0xbd95f450	-0.073219895
19	0xbdb9286c	-0.09040913
20	0xbeacefe8	-0.33776784
21	0x3e91e88a	0.28497726
22	0xbe61f556	-0.22066244
23	0x3ebc8978	0.3682363
24	0xbeeae5e8	-0.4587853
25	0xbf1094a5	-0.56476814
26	0x3ee14ee8	0.44005513
27	0xbcda5700	-0.026652813
28	0xbeb19396	-0.34682912
29	0x3ef6787c	0.48138797
30	0x3ecd1298	0.40053248
31	0xbe058822	-0.13040212
32	0x3e4a1f18	0.19738424
33	0xbef6292b	-0.48078284
34	0x3ea343ba	0.3188761
35	0x3d3db5f0	0.046316087

lstm.bias_ih_l0 f4 [12]
0	0x3ffb8132	1.9648802
1	0x3fa5ffae	1.2968652
2	0x3f3e9e53	0.74460334
3	0x3f00600a	0.50146544
4	0x3ea58eca	0.32335502
5	0xbeaf8fd0	-0.34289408
6	0x3e1bd6ed	0.15218706
7	0xbf73c522	-0.95222676
8	0xbee4cdab	-0.44688162
9	0x4013ee0c	2.3114042
10	0x3fa66da8	1.3002214
11	0x3f11d495	0.56965

lstm.bias_hh_l0 f4 [12]
0	0x4012a5d3	2.291371
1	0x3ebe8e07	0.37217733
2	0x3f472169	0.77785355
3	0xbe6267d4	-0.2210992
4	0xbecc1742	-0.39861494
5	0xbea75fe5	-0.3269035
6	0xbea37a3b	-0.31929192
7	0xbdabc10d	-0.08386431
8	0xbf686fb0	-0.9079542
9	0x401cef26	2.4520965
10	0x3f6562a2	0.89603627
11	0x3fb0b8e5	1.3806425

lstm.weight_ih_l0_reverse f4 [12, 3]
0	0x3ff77bac	1.9334617
1	0x3f9d1f9d	1.2275273
2	0x3ea116d3	0.31462726
3	0x3e859719	0.2609184
4	0xc00f5696	-2.2396598
5	0x3f785d73	0.9701759
6	0x3fc007e4	1.5002408
7	0x3fee74fe	1.8629453
8	0xbec60324	-0.3867427
9	0xbe64a052	-0.22326782
10	0x3c756200	0.014976978
11	0x3e717758	0.23580682
12	0x3d240890	0.04004723
13	0xbd44c7d0	-0.04804212
14	0x3ee0790c	0.4384235
15	0xbec41e25	-0.38304248
16	0xbe0ed7c8	-0.13949502
17	0x3ed8e720	0.42363834
18	0x3ec1a70d	0.37822762
19	0x402d4425	2.7072842
20	0xbfe31d8c	-1.7743392
21	0x3f2b1376	0.6682657
22	0xbf3f3b37	-0.7469973
23	0x3fadcd0c	1.35782
24	0x3f2ea130	0.682147
25	0xbf3bdb40	-0.73381424
26	0x3ffdc2e9	1.9825107
27	0x4010bcdb	2.2615268
28	0x3fc772c7	1.5581902
29	0xbf66e04d	-0.90186006
30	0xbb14cdc0	-0.0022705644
31	0xc0096ce3	-2.147271
32	0x3f89184f	1.0710543
33	0x3f2e05a0	0.67977333
34	0x3fc54d88	1.5414286
35	0xbee841d9	-0.45362738

lstm.weight_hh_l0_reverse f4 [12, 3]
0	0x3ecadfd0	0.3962388
1	0xbea053e9	-0.31314018
2	0xbddbdc64	-0.107353956
3	0x3eefea1c	0.468583
4	0x3e7143a0	0.23560953
5	0xbea5e001	-0.32397464
6	0x3e6054b4	0.21907312
7	0x3dc060e8	0.093934834
8	0x3da32178	0.07965368
9	0x3e420aa0	0.18949366
10	0x3ee35594	0.44401228
11	0xbedfa146	-0.4367773
12	0xbec73577	-0.38907978
13	0x3eac93a2	0.33706385
14	0xbf082d87	-0.5319447
15	0xbed797b0	-0.42107916
16	0xb8eda000	-0.00011330843
17	0xbec00078	-0.37500358
18	0x3ac7b800	0.0015237331
19	0xbddd3ba4	-0.10802391
20	0x3aa9fa00	0.0012968183
21	0xbe8deb84	-0.27718747
22	0x3dab2510	0.083566785
23	0xbd3f5580	-0.0467124
24	0xbe02a7ba	-0.12759295
25	0xbd637740	-0.055533648
26	0xbdc2c274	-0.09509745
27	0xbeaf2fd2	-0.34216172
28	0x3e9caffc	0.30603015
29	0xbef3db6c	-0.47628343
30	0x3e27aaf0	0.16373801
31	0xbecab2e6	-0.39589614
32	0xbde893f0	-0.11356342
33	0xbea60c4c	-0.32431257
34	0xbea1db21	-0.31612495
35	0xbdeae6c8	-0.11469799

lstm.bias_ih_l0_reverse f4 [12]
0	0x3fbadcc0	1.4598618
1	0xbe6bf2ac	-0.2304179
2	0x3f8243a3	1.0176891
3	0x3f0d02d8	0.55082464
4	0xbdbab1f4	-0.09115973
5	0xbeb78e44	-0.35850728
6	0xbebe95fd	-0.37223807
7	0x3f2c0b2a	0.67204535
8	0x3f081c92	0.53168595
9	0x400a770b	2.1635158
10	0x3d9ba001	0.07598878
11	0x3fb7039f	1.429798

lstm.bias_hh_l0_reverse f4 [12]
0	0x3fec61cb	1.8467344
1	0x3e93dbc4	0.28878605
2	0x3f9e8f97	1.238757
3	0x3ef3d11c	0.47620475
4	0xbe264816	-0.16238436
5	0x3bfe9d80	0.0077702403
6	0x3ed5cd7b	0.41758332
7	0x3f4e4e78	0.80588484
8	0x3f33743b	0.7009923
9	0x3fd2d798	1.6472044
10	0x3f094d23	0.53633326
11	0x3fbe8155	1.4883219

hidden2tag.weight f4 [5, 6]
0	0xc00c3f16	-2.1913505
1	0xc0195833	-2.3960083
2	0xbf557560	-0.83382225
3	0x3f52b8cb	0.8231322
4	0xbffa1dba	-1.9540322
5	0x3f816900	1.0110168
6	0xbeb37c39	-0.35055712
7	0xbff8d49f	-1.9439887
8	0xbf8bc5e3	-1.0919765
9	0xc02ecb36	-2.731153
10	0x3f6fc13a	0.93654215
11	0x3fb76ef6	1.4330738
12	0x3fb76ca7	1.4330033
13	0x3e4d5ecb	0.20055692
14	0x40290752	2.6410718
15	0x3f5fec9c	0.8747041
16	0xbfd3c157	-1.6543378
17	0xc00b4311	-2.1759684
18	0xbfbca38d	-1.4737412
19	0x40611165	3.5166867
20	0xbee1cab9	-0.44099978
21	0xbf8b171e	-1.086643
22	0x3fba0ea9	1.4535724
23	0xbd891d58	-0.0669505
24	0x4005e08e	2.0918307
25	0xbe5829c2	-0.2110968
26	0xbfb78713	-1.4338096
27	0x3fa5858f	1.2931384
28	0xbf5a9c7a	-0.85395014
29	0x3fa60431	1.2970029

hidden2tag.bias f4 [5]
0	0xbea52af1	-0.32259324
1	0xbde1cff1	-0.1102599
2	0x3f03241a	0.5122696
3	0xbe1dcde0	-0.15410566
4	0x3ea5ca05	0.3238069
