model/test/run_test10.pth (torch, 4228 bytes, 11 tensors)

word_embeddings.weight f4 [10, 3]
0	0x3fb2e780	1.3976898
1	0xbfae7b5c	-1.3631396
2	0x3f9b9526	1.2154891
3	0x400c2dd8	2.190298
4	0x3eaad02e	0.33361953
5	0xbcabba42	-0.020962838
6	0xbef51e12	-0.47874504
7	0xbff66c4c	-1.92518
8	0x405b819d	3.429786
9	0x3f50cf02	0.8156587
10	0x403ecbeb	2.9811962
11	0xc011f8c4	-2.2808084
12	0x3fd3a633	1.6535095
13	0xbf1cf470	-0.6131048
14	0x3f7d592d	0.98964196
15	0xbf13d157	-0.577413
16	0x401bb253	2.432759
17	0x3fb4eae8	1.4134188
18	0xbcb6d52e	-0.022318449
19	0xbef61ebc	-0.48070323
20	0xbea741bd	-0.32667342
21	0x3f1bd5a6	0.60872877
22	0x3e923f61	0.2856398
23	0xbf4aef63	-0.79271525
24	0xbf74c33e	-0.95610416
25	0x3f9e2a2d	1.2356621
26	0xbe215181	-0.15753748
27	0x3f09fa69	0.5389772
28	0x402fc565	2.746423
29	0x3f18578c	0.59508586

lstm.weight_ih_l0 f4 [12, 3]
0	0x3ffe9f0f	1.9892291
1	0x3f4bde63	0.7963621
2	0x3ec62624	0.38700974
3	0xbf9da529	-1.2316028
4	0x3ef2ebdc	0.4744557
5	0x3fe92ba7	1.8216447
6	0xbdaf7a85	-0.085682906
7	0x3f8ef7d7	1.1169385
8	0xbecb78f1	-0.39740708
9	0x3f08e9ec	0.53481936
10	0xbe7d331e	-0.24726531
11	0xbecc942e	-0.39956802
12	0x3eddd38c	0.4332546
13	0xbeb44c16	-0.352143
14	0xbec00256	-0.37501782
15	0xbe02b668	-0.12764895
16	0x3ef4ef9c	0.47839057
17	0xbe1a6a20	-0.15079546
18	0x3f9cd71b	1.2253145
19	0x3e6f3f9d	0.2336411
20	0xbfdd3e06	-1.7284553
21	0xbf76ce9a	-0.96409
22	0xbfc88e57	-1.5668439
23	0xbd9d90f3	-0.076936625
24	0xbf7aeb97	-0.9801573
25	0x3ee15807	0.44012472
26	0xbf9be476	-1.2179096
27	0x3fd94d71	1.6976758
28	0x3f8f88f0	1.1213665
29	0x3f1e7410	0.6189585
30	0xbf9b97d8	-1.2155714
31	0x3eaa4c9b	0.3326157
32	0x3fc073f3	1.5035385
33	0xbf1afdae	-0.60543334
34	0x3fb62d2b	1.4232534
35	0xbe8af5fd	-0.271408

lstm.weight_hh_l0 f4 [12, 3]
0	0xbf0c0dfc	-0.5470884
1	0xbea34a37	-0.3189256
2	0x3efa7714	0.48918974
3	0xbd997a08	-0.07493979
4	0xbe9e1387	-0.30874273
5	0x3e04b66c	0.12960213
6	0x3e36e0e0	0.1785922
7	0x3f0b1e9e	0.54343593
8	0x3f078a48	0.52945375
9	0x3b7abe00	0.0038260221
10	0x3f097380	0.53691864
11	0x3ebb0698	0.36528468
12	0xbe2d324c	-0.16913718
13	0xbf092646	-0.53574026
14	0x3e971b5e	0.29513067
15	0x3ed99ea4	0.42503846
16	0x3f02b7fc	0.5106199
17	0x3cfd9b60	0.030957878
18	0xbd95f450	-0.073219895
19	0xbdb9286c	-0.09040913
20	0xbeacefe8	-0.33776784
21	0x3e91e88a	0.28497726
22	0xbe61f556	-0.22066244
23	0x3ebc8978	0.3682363
24	0xbeeae5e8	-0.4587853
25	0xbf1094a5	-0.56476814
26	0x3ee14ee8	0.44005513
27	0xbcda5700	-0.026652813
28	0xbeb19396	-0.34682912
29	0x3ef6787c	0.48138797
30	0x3ecd1298	0.40053248
31	0xbe058822	-0.13040212
32	0x3e4a1f18	0.19738424
33	0xbef6292b	-0.48078284
34	0x3ea343ba	0.3188761
35	0x3d3db5f0	0.046316087

lstm.bias_ih_l0 f4 [12]
0	0x3fdbb756	1.7165325
1	0x3f0bda16	0.5462965
2	0x3ee19ed8	0.440665
3	0x3f00600a	0.50146544
4	0x3ea58eca	0.32335502
5	0xbeaf8fd0	-0.34289408
6	0xbd6f6310	-0.058444083
7	0xbed00d74	-0.40635264
8	0xbe60dd61	-0.2195945
9	0x4004ce39	2.0750868
10	0x3f2157a2	0.6302434
11	0x3e139c78	0.14415157

lstm.bias_hh_l0 f4 [12]
0	0x4002c0e3	2.0430229
1	0xbec1bc84	-0.37839139
2	0x3ef2a502	0.47391516
3	0xbe6267d4	-0.2210992
4	0xbecc1742	-0.39861494
5	0xbea75fe5	-0.3269035
6	0xbf07a908	-0.52992296
7	0x3eec8c8d	0.46200982
8	0xbf2e4031	-0.680667
9	0x400dcf52	2.2157788
10	0x3e677bd2	0.22605827
11	0x3f748456	0.9551443

lstm.weight_ih_l0_reverse f4 [12, 3]
0	0x3fdf4881	1.7444001
1	0x3f7e475c	0.99327636
2	0x3eb78945	0.35846916
3	0xbea2e146	-0.31812495
4	0xc003a730	-2.0570793
5	0x3f5a5016	0.8527845
6	0x3f1bf112	0.6091472
7	0x3fc6aaad	1.5520836
8	0xbf81c933	-1.0139526
9	0xbe64a052	-0.22326782
10	0x3c756200	0.014976978
11	0x3e717758	0.23580682
12	0x3d240890	0.04004723
13	0xbd44c7d0	-0.04804212
14	0x3ee0790c	0.4384235
15	0xbec41e25	-0.38304248
16	0xbe0ed7c8	-0.13949502
17	0x3ed8e720	0.42363834
18	0x3ec1b13e	0.37830538
19	0x400d4e36	2.2078986
20	0xbfb31d98	-1.3993406
21	0x3f1ac8d5	0.60462695
22	0xbf2d02b3	-0.67582244
23	0x3fa91f80	1.3212738
24	0x3f0b666d	0.54453164
25	0xbed46e5c	-0.41490448
26	0x3fc99b88	1.5750589
27	0x4002bb1c	2.0426702
28	0x3f823fe7	1.0175751
29	0xbee3c7ee	-0.44488472
30	0xbf12a4ad	-0.57282525
31	0xbffbd54c	-1.9674468
32	0x3f6b9303	0.920212
33	0xbe14a3b4	-0.14515573
34	0x3fb36095	1.401385
35	0xbf305113	-0.6887371

lstm.weight_hh_l0_reverse f4 [12, 3]
0	0x3ecadfd0	0.3962388
1	0xbea053e9	-0.31314018
2	0xbddbdc64	-0.107353956
3	0x3eefea1c	0.468583
4	0x3e7143a0	0.23560953
5	0xbea5e001	-0.32397464
6	0x3e6054b4	0.21907312
7	0x3dc060e8	0.093934834
8	0x3da32178	0.07965368
9	0x3e420aa0	0.18949366
10	0x3ee35594	0.44401228
11	0xbedfa146	-0.4367773
12	0xbec73577	-0.38907978
13	0x3eac93a2	0.33706385
14	0xbf082d87	-0.5319447
15	0xbed797b0	-0.42107916
16	0xb8eda000	-0.00011330843
17	0xbec00078	-0.37500358
18	0x3ac7b800	0.0015237331
19	0xbddd3ba4	-0.10802391
20	0x3aa9fa00	0.0012968183
21	0xbe8deb84	-0.27718747
22	0x3dab2510	0.083566785
23	0xbd3f5580	-0.0467124
24	0xbe02a7ba	-0.12759295
25	0xbd637740	-0.055533648
26	0xbdc2c274	-0.09509745
27	0xbeaf2fd2	-0.34216172
28	0x3e9caffc	0.30603015
29	0xbef3db6c	-0.47628343
30	0x3e27aaf0	0.16373801
31	0xbecab2e6	-0.39589614
32	0xbde893f0	-0.11356342
33	0xbea60c4c	-0.32431257
34	0xbea1db21	-0.31612495
35	0xbdeae6c8	-0.11469799

lstm.bias_ih_l0_reverse f4 [12]
0	0x3fa6eb1a	1.3040497
1	0xbee67070	-0.45007658
2	0x3e6ee4a6	0.2332941
3	0x3f0d02d8	0.55082464
4	0xbdbab1f4	-0.09115973
5	0xbeb78e44	-0.35850728
6	0xbeb47738	-0.35247207
7	0x3f269fe7	0.6508774
8	0x3f05aaf7	0.52213997
9	0x4003934f	2.055866
10	0xbe471f54	-0.19445544
11	0x3f2b8a7e	0.670082

lstm.bias_hh_l0_reverse f4 [12]
0	0x3fd87025	1.6909224
1	0x3d8d92a2	0.069127336
2	0x3ee8a222	0.45436198
3	0x3ef3d11c	0.47620475
4	0xbe264816	-0.16238436
5	0x3bfe9d80	0.0077702403
6	0x3edfec40	0.43734932
7	0x3f48e335	0.7847169
8	0x3f3102a0	0.6914463
9	0x3fc51022	1.5395548
10	0x3e88229a	0.265889
11	0x3f3a85e9	0.7286058

hidden2tag.weight f4 [5, 6]
0	0xbf97e644	-1.1867146
1	0xbfd6c256	-1.6778057
2	0xbf7162d0	-0.942914
3	0x3f3eed51	0.74580866
4	0xbfaa3904	-1.329865
5	0x3f939db4	1.1532502
6	0xbf0d29a9	-0.55141693
7	0xbee8034c	-0.45315015
8	0xbf65fb01	-0.89836127
9	0xbffd2268	-1.9776125
10	0x3f455320	0.77079964
11	0x3f7c941c	0.98663497
12	0x3f9b5338	1.2134771
13	0x3eb3ad23	0.3509303
14	0x3fc7275e	1.5558889
15	0x3f2eebb5	0.6832841
16	0xbf9b3a5c	-1.2127185
17	0xbfafc8e6	-1.3733184
18	0xbf967603	-1.1754764
19	0x3feb5180	1.8384247
20	0xbf488e07	-0.78341717
21	0xbf9b1d11	-1.2118245
22	0x3fa20b5c	1.2659717
23	0x3f1413af	0.57842535
24	0x3fd77031	1.6831113
25	0xbf157ae5	-0.5839065
26	0xbe528c4d	-0.20561333
27	0x3f7fa764	0.9986479
28	0xbf1b93bd	-0.60772306
29	0x3e79a722	0.24380162

hidden2tag.bias f4 [5]
0	0xbdf31ed8	-0.11871117
1	0xbe9c69b3	-0.30549392
2	0x3ef91924	0.48651993
3	0x3d02b0c0	0.031906843
4	0x3e4d6bef	0.20060705
