model/test/run_test33.pth (torch, 4228 bytes, 11 tensors)

word_embeddings.weight f4 [10, 3]
00000000: 9a6d 1740 8b23 4ebf e3ca 123f 5e54 eb3e
00000010: 6ba7 0740 f7d2 c8bf dbcd 3940 7d80 f43f
00000020: ed1d f93f d265 693f bbea 14c0 14c3 1340
00000030: 1b8e 943f 8abf c8bf 868e 11c0 2f8a e3bf
00000040: dbb5 c8bf 4c2d cd3f fa9e d73e 6547 073e
00000050: d4aa 17bf 1372 62bf 976f 7cbf 0190 923f
00000060: 8712 4ebf b144 0040 17d3 243e 7250 953f
00000070: 249b a9be a99a 883e
2.3660645 -0.80522984 0.5734083 0.45962805 2.1195934 -1.5689381 2.9031894 1.9101712
1.9462258 0.9117099 -2.3268268 2.3087816 1.1605867 -1.5683453 -2.274324 -1.7776545
-1.5680498 1.6029449 0.42113477 0.13210829 -0.5924504 -0.88455313 -0.9860777 1.1450197
-0.8049702 2.0041926 0.1609615 1.1665175 -0.33126175 0.26680496

lstm.weight_ih_l0 f4 [12, 3]
00000000: 0833 b23f 3afe be3f e8b7 0ac0 105d 57be
00000010: f57a 32bf 8883 4c40 8819 2a3f 481d 16bf
00000020: 31fd d3bd d633 093f 80de c3bb 6889 b9be
00000030: c632 b5be 06a3 28be 120b 9bbe 1711 90be
00000040: 1b6c 0ebf 2a52 cbbe 00c2 f63f d18f e8bf
00000050: 1a03 893e e006 f5be 622e d73e 7a3e 47bf
00000060: a8bc cb3f 2887 123f c49a fe3f 61a4 a13f
00000070: dcec c03f e597 0dc0 524a b3be 7995 a5be
00000080: d91b 5740 e20e e43e 5a07 7abf 76dd ecbe
1.3921824 1.4921334 -2.1674747 -0.21031594 -0.6971887 3.195528 0.6644521 -0.5863843
-0.10351027 0.5359472 -0.005977452 -0.36237645 -0.353903 -0.16468439 -0.30281883 -0.2813804
-0.55633706 -0.39711124 1.9277954 -1.8168889 0.2676018 -0.47856808 0.42027575 -0.77829707
1.5916948 0.5723748 1.9890981 1.262829 1.5072284 -2.212396 -0.3501764 -0.323406
3.3610747 0.44542605 -0.9766747 -0.4626271

lstm.weight_hh_l0 f4 [12, 3]
00000000: 08f1 fc3e f02c 93bd 3eb8 a23e 26f7 6bbe
00000010: a445 0ebf e493 a4be e830 0c3e 70b3 393e
00000020: b86b 82bd 238d a5be e0cb e93c b80c 783e
00000030: 040c 053e c0f4 fe3d 101f f93e d96b 06bf
00000040: a893 0cbf e413 093f 0c96 033e 88e8 653e
00000050: 475a 0dbf d894 ebbe 0662 a43e 7054 1f3d
00000060: 323f 23be 2a63 bc3e 64c7 ff3e 38c2 e13e
00000070: 146e d73e 9d4a 99be 881e c73d 5ca6 28be
00000080: f416 333e 3e93 e3be 7294 013f 98de eb3e
0.49402642 -0.071863055 0.3178119 -0.23043498 -0.55575013 -0.32144082 0.13690531 0.18134856
-0.06368202 -0.3233424 0.028539598 0.24223602 0.12992865 0.12449026 0.4865651 -0.5250831
-0.54912806 0.53545976 0.12850207 0.22451985 -0.5521588 -0.46011996 0.32106036 0.038898885
-0.15942076 0.36794406 0.4995681 0.4409349 0.4207617 -0.29939738 0.0972262 -0.16469711
0.17489225 -0.44448274 0.50617135 0.46068263

lstm.bias_ih_l0 f4 [12]
00000000: 5d42 7f3f b471 383f 73f5 0540 2026 07bf
00000010: 2e63 c1be 90cd 1cbd 210d 213e 2bd7 a8bf
00000020: 25fb fdbe 23eb ad3f d536 0c3f 8499 f73f
0.9971064 0.720485 2.093106 -0.5279255 -0.3777098 -0.038281977 0.15727665 -1.3190664
-0.4960567 1.3587383 0.5477117 1.9343724

lstm.bias_hh_l0 f4 [12]
00000000: 9548 ac3f 860e f83e 795e 2540 30af f03e
00000010: 20fd 9c3d e49d 103f 92a1 383d 291c ccbf
00000020: f056 86bf f3ef d63f e248 333f ae21 2540
1.345965 0.4844858 2.5838912 0.47008657 0.07665467 0.5649092 0.04507596 -1.5946094
-1.0495281 1.6791977 0.70033085 2.5801806

lstm.weight_ih_l0_reverse f4 [12, 3]
00000000: fb5e 5a3e 3be0 1f40 d0e8 fe3e e4df a93f
00000010: b1e2 d9bf cd09 2140 48be 3cbf fe6e 403f
00000020: 3e0e fc3f f08a dabe b0be b13e e463 223e
00000030: 0e63 d23e b095 5e3e 6435 033e 00a4 873a
00000040: e36e fcbe 7a27 02be 1754 d13f 2838 de3f
00000050: 1759 aabf fd11 e5bf 2dfe f3bf db2d 773e
00000060: 330f 00c0 1a38 52bf 9ba8 ebbf f0b9 0740
00000070: d522 c33f 9a56 1dbf 2d08 ac3f 8460 edbf
00000080: 5c3a e03f 69dd 98be 284d 17bf 3458 dc3f
0.21325295 2.498061 0.49786997 1.3271451 -1.7022306 2.5162232 -0.73727846 0.7516936
1.9691846 -0.42684126 0.34715796 0.15858418 0.41091198 0.21736789 0.12813336 0.0010348558
-0.4930335 -0.12710372 1.6353787 1.7360888 -1.3308438 -1.7896115 -1.9061943 0.24138586
-2.0009277 -0.82116854 -1.8410829 2.1207237 1.5245005 -0.6146027 1.3439995 -1.8545079
1.751781 -0.29856423 -0.59102106 1.7214417

lstm.weight_hh_l0_reverse f4 [12, 3]
00000000: 848f f2be e6dc a33e 7a9a ac3e d815 e2bd
00000010: 9c74 e23e f486 65be 8d0e efbe 007c e73d
00000020: 0064 46ba a6f7 00be 387d d83d 9808 df3d
00000030: 8807 f63d a88f 573e 6a59 43be d415 983e
00000040: 0a51 11be 58e8 b7be 7a08 083f 5040 573d
00000050: cb86 a4be ae48 55be 486f 843e f02a ba3e
00000060: 1007 053e ccbd b5be 5262 123f b265 0ebe
00000070: 752d febe f430 123f 30d2 103e 8068 9c3e
00000080: 984b d23e 00cb 693e 521d c13e c860 d53d
-0.4737512 0.3200447 0.33711606 -0.110393226 0.4422959 -0.22414762 -0.4669079 0.11302948
-0.0007568002 -0.1259447 0.105707586 0.10890311 0.12013155 0.21050894 -0.19077078 0.29704154
-0.1419107 -0.35919452 0.53137934 0.052551568 -0.3213409 -0.20828506 0.2586615 0.36360884
0.12990975 -0.35496366 0.57181275 -0.13905981 -0.49644056 0.57105947 0.1414268 0.30548477
0.41073298 0.22831345 0.37717682 0.1041885

lstm.bias_ih_l0_reverse f4 [12]
00000000: cfea 433f 8d42 e23f a3a7 e13f 408a c83c
00000010: 5893 12be 64ae 0ebf 5185 033f cf36 c83e
00000020: 2564 aa3e a5bf 433f c086 0640 4c09 ed3f
0.76530164 1.767656 1.7629284 0.024479985 -0.1431402 -0.5573485 0.513753 0.39104316
0.3327953 0.764643 2.1019745 1.8518462

lstm.bias_hh_l0_reverse f4 [12]
00000000: 1573 d43e 30d6 6c3f 53d6 ac3f e06b a9be
00000010: 906c 073f 3ed7 a63e d96e 3c3f 5337 903f
00000020: 53b6 4e3f 5f45 8c3f 24df 893f 4bde 0140
0.4149405 0.92514324 1.3502907 -0.33090115 0.5290003 0.32586092 0.7360664 1.1266884
0.80746955 1.095867 1.0771222 2.0291927

hidden2tag.weight f4 [5, 6]
00000000: f56d 86bf d318 e3bf e7b5 93bf d1f2 5cc0
00000010: b2b8 9b3f 0948 5940 c609 5840 0c4b 8c40
00000020: 638b 17c0 d740 a1bf 0c7c 913f 73d1 823f
00000030: da42 b4be e88a debe 9d61 1240 5f57 adbe
00000040: 2380 f63f d9c7 07c0 ce52 2c40 d114 8ebf
00000050: 7d31 673f 5013 5e40 7d9f 49c0 6298 e1bf
00000060: 9ac4 4dc0 8a54 f53f e7c2 e5bf 2e73 0d40
00000070: 711a 0cc0 58d5 d53f
-1.0502306 -1.7741951 -1.1539887 -3.4523203 1.216574 3.3950217 3.3755965 4.384161
-2.3678825 -1.2597913 1.1365981 1.0220169 -0.35207254 -0.43465352 2.2872078 -0.3385572
1.9257854 -2.1215727 2.692554 -1.1100103 0.9030989 3.4699287 -3.1503594 -1.7624629
-3.2151246 1.9166424 -1.7950104 2.210155 -2.1891139 1.6705732

hidden2tag.bias f4 [5]
00000000: 9b29 b5be fc45 1d3d c85a d93e c3d0 aebf
00000010: 7c9f 28bc
-0.35383305 0.03839682 0.42452073 -1.3657459 -0.01029193
