model/test/run_test46.pth (torch, 4228 bytes, 11 tensors)

word_embeddings.weight f4 [10, 3]
2.3660645 -0.80522984 0.5734083 0.4492173 2.1153214 -1.5687815 2.9115648 1.9383727
1.9455615 0.9895954 -2.3136942 2.3392544 1.1867421 -1.5683163 -2.2695096 -1.7838516
-1.5683136 1.6075742 0.42113477 0.13210829 -0.5924504 -0.88455313 -0.9860777 1.1450197
-0.8049702 2.0041926 0.1609615 1.1665175 -0.33126175 0.26680496
00000000: 9a6d 1740 8b23 4ebf e3ca 123f cfff e53e
00000010: 6d61 0740 d5cd c8bf 1457 3a40 991c f83f
00000020: 2908 f93f 2056 7d3f 9113 14c0 58b6 1540
00000030: 2ae7 973f 97be c8bf a53f 11c0 4055 e4bf
00000040: 80be c8bf fec4 cd3f fa9e d73e 6547 073e
00000050: d4aa 17bf 1372 62bf 976f 7cbf 0190 923f
00000060: 8712 4ebf b144 0040 17d3 243e 7250 953f
00000070: 249b a9be a99a 883e

lstm.weight_ih_l0 f4 [12, 3]
1.4028262 1.497026 -2.1674345 -0.2103883 -0.6977983 3.2035027 0.67038524 -0.56988347
-0.11907406 0.5359472 -0.005977452 -0.36237645 -0.353903 -0.16468439 -0.30281883 -0.2813804
-0.55633706 -0.39711124 1.9360982 -1.8171016 0.2768796 -0.47547376 0.43399578 -0.7828687
1.5893346 0.5637629 1.99698 1.2751411 1.5158763 -2.2106771 -0.35216388 -0.32580242
3.3678057 0.3945818 -0.9912734 -0.5226737
00000000: cf8f b33f 8c9e bf3f 3fb7 0ac0 0870 57be
00000010: e9a2 32bf 3006 4d40 5e9e 2b3f e2e3 11bf
00000020: 1add f3bd d633 093f 80de c3bb 6889 b9be
00000030: c632 b5be 06a3 28be 120b 9bbe 1711 90be
00000040: 1b6c 0ebf 2a52 cbbe 11d2 f73f c996 e8bf
00000050: 2ac3 8d3e 4c71 f3be b234 de3e 156a 48bf
00000060: 516f cb3f c452 103f 0a9d ff3f d337 a33f
00000070: 3c08 c23f bc7b 0dc0 d34e b4be 93cf a6be
00000080: 218a 5740 a006 ca3e 18c4 7dbf f2cd 05bf

lstm.weight_hh_l0 f4 [12, 3]
0.49402642 -0.071863055 0.3178119 -0.23043498 -0.55575013 -0.32144082 0.13690531 0.18134856
-0.06368202 -0.3233424 0.028539598 0.24223602 0.12992865 0.12449026 0.4865651 -0.5250831
-0.54912806 0.53545976 0.12850207 0.22451985 -0.5521588 -0.46011996 0.32106036 0.038898885
-0.15942076 0.36794406 0.4995681 0.4409349 0.4207617 -0.29939738 0.0972262 -0.16469711
0.17489225 -0.44448274 0.50617135 0.46068263
00000000: 08f1 fc3e f02c 93bd 3eb8 a23e 26f7 6bbe
00000010: a445 0ebf e493 a4be e830 0c3e 70b3 393e
00000020: b86b 82bd 238d a5be e0cb e93c b80c 783e
00000030: 040c 053e c0f4 fe3d 101f f93e d96b 06bf
00000040: a893 0cbf e413 093f 0c96 033e 88e8 653e
00000050: 475a 0dbf d894 ebbe 0662 a43e 7054 1f3d
00000060: 323f 23be 2a63 bc3e 64c7 ff3e 38c2 e13e
00000070: 146e d73e 9d4a 99be 881e c73d 5ca6 28be
00000080: f416 333e 3e93 e3be 7294 013f 98de eb3e

lstm.bias_ih_l0 f4 [12]
1.0048397 0.72380424 2.099134 -0.5279255 -0.3777098 -0.038281977 0.1579841 -1.3235449
-0.49521273 1.3669088 0.55099726 1.9335952
00000000: 969e 803f 3c4b 393f 3658 0640 2026 07bf
00000010: 2e63 c1be 90cd 1cbd 95c6 213e eb69 a9bf
00000020: 868c fdbe def6 ae3f 280e 0d3f 0c80 f73f

lstm.bias_hh_l0 f4 [12]
1.3536984 0.48780507 2.589919 0.47008657 0.07665467 0.5649092 0.045783423 -1.5990878
-1.0486841 1.6873682 0.70361644 2.579403
00000000: fd45 ad3f 96c1 f93e 3cc1 2540 30af f03e
00000010: 20fd 9c3d e49d 103f 6687 3b3d e9ae ccbf
00000020: 483b 86bf aefb d73f 3520 343f f014 2540

lstm.weight_ih_l0_reverse f4 [12, 3]
0.25993985 2.4518716 0.46177238 1.376929 -1.7715849 2.436988 -0.750655 0.77513033
2.012083 -0.42684126 0.34715796 0.15858418 0.41091198 0.21736789 0.12813336 0.0010348558
-0.4930335 -0.12710372 1.6357685 1.7360003 -1.3324504 -1.7849123 -1.9107267 0.2284285
-2.0330338 -0.8058873 -1.847733 2.130415 1.4931258 -0.5641982 1.352548 -1.854837
1.7484612 -0.30272856 -0.5533052 1.7189456
00000000: d616 853e 77eb 1c40 6e6d ec3e 363f b03f
00000010: 4bc3 e2bf 9df7 1b40 ed2a 40bf f16e 463f
00000020: f8c5 0040 f08a dabe b0be b13e e463 223e
00000030: 0e63 d23e b095 5e3e 6435 033e 00a4 873a
00000040: e36e fcbe 7a27 02be dd60 d13f 4235 de3f
00000050: bc8d aabf 0278 e4bf b192 f4bf 29e9 693e
00000060: 3a1d 02c0 a14e 4ebf 8482 ecbf b858 0840
00000070: bf1e bf3f 4b6f 10bf 4b20 ad3f 4c6b edbf
00000080: 94cd df3f 3dff 9abe 69a5 0dbf 6906 dc3f

lstm.weight_hh_l0_reverse f4 [12, 3]
-0.4737512 0.3200447 0.33711606 -0.110393226 0.4422959 -0.22414762 -0.4669079 0.11302948
-0.0007568002 -0.1259447 0.105707586 0.10890311 0.12013155 0.21050894 -0.19077078 0.29704154
-0.1419107 -0.35919452 0.53137934 0.052551568 -0.3213409 -0.20828506 0.2586615 0.36360884
0.12990975 -0.35496366 0.57181275 -0.13905981 -0.49644056 0.57105947 0.1414268 0.30548477
0.41073298 0.22831345 0.37717682 0.1041885
00000000: 848f f2be e6dc a33e 7a9a ac3e d815 e2bd
00000010: 9c74 e23e f486 65be 8d0e efbe 007c e73d
00000020: 0064 46ba a6f7 00be 387d d83d 9808 df3d
00000030: 8807 f63d a88f 573e 6a59 43be d415 983e
00000040: 0a51 11be 58e8 b7be 7a08 083f 5040 573d
00000050: cb86 a4be ae48 55be 486f 843e f02a ba3e
00000060: 1007 053e ccbd b5be 5262 123f b265 0ebe
00000070: 752d febe f430 123f 30d2 103e 8068 9c3e
00000080: 984b d23e 00cb 693e 521d c13e c860 d53d

lstm.bias_ih_l0_reverse f4 [12]
0.8016206 1.8012825 1.7573328 0.024479985 -0.1431402 -0.5573485 0.51393783 0.3952751
0.33834222 0.7862074 2.1063404 1.8558217
00000000: 0237 4d3f 6d90 e63f 48f0 e03f 408a c83c
00000010: 5893 12be 64ae 0ebf 6e91 033f 7f61 ca3e
00000020: 313b ad3e e344 493f 48ce 0640 918b ed3f

lstm.bias_hh_l0_reverse f4 [12]
0.45125932 0.9587698 1.3446951 -0.33090115 0.5290003 0.32586092 0.73625124 1.13092
0.81301653 1.1174313 1.0814875 2.0331686
00000000: 760b e73e f071 753f f81e ac3f e06b a9be
00000010: 906c 073f 3ed7 a63e f67a 3c3f fdc1 903f
00000020: da21 503f fd07 8f3f 2f6e 8a3f 6f1f 0240

hidden2tag.weight f4 [5, 6]
-1.1455657 -1.9742362 -1.1388625 -3.6370497 1.1944131 3.6251717 3.5466485 4.688748
-2.465938 -1.2881528 1.2271968 0.78938675 -0.55082065 -0.525292 2.3537998 -0.44530782
1.9863133 -2.2579372 2.8728387 -1.0882338 0.92073363 3.6497648 -3.2429569 -1.7598115
-3.3206372 2.0638154 -1.8441179 2.4510646 -2.2421067 1.6747328
00000000: e6a1 92bf c6b3 fcbf 3fc6 91bf 6cc5 68c0
00000010: 87e2 983f d002 6840 4afc 6240 390a 9640
00000020: eed1 1dc0 31e2 a4bf c914 9d3f 4015 4a3f
00000030: 9502 0dbf 8979 06bf a8a4 1640 63ff e3be
00000040: 843f fe3f 0b82 10c0 97dc 3740 3f4b 8bbf
00000050: 33b5 6b3f bf95 6940 9b8c 4fc0 8141 e1bf
00000060: 5285 54c0 8d15 0440 0e0c ecbf 3ede 1c40
00000070: ad7e 0fc0 a55d d63f

hidden2tag.bias f4 [5]
-0.40752643 0.09089472 0.41636747 -1.3951942 0.021959564
00000000: 4ea7 d0be 0327 ba3d 1e2e d53e b995 b2bf
00000010: 8be4 b33c
