model/test/run_test2.pth (torch, 4228 bytes, 11 tensors)

word_embeddings.weight f4 [10, 3]
0	0x3fb2e780	1.3976898
1	0xbfae7b5c	-1.3631396
2	0x3f9b9526	1.2154891
3	0x3f965624	1.1745038
4	0x3f4eec00	0.8082886
5	0xbf7cdf41	-0.9877816
6	0x3deb02a7	0.11475115
7	0xbf1355c5	-0.5755275
8	0x3ff65e2a	1.9247487
9	0x3ec2b426	0.38028067
10	0x3fd316f9	1.6491386
11	0xbfb652d3	-1.4244026
12	0x3f5b1618	0.8558059
13	0xbf39f83b	-0.72644395
14	0x3f9939c3	1.1970752
15	0x3e405a0f	0.18784355
16	0x3fd3bac5	1.6541373
17	0x3f2adac7	0.6674008
18	0xbcb6d52e	-0.022318449
19	0xbef61ebc	-0.48070323
20	0xbea741bd	-0.32667342
21	0x3f1bd5a6	0.60872877
22	0x3e923f61	0.2856398
23	0xbf4aef63	-0.79271525
24	0xbf74c33e	-0.95610416
25	0x3f9e2a2d	1.2356621
26	0xbe215181	-0.15753748
27	0x3f09fa69	0.5389772
28	0x402fc565	2.746423
29	0x3f18578c	0.59508586

lstm.weight_ih_l0 f4 [12, 3]
0	0x3f72fa5a	0.94913256
1	0xbe0bf480	-0.13667488
2	0x3efcbc5b	0.49362454
3	0xbe015efc	-0.1263389
4	0xbc49898c	-0.01230086
5	0x3f6aa010	0.91650486
6	0x3e336e5e	0.1752257
7	0xbd9a6b84	-0.07540038
8	0x3eb41a93	0.35176525
9	0x3f08e9ec	0.53481936
10	0xbe7d331e	-0.24726531
11	0xbecc942e	-0.39956802
12	0x3eddd38c	0.4332546
13	0xbeb44c16	-0.352143
14	0xbec00256	-0.37501782
15	0xbe02b668	-0.12764895
16	0x3ef4ef9c	0.47839057
17	0xbe1a6a20	-0.15079546
18	0x3f15ffe9	0.5859361
19	0x3ee6bf23	0.450677
20	0xbf57cead	-0.8429974
21	0xbe014062	-0.12622216
22	0xbe84db74	-0.2594868
23	0xbe6b0312	-0.2295039
24	0xbe5a8cd9	-0.21342792
25	0x3f0767fa	0.5289303
26	0xbf6086c6	-0.8770565
27	0x3f2a9a71	0.6664191
28	0x3e27999c	0.16367191
29	0x3f17b6e7	0.5926346
30	0xbe99bff8	-0.30029273
31	0x3dbbbecf	0.09167253
32	0x3d767794	0.060172632
33	0xbe493111	-0.19647624
34	0x3dbc8fe0	0.092071295
35	0xbd770482	-0.060307033

lstm.weight_hh_l0 f4 [12, 3]
0	0xbf0c0dfc	-0.5470884
1	0xbea34a37	-0.3189256
2	0x3efa7714	0.48918974
3	0xbd997a08	-0.07493979
4	0xbe9e1387	-0.30874273
5	0x3e04b66c	0.12960213
6	0x3e36e0e0	0.1785922
7	0x3f0b1e9e	0.54343593
8	0x3f078a48	0.52945375
9	0x3b7abe00	0.0038260221
10	0x3f097380	0.53691864
11	0x3ebb0698	0.36528468
12	0xbe2d324c	-0.16913718
13	0xbf092646	-0.53574026
14	0x3e971b5e	0.29513067
15	0x3ed99ea4	0.42503846
16	0x3f02b7fc	0.5106199
17	0x3cfd9b60	0.030957878
18	0xbd95f450	-0.073219895
19	0xbdb9286c	-0.09040913
20	0xbeacefe8	-0.33776784
21	0x3e91e88a	0.28497726
22	0xbe61f556	-0.22066244
23	0x3ebc8978	0.3682363
24	0xbeeae5e8	-0.4587853
25	0xbf1094a5	-0.56476814
26	0x3ee14ee8	0.44005513
27	0xbcda5700	-0.026652813
28	0xbeb19396	-0.34682912
29	0x3ef6787c	0.48138797
30	0x3ecd1298	0.40053248
31	0xbe058822	-0.13040212
32	0x3e4a1f18	0.19738424
33	0xbef6292b	-0.48078284
34	0x3ea343ba	0.3188761
35	0x3d3db5f0	0.046316087

lstm.bias_ih_l0 f4 [12]
0	0x3f225e36	0.63425004
1	0x3e911c53	0.28341922
2	0xbe673187	-0.22577487
3	0x3f00600a	0.50146544
4	0x3ea58eca	0.32335502
5	0xbeaf8fd0	-0.34289408
6	0x3e0696e8	0.13143504
7	0x3dc043dd	0.09387944
8	0x3e3e62d5	0.18592389
9	0x3f75b0ee	0.959731
10	0xbca3dc14	-0.020002402
11	0xbec50fd2	-0.38488632

lstm.bias_hh_l0 f4 [12]
0	0x3f75f317	0.9607405
1	0xbf242a2e	-0.6412686
2	0xbe452533	-0.19252472
3	0xbe6267d4	-0.2210992
4	0xbecc1742	-0.39861494
5	0xbea75fe5	-0.3269035
6	0xbeae1a3a	-0.34004384
7	0x3f76557e	0.962242
8	0xbe8ce046	-0.27514857
9	0x3f8cdaa9	1.100423
10	0xbed92f1c	-0.42418754
11	0x3eda2aa2	0.4261065

lstm.weight_ih_l0_reverse f4 [12, 3]
0	0x3f2e906c	0.6818912
1	0x3e6de23f	0.23230837
2	0x3dec6269	0.11542208
3	0x3d000cf8	0.031262368
4	0xbf8d43e1	-1.103634
5	0x3f1095bd	0.5647848
6	0x3f3bd231	0.733676
7	0x3ee358b2	0.44403607
8	0xbf52f66d	-0.82407266
9	0xbe64a052	-0.22326782
10	0x3c756200	0.014976978
11	0x3e717758	0.23580682
12	0x3d240890	0.04004723
13	0xbd44c7d0	-0.04804212
14	0x3ee0790c	0.4384235
15	0xbec41e25	-0.38304248
16	0xbe0ed7c8	-0.13949502
17	0x3ed8e720	0.42363834
18	0x3e80bba1	0.2514315
19	0x3f630c51	0.8869067
20	0xbf06069c	-0.52353835
21	0x3ece7249	0.40321568
22	0xbd7990c8	-0.06092909
23	0x3f593eac	0.84861255
24	0xbeb8b81e	-0.3607797
25	0xbe507f48	-0.20361054
26	0x3efa3498	0.4886825
27	0x3f6563da	0.89605486
28	0xbea02d6c	-0.31284654
29	0x3c723ed6	0.014785489
30	0xbddcb5f8	-0.10776895
31	0xbf88ad5c	-1.0677905
32	0x3f14a57f	0.58065027
33	0x3e37d5b2	0.17952612
34	0x3ed74b8d	0.42049828
35	0xbc2dbf54	-0.010604698

lstm.weight_hh_l0_reverse f4 [12, 3]
0	0x3ecadfd0	0.3962388
1	0xbea053e9	-0.31314018
2	0xbddbdc64	-0.107353956
3	0x3eefea1c	0.468583
4	0x3e7143a0	0.23560953
5	0xbea5e001	-0.32397464
6	0x3e6054b4	0.21907312
7	0x3dc060e8	0.093934834
8	0x3da32178	0.07965368
9	0x3e420aa0	0.18949366
10	0x3ee35594	0.44401228
11	0xbedfa146	-0.4367773
12	0xbec73577	-0.38907978
13	0x3eac93a2	0.33706385
14	0xbf082d87	-0.5319447
15	0xbed797b0	-0.42107916
16	0xb8eda000	-0.00011330843
17	0xbec00078	-0.37500358
18	0x3ac7b800	0.0015237331
19	0xbddd3ba4	-0.10802391
20	0x3aa9fa00	0.0012968183
21	0xbe8deb84	-0.27718747
22	0x3dab2510	0.083566785
23	0xbd3f5580	-0.0467124
24	0xbe02a7ba	-0.12759295
25	0xbd637740	-0.055533648
26	0xbdc2c274	-0.09509745
27	0xbeaf2fd2	-0.34216172
28	0x3e9caffc	0.30603015
29	0xbef3db6c	-0.47628343
30	0x3e27aaf0	0.16373801
31	0xbecab2e6	-0.39589614
32	0xbde893f0	-0.11356342
33	0xbea60c4c	-0.32431257
34	0xbea1db21	-0.31612495
35	0xbdeae6c8	-0.11469799

lstm.bias_ih_l0_reverse f4 [12]
0	0x3df6e296	0.120549366
1	0xbc8d3dea	-0.017241437
2	0xbe566473	-0.20936756
3	0x3f0d02d8	0.55082464
4	0xbdbab1f4	-0.09115973
5	0xbeb78e44	-0.35850728
6	0xbedd8ba7	-0.4327061
7	0x3ef87e8c	0.48534048
8	0xbe85d6e8	-0.26140523
9	0x3f41a17c	0.7563703
10	0x3e00b8fd	0.12570567
11	0x3e3fb8f2	0.18722895

lstm.bias_hh_l0_reverse f4 [12]
0	0x3f01e668	0.507422
1	0x3f00809e	0.50196254
2	0x3c3fb2d2	0.011700349
3	0x3ef3d11c	0.47620475
4	0xbe264816	-0.16238436
5	0x3bfe9d80	0.0077702403
6	0x3eb6d7d1	0.3571153
7	0x3f1e8294	0.61917996
8	0xbdbc9e59	-0.0920989
9	0x3e75d211	0.24005915
10	0x3f160760	0.58605003
11	0x3e7ba69e	0.24575278

hidden2tag.weight f4 [5, 6]
0	0x3e74798c	0.23874491
1	0xbf168649	-0.5879865
2	0xbe575da5	-0.21031816
3	0x3da17f85	0.078856505
4	0xbf0955fb	-0.5364682
5	0xbd9ee2f9	-0.07758135
6	0xbe1b91d7	-0.15192352
7	0x3cd5aaf8	0.0260825
8	0xbe728ed2	-0.23687294
9	0xbf5173ce	-0.8181733
10	0x3ea3dc91	0.32004216
11	0x3d92c902	0.071672454
12	0x3f1eeec7	0.62083095
13	0x3e3ab0ad	0.18231459
14	0x3ecadfd3	0.3962389
15	0x3ec91636	0.39274758
16	0xbeb70da9	-0.3575261
17	0xbed2239a	-0.41042787
18	0xbf0563f3	-0.52105635
19	0x3ee1a3c6	0.44070262
20	0xbf123ac6	-0.5712093
21	0xbee9b6c0	-0.4564724
22	0x3f5ce0fe	0.8628081
23	0x3d8e5ae7	0.06950932
24	0x3f41bfdc	0.7568338
25	0xbe47486c	-0.1946122
26	0xbc02dbe8	-0.007987
27	0x3eb9b7a0	0.36272907
28	0x3dc4836e	0.09595381
29	0xbd904dce	-0.0704609

hidden2tag.bias f4 [5]
0	0xbe521388	-0.20515263
1	0xbed35dea	-0.41282588
2	0x3ec0bfc5	0.3764631
3	0x3ea032f2	0.31288868
4	0x3e7c7677	0.24654566
