model/test/run_test49.pth (torch, 4228 bytes, 11 tensors)

word_embeddings.weight f4 [10, 3]
000000 9a 6d 17 40 8b 23 4e bf e3 ca 12 3f 0d 92 e5 3e
       2.3660645 -0.80522984 0.5734083 0.4483799
000010 6e 56 07 40 00 eb c8 bf f9 71 3a 40 da f8 f8 3f
       2.1146502 -1.5696716 2.9132063 1.9450943
000020 98 0c f9 3f a5 a5 80 3f 43 de 13 c0 19 08 16 40
       1.9456968 1.0050551 -2.3104408 2.3442442
000030 15 97 98 3f c4 c2 c8 bf 13 2e 11 c0 df 80 e4 bf
       1.1921107 -1.5684438 -2.2684371 -1.7851828
000040 cf bd c8 bf 25 de cd 3f fa 9e d7 3e 65 47 07 3e
       -1.5682925 1.6083418 0.42113477 0.13210829
000050 d4 aa 17 bf 13 72 62 bf 97 6f 7c bf 01 90 92 3f
       -0.5924504 -0.88455313 -0.9860777 1.1450197
000060 87 12 4e bf b1 44 00 40 17 d3 24 3e 72 50 95 3f
       -0.8049702 2.0041926 0.1609615 1.1665175
000070 24 9b a9 be a9 9a 88 3e
       -0.33126175 0.26680496

lstm.weight_ih_l0 f4 [12, 3]
000000 16 d3 b3 3f 7e c0 bf 3f d2 b5 0a c0 07 60 57 be
       1.4048793 1.4980619 -2.1673474 -0.21032725
000010 89 a4 32 bf 8a 1c 4d 40 9b e9 2b 3f 98 19 11 bf
       -0.6978231 3.204867 0.6715333 -0.5667968
000020 20 e7 f9 bd d6 33 09 3f 80 de c3 bb 68 89 b9 be
       -0.12202287 0.5359472 -0.005977452 -0.36237645
000030 c6 32 b5 be 06 a3 28 be 12 0b 9b be 17 11 90 be
       -0.353903 -0.16468439 -0.30281883 -0.2813804
000040 1b 6c 0e bf 2a 52 cb be df 0b f8 3f 48 92 e8 bf
       -0.55633706 -0.39711124 1.9378623 -1.8169641
000050 33 bc 8e 3e 9f 24 f3 be 95 83 df 3e 86 a1 48 bf
       0.2787796 -0.47488877 0.43655077 -0.78371465
000060 a5 5b cb 3f 32 ed 0f 3f 38 ca ff 3f b7 85 a3 3f
       1.5887343 0.56221306 1.9983587 1.2775182
000070 08 43 c2 3f ee 74 0d c0 9a 72 b4 be f9 fb a6 be
       1.5176706 -2.2102618 -0.35243684 -0.32614115
000080 93 9c 57 40 85 5a c3 3e 2f 44 7f bf ab 38 09 bf
       3.3689315 0.38154998 -0.99713415 -0.53602093

lstm.weight_hh_l0 f4 [12, 3]
000000 08 f1 fc 3e f0 2c 93 bd 3e b8 a2 3e 26 f7 6b be
       0.49402642 -0.071863055 0.3178119 -0.23043498
000010 a4 45 0e bf e4 93 a4 be e8 30 0c 3e 70 b3 39 3e
       -0.55575013 -0.32144082 0.13690531 0.18134856
000020 b8 6b 82 bd 23 8d a5 be e0 cb e9 3c b8 0c 78 3e
       -0.06368202 -0.3233424 0.028539598 0.24223602
000030 04 0c 05 3e c0 f4 fe 3d 10 1f f9 3e d9 6b 06 bf
       0.12992865 0.12449026 0.4865651 -0.5250831
000040 a8 93 0c bf e4 13 09 3f 0c 96 03 3e 88 e8 65 3e
       -0.54912806 0.53545976 0.12850207 0.22451985
000050 47 5a 0d bf d8 94 eb be 06 62 a4 3e 70 54 1f 3d
       -0.5521588 -0.46011996 0.32106036 0.038898885
000060 32 3f 23 be 2a 63 bc 3e 64 c7 ff 3e 38 c2 e1 3e
       -0.15942076 0.36794406 0.4995681 0.4409349
000070 14 6e d7 3e 9d 4a 99 be 88 1e c7 3d 5c a6 28 be
       0.4207617 -0.29939738 0.0972262 -0.16469711
000080 f4 16 33 3e 3e 93 e3 be 72 94 01 3f 98 de eb 3e
       0.17489225 -0.44448274 0.50617135 0.46068263

lstm.bias_ih_l0 f4 [12]
000000 cb ce 80 3f 38 6e 39 3f d7 6a 06 40 20 26 07 bf
       1.0063108 0.72433805 2.100271 -0.5279255
000010 2e 63 c1 be 90 cd 1c bd 73 f7 21 3e b8 84 a9 bf
       -0.3777098 -0.038281977 0.1581705 -1.3243628
000020 e5 78 fd be 8f 29 af 3f e7 2f 0d 3f b4 66 f7 3f
       -0.49506298 1.3684558 0.5515122 1.9328218

lstm.bias_hh_l0 f4 [12]
000000 32 76 ad 3f 93 07 fa 3e dd d3 25 40 30 af f0 3e
       1.3551695 0.48833904 2.591056 0.47008657
000010 20 fd 9c 3d e4 9d 10 3f e0 4a 3c 3d b6 c9 cc bf
       0.07665467 0.5649092 0.045969844 -1.5999057
000020 60 36 86 bf 5f 2e d8 3f f4 41 34 3f 44 08 25 40
       -1.0485344 1.6889151 0.70413136 2.5786295

lstm.weight_ih_l0_reverse f4 [12, 3]
000000 12 06 8b 3e 04 27 1c 40 24 cc e8 3e f9 98 b1 3f
       0.2715307 2.4398813 0.45468247 1.3874809
000010 24 9e e4 bf 1c e8 1a 40 b4 ed 40 bf e3 81 47 3f
       -1.7860761 2.4204168 -0.75362706 0.77932566
000020 42 66 01 40 f0 8a da be b0 be b1 3e e4 63 22 3e
       2.0218663 -0.42684126 0.34715796 0.15858418
000030 0e 63 d2 3e b0 95 5e 3e 64 35 03 3e 00 a4 87 3a
       0.41091198 0.21736789 0.12813336 0.0010348558
000040 e3 6e fc be 7a 27 02 be 9a 62 d1 3f 27 32 de 3f
       -0.4930335 -0.12710372 1.6358216 1.7359055
000050 53 97 aa bf 96 4d e4 bf 8c b8 f4 bf 58 62 66 3e
       -1.332743 -1.7836177 -1.9118819 0.22498453
000060 b2 84 02 c0 b8 4a 4e bf 29 7d ec bf e5 83 08 40
       -2.039349 -0.8058276 -1.8475696 2.1330502
000070 44 0e be 3f 1e f1 0c bf 2e 63 ad 3f 35 72 ed bf
       1.4848104 -0.55055416 1.3545892 -1.8550478
000080 bd aa df 3f e8 ae 9b be f1 79 0c bf 3c 48 dc 3f
       1.747398 -0.3040688 -0.5487357 1.7209544

lstm.weight_hh_l0_reverse f4 [12, 3]
000000 84 8f f2 be e6 dc a3 3e 7a 9a ac 3e d8 15 e2 bd
       -0.4737512 0.3200447 0.33711606 -0.110393226
000010 9c 74 e2 3e f4 86 65 be 8d 0e ef be 00 7c e7 3d
       0.4422959 -0.22414762 -0.4669079 0.11302948
000020 00 64 46 ba a6 f7 00 be 38 7d d8 3d 98 08 df 3d
       -0.0007568002 -0.1259447 0.105707586 0.10890311
000030 88 07 f6 3d a8 8f 57 3e 6a 59 43 be d4 15 98 3e
       0.12013155 0.21050894 -0.19077078 0.29704154
000040 0a 51 11 be 58 e8 b7 be 7a 08 08 3f 50 40 57 3d
       -0.1419107 -0.35919452 0.53137934 0.052551568
000050 cb 86 a4 be ae 48 55 be 48 6f 84 3e f0 2a ba 3e
       -0.3213409 -0.20828506 0.2586615 0.36360884
000060 10 07 05 3e cc bd b5 be 52 62 12 3f b2 65 0e be
       0.12990975 -0.35496366 0.57181275 -0.13905981
000070 75 2d fe be f4 30 12 3f 30 d2 10 3e 80 68 9c 3e
       -0.49644056 0.57105947 0.1414268 0.30548477
000080 98 4b d2 3e 00 cb 69 3e 52 1d c1 3e c8 60 d5 3d
       0.41073298 0.22831345 0.37717682 0.1041885

lstm.bias_ih_l0_reverse f4 [12]
000000 04 73 4f 3f ba 75 e7 3f d8 ba e0 3f 40 8a c8 3c
       0.81034875 1.8082802 1.755702 0.024479985
000010 58 93 12 be 64 ae 0e bf fe 95 03 3f 7f f1 ca 3e
       -0.1431402 -0.5573485 0.51400745 0.39637372
000020 a4 d6 ad 3e 51 a2 4a 3f 05 de 06 40 b5 7f ed 3f
       0.3395282 0.79153925 2.107301 1.8554598

lstm.bias_hh_l0_reverse f4 [12]
000000 7c 83 eb 3e 8e 3c 77 3f 88 e9 ab 3f e0 6b a9 be
       0.45998752 0.96576774 1.3430643 -0.33090115
000010 90 6c 07 3f 3e d7 a6 3e 86 7f 3c 3f fe e5 90 3f
       0.5290003 0.32586092 0.73632085 1.1320188
000020 92 6f 50 3f b3 b6 8f 3f a9 8d 8a 3f 81 19 02 40
       0.8142024 1.122763 1.0824481 2.0328066

hidden2tag.weight f4 [5, 6]
000000 8f c8 94 bf 21 ca 00 c0 4e b4 91 bf 65 1c 6b c0
       -1.1623706 -2.012337 -1.138315 -3.673608
000010 65 43 98 3f 91 f8 6a 40 83 0d 65 40 c8 dd 97 40
       1.1895567 3.6714213 3.5789497 4.745823
000020 31 02 1f c0 b3 82 a5 bf f6 77 9f 3f 94 c3 3e 3f
       -2.4845088 -1.2930511 1.2458484 0.7451718
000030 05 0a 17 bf f3 25 0b bf b1 80 17 40 82 f8 ee be
       -0.58999664 -0.5435478 2.3672297 -0.4667397
000040 bb c8 ff 3f 58 4e 12 c0 8d 28 3a 40 e2 c3 8a bf
       1.9983133 -2.2860317 2.908725 -1.0841029
000050 d5 90 6c 3f 36 e5 6b 40 02 ba 50 c0 12 33 e1 bf
       0.92408496 3.685865 -3.261353 -1.759371
000060 5c d6 55 c0 a8 06 06 40 40 3f ed bf 2a e2 1f 40
       -3.3412085 2.0941563 -1.8534927 2.498179
000070 31 2f 10 c0 76 68 d6 3f
       -2.2528803 1.6750629

hidden2tag.bias f4 [5]
000000 ee dc d5 be e9 7e ce 3d e3 65 d4 3e e7 4f b3 bf
       -0.41770118 0.100828 0.41483983 -1.4008759
000010 83 4d e6 3c
       0.028113132
