model/test/run_test47.pth (torch, 4228 bytes, 11 tensors)

word_embeddings.weight f4 [10, 3]
1.3976898 -1.3631396 1.2154891 3.2175922 0.9465288 -0.57950497 -1.1502566 -2.2913504
3.8835435 0.5196622 3.4312603 -2.8798985 1.6910388 -0.3508709 1.4876404 -0.8101746
2.72824 1.5599896 -0.022318449 -0.48070323 -0.32667342 0.60872877 0.2856398 -0.79271525
-0.95610416 1.2356621 -0.15753748 0.5389772 2.746423 0.59508586
00000000: 80e7 b23f 5c7b aebf 2695 9b3f 08ed 4d40
00000010: b64f 723f 705a 14bf 9c3b 93bf 7ca5 12c0
00000020: fa8b 7840 9508 053f c599 5b40 4250 38c0
00000030: f673 d83f 5aa5 b3be 006b be3f 9a67 4fbf
00000040: 7c9b 2e40 bdad c73f 2ed5 b6bc bc1e f6be
00000050: bd41 a7be a6d5 1b3f 613f 923e 63ef 4abf
00000060: 3ec3 74bf 2d2a 9e3f 8151 21be 69fa 093f
00000070: 65c5 2f40 8c57 183f

lstm.weight_ih_l0 f4 [12, 3]
1.912104 0.47839722 1.6243608 -0.9904506 0.3553725 2.9617138 0.32719105 1.4225656
-0.54108095 0.53481936 -0.24726531 -0.39956802 0.4332546 -0.352143 -0.37501782 -0.12764895
0.47839057 -0.15079546 1.588932 0.05105273 -1.5721157 -2.0786023 -1.661301 -0.34680194
-1.3380667 0.5428721 -1.3802536 1.7032468 0.7790358 1.7525808 -1.0795289 0.29377022
2.5018303 -0.0052262098 1.9657547 -0.4629739
00000000: d3bf f43f 7bf0 f43e 0eeb cf3f 2c8e 7dbf
00000010: 62f3 b53e b88c 3d40 9685 a73e a116 b63f
00000020: 4884 0abf ece9 083f 1e33 7dbe 2e94 ccbe
00000030: 8cd3 dd3e 164c b4be 5602 c0be 68b6 02be
00000040: 9cef f43e 206a 1abe 2062 cb3f ab1c 513d
00000050: 163b c9bf d207 05c0 83a5 d4bf 0690 b1be
00000060: c545 abbf aaf9 0a3f 26ac b0bf fe03 da3f
00000070: e46e 473f 9154 e03f 012e 8abf 0d69 963e
00000080: fd1d 2040 a040 abbb da9d fb3f ea0a edbe

lstm.weight_hh_l0 f4 [12, 3]
-0.5470884 -0.3189256 0.48918974 -0.07493979 -0.30874273 0.12960213 0.1785922 0.54343593
0.52945375 0.0038260221 0.53691864 0.36528468 -0.16913718 -0.53574026 0.29513067 0.42503846
0.5106199 0.030957878 -0.073219895 -0.09040913 -0.33776784 0.28497726 -0.22066244 0.3682363
-0.4587853 -0.56476814 0.44005513 -0.026652813 -0.34682912 0.48138797 0.40053248 -0.13040212
0.19738424 -0.48078284 0.3188761 0.046316087
00000000: fc0d 0cbf 374a a3be 1477 fa3e 087a 99bd
00000010: 8713 9ebe 6cb6 043e e0e0 363e 9e1e 0b3f
00000020: 488a 073f 00be 7a3b 8073 093f 9806 bb3e
00000030: 4c32 2dbe 4626 09bf 5e1b 973e a49e d93e
00000040: fcb7 023f 609b fd3c 50f4 95bd 6c28 b9bd
00000050: e8ef acbe 8ae8 913e 56f5 61be 7889 bc3e
00000060: e8e5 eabe a594 10bf e84e e13e 0057 dabc
00000070: 9693 b1be 7c78 f63e 9812 cd3e 2288 05be
00000080: 181f 4a3e 2b29 f6be ba43 a33e f0b5 3d3d

lstm.bias_ih_l0 f4 [12]
1.9812547 1.2637578 0.76776797 0.50146544 0.32335502 -0.34289408 0.19773105 -0.9991278
-0.38376233 2.3255167 1.2974418 0.6190317
00000000: c199 fd3f d1c2 a13f 718c 443f 0a60 003f
00000010: ca8e a53e d08f afbe 027a 4a3e d7c6 7fbf
00000020: 7f7c c4be 44d5 1440 9312 a63f dd78 1e3f

lstm.bias_hh_l0 f4 [12]
2.3077462 0.3390698 0.8010182 -0.2210992 -0.39861494 -0.3269035 -0.27374786 -0.13076557
-0.84483474 2.466209 0.89325655 1.4300239
00000000: 1db2 1340 8f9a ad3e 870f 4d3f d467 62be
00000010: 4217 ccbe e55f a7be ae28 8cbe 69e7 05be
00000020: 1747 58bf 5ed6 1d40 76ac 643f 060b b73f

lstm.weight_ih_l0_reverse f4 [12, 3]
1.9522424 1.2741505 0.3393123 0.55288845 -2.279919 1.0747898 1.593032 1.8810104
-0.32658798 -0.22326782 0.014976978 0.23580682 0.04004723 -0.04804212 0.4384235 -0.38304248
-0.13949502 0.42363834 0.3109314 2.765397 -1.8530302 0.67796355 -0.7548423 1.360213
0.84748715 -0.755035 1.9657454 2.2929432 1.6661378 -0.85799927 0.30452076 -2.193673
1.1958715 0.77691823 1.5454572 -0.41161743
00000000: 14e3 f93f 5d17 a33f 57ba ad3e 198a 0d3f
00000010: 31ea 11c0 b692 893f 79e8 cb3f f3c4 f03f
00000020: 8a36 a7be 52a0 64be 0062 753c 5877 713e
00000030: 9008 243d d0c7 44bd 0c79 e03e 251e c4be
00000040: c8d7 0ebe 20e7 d83e 6732 9f3e 44fc 3040
00000050: 1830 edbf 058f 2d3f 583d 41bf 761b ae3f
00000060: ebf4 583f f949 41bf 8c9d fb3f 95bf 1240
00000070: 0144 d53f d7a5 5bbf 25ea 9b3e 2365 0cc0
00000080: 5112 993f 1de4 463f 8bd1 c53f 85bf d2be

lstm.weight_hh_l0_reverse f4 [12, 3]
0.3962388 -0.31314018 -0.107353956 0.468583 0.23560953 -0.32397464 0.21907312 0.093934834
0.07965368 0.18949366 0.44401228 -0.4367773 -0.38907978 0.33706385 -0.5319447 -0.42107916
-0.00011330843 -0.37500358 0.0015237331 -0.10802391 0.0012968183 -0.27718747 0.083566785 -0.0467124
-0.12759295 -0.055533648 -0.09509745 -0.34216172 0.30603015 -0.47628343 0.16373801 -0.39589614
-0.11356342 -0.32431257 -0.31612495 -0.11469799
00000000: d0df ca3e e953 a0be 64dc dbbd 1cea ef3e
00000010: a043 713e 01e0 a5be b454 603e e860 c03d
00000020: 7821 a33d a00a 423e 9455 e33e 46a1 dfbe
00000030: 7735 c7be a293 ac3e 872d 08bf b097 d7be
00000040: 00a0 edb8 7800 c0be 00b8 c73a a43b ddbd
00000050: 00fa a93a 84eb 8dbe 1025 ab3d 8055 3fbd
00000060: baa7 02be 4077 63bd 74c2 c2bd d22f afbe
00000070: fcaf 9c3e 6cdb f3be f0aa 273e e6b2 cabe
00000080: f093 e8bd 4c0c a6be 21db a1be c8e6 eabd

lstm.bias_ih_l0_reverse f4 [12]
1.4853133 -0.07509776 1.0907753 0.55082464 -0.09115973 -0.35850728 -0.41863528 0.6737324
0.57563025 2.217129 0.2603896 1.5136219
00000000: bf1e be3f dbcc 99bd 869e 8b3f d802 0d3f
00000010: f4b1 babd 448e b7be 5d57 d6be ba79 2c3f
00000020: 815c 133f 71e5 0d40 c951 853e 5dbe c13f

lstm.bias_hh_l0_reverse f4 [12]
1.872186 0.44410622 1.3118432 0.47620475 -0.16238436 0.0077702403 0.3711861 0.8075719
0.7449366 1.7008187 0.7207339 1.5721458
00000000: caa3 ef3f e461 e33e 7aea a73f 1cd1 f33e
00000010: 1648 26be 809d fe3b 1b0c be3e 08bd 4e3f
00000020: 2ab4 3e3f 6db4 d93f 0482 383f 133c c93f

hidden2tag.weight f4 [5, 6]
-2.8605065 -3.2731128 -1.0424013 1.0593098 -2.5094867 1.0940048 -0.15170494 -2.5010355
-0.830913 -3.117848 0.97715193 1.267274 1.5873613 -0.03589883 3.0127356 1.0032146
-1.844218 -2.4236877 -1.6969113 4.2616177 -0.35342932 -1.1023811 1.6901495 -0.23382154
2.341284 1.0479697 -1.8916355 1.348097 -1.1821977 1.6179845
00000000: 8a12 37c0 ae7a 51c0 686d 85bf 7797 873f
00000010: 6e9b 20c0 5908 8c3f 8a58 1bbe f710 20c0
00000020: b7b6 54bf d28a 47c0 a126 7a3f 0936 a23f
00000030: a82e cb3f a70a 13bd a9d0 4040 5669 803f
00000040: 560f ecbf b31d 1bc0 6434 d9bf 2c5f 8840
00000050: b0f4 b4be d31a 8dbf d256 d83f ea6e 6fbe
00000060: 99d7 1540 df23 863f 1d21 f2bf 718e ac3f
00000070: 4152 97bf 1e1a cf3f

hidden2tag.bias f4 [5]
-0.33964473 -0.22485141 0.56979024 -0.044865534 0.2460531
00000000: eae5 adbe 733f 66be c6dd 113f ecc4 37bd
00000010: 58f5 7b3e
