model/test/run_test13.pth (torch, 4228 bytes, 11 tensors)

word_embeddings.weight f4 [10, 3]
000000 9a 6d 17 40 8b 23 4e bf e3 ca 12 3f 38 90 b8 3e
       2.3660645 -0.80522984 0.5734083 0.3604753
000010 9d 34 f2 3f f0 f5 c0 bf a7 97 33 40 18 01 de 3f
       1.8922306 -1.5075054 2.8061311 1.7344084
000020 b5 44 f6 3f 28 ba e9 3e 5a 07 13 c0 aa b3 00 40
       1.9239718 0.45649838 -2.2973237 2.0109658
000030 21 da 85 3f 6b 03 c4 bf 25 fc 08 c0 db 88 db bf
       1.0457193 -1.5313543 -2.1403897 -1.715114
000040 87 99 c1 bf 18 57 bc 3f fa 9e d7 3e 65 47 07 3e
       -1.5124978 1.4714079 0.42113477 0.13210829
000050 d4 aa 17 bf 13 72 62 bf 97 6f 7c bf 01 90 92 3f
       -0.5924504 -0.88455313 -0.9860777 1.1450197
000060 87 12 4e bf b1 44 00 40 17 d3 24 3e 72 50 95 3f
       -0.8049702 2.0041926 0.1609615 1.1665175
000070 24 9b a9 be a9 9a 88 3e
       -0.33126175 0.26680496

lstm.weight_ih_l0 f4 [12, 3]
000000 dd 0c 9f 3f b3 82 b3 3f 97 81 05 c0 31 51 9a 3d
       1.24258 1.4024261 -2.0860345 0.07535017
000010 74 52 ca be 13 0e 37 40 66 92 26 3f ca 55 10 bf
       -0.39516032 2.860234 0.65067136 -0.56380904
000020 9c 2b 82 bc d6 33 09 3f 80 de c3 bb 68 89 b9 be
       -0.015889935 0.5359472 -0.005977452 -0.36237645
000030 c6 32 b5 be 06 a3 28 be 12 0b 9b be 17 11 90 be
       -0.353903 -0.16468439 -0.30281883 -0.2813804
000040 1b 6c 0e bf 2a 52 cb be 14 c5 ed 3f ae 8a da bf
       -0.55633706 -0.39711124 1.8575768 -1.7073572
000050 a6 4e 61 3e 05 8a 02 bf 7d 29 51 3e 16 b3 31 bf
       0.22002658 -0.5099185 0.20425983 -0.6941389
000060 24 26 b3 3f da ac f7 3e f2 74 fc 3f 22 92 8e 3f
       1.3996015 0.48374063 1.9723189 1.1138346
000070 4b a4 bd 3f c2 87 06 c0 aa e3 0c bd bc 25 4b 3c
       1.4815763 -2.102036 -0.034396805 0.012399133
000080 22 b9 3f 40 84 f7 10 3f 17 84 64 bf 8e 80 a2 be
       2.9956746 0.5662768 -0.89264053 -0.31738704

lstm.weight_hh_l0 f4 [12, 3]
000000 08 f1 fc 3e f0 2c 93 bd 3e b8 a2 3e 26 f7 6b be
       0.49402642 -0.071863055 0.3178119 -0.23043498
000010 a4 45 0e bf e4 93 a4 be e8 30 0c 3e 70 b3 39 3e
       -0.55575013 -0.32144082 0.13690531 0.18134856
000020 b8 6b 82 bd 23 8d a5 be e0 cb e9 3c b8 0c 78 3e
       -0.06368202 -0.3233424 0.028539598 0.24223602
000030 04 0c 05 3e c0 f4 fe 3d 10 1f f9 3e d9 6b 06 bf
       0.12992865 0.12449026 0.4865651 -0.5250831
000040 a8 93 0c bf e4 13 09 3f 0c 96 03 3e 88 e8 65 3e
       -0.54912806 0.53545976 0.12850207 0.22451985
000050 47 5a 0d bf d8 94 eb be 06 62 a4 3e 70 54 1f 3d
       -0.5521588 -0.46011996 0.32106036 0.038898885
000060 32 3f 23 be 2a 63 bc 3e 64 c7 ff 3e 38 c2 e1 3e
       -0.15942076 0.36794406 0.4995681 0.4409349
000070 14 6e d7 3e 9d 4a 99 be 88 1e c7 3d 5c a6 28 be
       0.4207617 -0.29939738 0.0972262 -0.16469711
000080 f4 16 33 3e 3e 93 e3 be 72 94 01 3f 98 de eb 3e
       0.17489225 -0.44448274 0.50617135 0.46068263

lstm.bias_ih_l0 f4 [12]
000000 f9 cc 64 3f 79 d7 04 3f e0 29 fd 3f 20 26 07 bf
       0.89375263 0.51891285 1.9778404 -0.5279255
000010 2e 63 c1 be 90 cd 1c bd 6e 8a 18 3e 42 60 9c bf
       -0.3777098 -0.038281977 0.14896557 -1.2216876
000020 ff 50 d5 be c4 ce 9d 3f 17 d8 9a 3e 2e 8e e8 3f
       -0.41663358 1.2328725 0.30242988 1.816839

lstm.bias_hh_l0 f4 [12]
000000 e5 0d 9f 3f 0c da 90 3e f7 fd 1d 40 30 af f0 3e
       1.2426115 0.28291357 2.4686258 0.47008657
000010 20 fd 9c 3d e4 9d 10 3f b8 96 16 3d 40 a5 bf bf
       0.07665467 0.5649092 0.03676483 -1.4972305
000020 c8 58 78 bf 94 d3 c6 3f 2d fc e8 3e 01 9c 1d 40
       -0.9701047 1.5533319 0.45504895 2.4626467

lstm.weight_ih_l0_reverse f4 [12, 3]
000000 c1 97 05 3e ab 07 1a 40 e3 ea 33 3f 5f 96 96 3f
       0.13046171 2.406718 0.70280284 1.176464
000010 9d 76 c7 bf 1e 42 27 40 6b 73 e1 be 8d a3 2c 3f
       -1.5583073 2.6134105 -0.4403337 0.6743706
000020 5a 86 ba 3f f0 8a da be b0 be b1 3e e4 63 22 3e
       1.4572251 -0.42684126 0.34715796 0.15858418
000030 0e 63 d2 3e b0 95 5e 3e 64 35 03 3e 00 a4 87 3a
       0.41091198 0.21736789 0.12813336 0.0010348558
000040 e3 6e fc be 7a 27 02 be c3 d6 c9 3f 50 4c cc 3f
       -0.4930335 -0.12710372 1.5768665 1.5960789
000050 f7 c9 98 bf 15 9a de bf 57 32 ec bf 57 fc 5d 3e
       -1.1936635 -1.7390772 -1.8452863 0.21678291
000060 9d 0e da bf 94 44 3a bf b9 e1 e4 bf c5 a0 04 40
       -1.703571 -0.7276089 -1.7881385 2.0723126
000070 24 ea bf 3f c7 4d 25 bf 10 c1 ad 3f 83 00 e3 bf
       1.4993329 -0.64571804 1.3574543 -1.7734531
000080 33 a2 d3 3f 49 c7 a0 bd e2 ce 2c be 1d 39 9b 3f
       1.6533874 -0.078505106 -0.16875795 1.2126805

lstm.weight_hh_l0_reverse f4 [12, 3]
000000 84 8f f2 be e6 dc a3 3e 7a 9a ac 3e d8 15 e2 bd
       -0.4737512 0.3200447 0.33711606 -0.110393226
000010 9c 74 e2 3e f4 86 65 be 8d 0e ef be 00 7c e7 3d
       0.4422959 -0.22414762 -0.4669079 0.11302948
000020 00 64 46 ba a6 f7 00 be 38 7d d8 3d 98 08 df 3d
       -0.0007568002 -0.1259447 0.105707586 0.10890311
000030 88 07 f6 3d a8 8f 57 3e 6a 59 43 be d4 15 98 3e
       0.12013155 0.21050894 -0.19077078 0.29704154
000040 0a 51 11 be 58 e8 b7 be 7a 08 08 3f 50 40 57 3d
       -0.1419107 -0.35919452 0.53137934 0.052551568
000050 cb 86 a4 be ae 48 55 be 48 6f 84 3e f0 2a ba 3e
       -0.3213409 -0.20828506 0.2586615 0.36360884
000060 10 07 05 3e cc bd b5 be 52 62 12 3f b2 65 0e be
       0.12990975 -0.35496366 0.57181275 -0.13905981
000070 75 2d fe be f4 30 12 3f 30 d2 10 3e 80 68 9c 3e
       -0.49644056 0.57105947 0.1414268 0.30548477
000080 98 4b d2 3e 00 cb 69 3e 52 1d c1 3e c8 60 d5 3d
       0.41073298 0.22831345 0.37717682 0.1041885

lstm.bias_ih_l0_reverse f4 [12]
000000 84 9f 1b 3f 22 be d1 3f dc d6 e7 3f 40 8a c8 3c
       0.60790277 1.6386149 1.8112445 0.024479985
000010 58 93 12 be 64 ae 0e bf 32 6f 11 3f 27 78 b9 3e
       -0.1431402 -0.5573485 0.56810296 0.3622448
000020 ec 76 b2 3e ab 5e 2a 3f e5 76 00 40 42 d6 ed 3f
       0.34856355 0.665507 2.0072567 1.8581011

lstm.bias_hh_l0_reverse f4 [12]
000000 7b dc 83 3e 61 cd 4b 3f 8c 05 b3 3f e0 6b a9 be
       0.2575415 0.7961026 1.3986068 -0.33090115
000010 90 6c 07 3f 3e d7 a6 3e ba 58 4a 3f aa 87 8c 3f
       0.5290003 0.32586092 0.79041636 1.0978901
000020 b7 bf 52 3f c9 29 7f 3f d3 7e 7b 3f c8 44 02 40
       0.82323784 0.99673134 0.98240393 2.035448

hidden2tag.weight f4 [5, 6]
000000 33 0a 09 bf 35 67 0e bf 2c e6 b1 bf 8c c9 1b c0
       -0.5353119 -0.5562623 -1.3898368 -2.4341764
000010 b0 ae 76 3f 06 1d 2e 40 a1 e5 22 40 8d e8 31 40
       0.963603 2.7205215 2.5452654 2.7798188
000020 53 a6 f2 bf 97 79 8d bf f0 c1 56 3f c9 c6 d2 3f
       -1.8957008 -1.1052731 0.83889675 1.6466914
000030 61 61 6f 3e 1f 83 7c be b6 01 00 40 8e 2b 11 bd
       0.23376991 -0.24659394 2.0001044 -0.035441928
000040 67 64 d9 3f ca bc c8 bf bd 18 09 40 05 21 9b bf
       1.6983765 -1.5682614 2.142135 -1.2119452
000050 05 1f 67 3f 35 ff 33 40 b0 3b 30 c0 0a 63 e0 bf
       0.9028171 2.8124516 -2.753643 -1.7530224
000060 04 d6 2a c0 70 27 a4 3f f1 32 ca bf 47 ec 96 3f
       -2.6693125 1.2824535 -1.5796796 1.1790856
000070 02 b6 e7 bf b5 64 bf 3f
       -1.8102419 1.4952608

hidden2tag.bias f4 [5]
000000 1b 3f 5d be e7 0e 23 be 31 c4 e3 3e 2b 09 96 bf
       -0.21606104 -0.15923654 0.4448562 -1.1721548
000010 7b cd c1 bd
       -0.094630204
