model/test/run_test31.pth (torch, 4228 bytes, 11 tensors)

word_embeddings.weight f4 [10, 3]
0	0x40176d9a	2.3660645
1	0xbf4e238b	-0.80522984
2	0x3f12cae3	0.5734083
3	0x3eec3918	0.4613731
4	0x4007acdb	2.1199253
5	0xbfc8cf3b	-1.5688242
6	0x4039b3a5	2.9015896
7	0x3ff3eaf8	1.9056082
8	0x3ff925bb	1.946464
9	0x3f654334	0.8955567
10	0xc0150b72	-2.3288236
11	0x40134aee	2.3014483
12	0x3f93f669	1.1559573
13	0xbfc8bc4e	-1.5682466
14	0xc0119d6f	-2.275234
15	0xbfe36829	-1.7766162
16	0xbfc8b1a5	-1.5679213
17	0x3fcd0607	1.6017464
18	0x3ed79efa	0.42113477
19	0x3e074765	0.13210829
20	0xbf17aad4	-0.5924504
21	0xbf627213	-0.88455313
22	0xbf7c6f97	-0.9860777
23	0x3f929001	1.1450197
24	0xbf4e1287	-0.8049702
25	0x400044b1	2.0041926
26	0x3e24d317	0.1609615
27	0x3f955072	1.1665175
28	0xbea99b24	-0.33126175
29	0x3e889aa9	0.26680496

lstm.weight_ih_l0 f4 [12, 3]
0	0x3fb1ed67	1.3900574
1	0x3fbee084	1.4912267
2	0xc00ab4c9	-2.1672843
3	0xbe56dad9	-0.20981921
4	0xbf325135	-0.6965516
5	0x404c617c	3.19345
6	0x3f29d0ed	0.6633442
7	0xbf16e51d	-0.5894335
8	0xbdcddda6	-0.10052042
9	0x3f0933d6	0.5359472
10	0xbbc3de80	-0.005977452
11	0xbeb98968	-0.36237645
12	0xbeb532c6	-0.353903
13	0xbe28a306	-0.16468439
14	0xbe9b0b12	-0.30281883
15	0xbe901117	-0.2813804
16	0xbf0e6c1b	-0.55633706
17	0xbecb522a	-0.39711124
18	0x3ff692ac	1.9263511
19	0xbfe88389	-1.8165141
20	0x3e8828fb	0.26593766
21	0xbef55aec	-0.4792093
22	0x3ed5a807	0.41729757
23	0xbf46fc3c	-0.7772863
24	0x3fcbbd7f	1.5917205
25	0x3f12f128	0.57399225
26	0x3ffe64eb	1.9874548
27	0x3fa1551e	1.2604101
28	0x3fc0bd03	1.5057682
29	0xc00d990a	-2.2124658
30	0xbeb2d1df	-0.34925744
31	0xbea50d92	-0.32236916
32	0x4056fcb7	3.3591745
33	0x3ee7ba41	0.45259288
34	0xbf79de71	-0.97605044
35	0xbee7ca01	-0.45271304

lstm.weight_hh_l0 f4 [12, 3]
0	0x3efcf108	0.49402642
1	0xbd932cf0	-0.071863055
2	0x3ea2b83e	0.3178119
3	0xbe6bf726	-0.23043498
4	0xbf0e45a4	-0.55575013
5	0xbea493e4	-0.32144082
6	0x3e0c30e8	0.13690531
7	0x3e39b370	0.18134856
8	0xbd826bb8	-0.06368202
9	0xbea58d23	-0.3233424
10	0x3ce9cbe0	0.028539598
11	0x3e780cb8	0.24223602
12	0x3e050c04	0.12992865
13	0x3dfef4c0	0.12449026
14	0x3ef91f10	0.4865651
15	0xbf066bd9	-0.5250831
16	0xbf0c93a8	-0.54912806
17	0x3f0913e4	0.53545976
18	0x3e03960c	0.12850207
19	0x3e65e888	0.22451985
20	0xbf0d5a47	-0.5521588
21	0xbeeb94d8	-0.46011996
22	0x3ea46206	0.32106036
23	0x3d1f5470	0.038898885
24	0xbe233f32	-0.15942076
25	0x3ebc632a	0.36794406
26	0x3effc764	0.4995681
27	0x3ee1c238	0.4409349
28	0x3ed76e14	0.4207617
29	0xbe994a9d	-0.29939738
30	0x3dc71e88	0.0972262
31	0xbe28a65c	-0.16469711
32	0x3e3316f4	0.17489225
33	0xbee3933e	-0.44448274
34	0x3f019472	0.50617135
35	0x3eebde98	0.46068263

lstm.bias_ih_l0 f4 [12]
0	0x3f7edc23	0.9955465
1	0x3f383198	0.71950674
2	0x4005e093	2.091832
3	0xbf072620	-0.5279255
4	0xbec1632e	-0.3777098
5	0xbd1ccd90	-0.038281977
6	0x3e20f80e	0.15719625
7	0xbfa8b5b9	-1.3180457
8	0xbefe069a	-0.49614412
9	0x3fadb449	1.3570644
10	0x3f0bf217	0.54666275
11	0x3ff78a94	1.9339166

lstm.bias_hh_l0 f4 [12]
0	0x3fac1578	1.3444052
1	0x3ef78e4c	0.4835075
2	0x40254999	2.582617
3	0x3ef0af30	0.47008657
4	0x3d9cfd20	0.07665467
5	0x3f109de4	0.5649092
6	0x3d384d41	0.04499555
7	0xbfcbfab7	-1.5935887
8	0xbf8659ce	-1.0496156
9	0x3fd6b919	1.6775237
10	0x3f330424	0.69928193
11	0x40251a36	2.5797248

lstm.weight_ih_l0_reverse f4 [12, 3]
0	0x3e536a6d	0.20646067
1	0x4020444c	2.5041685
2	0x3f011b4a	0.50432265
3	0x3fa8bc92	1.3182547
4	0xbfd848a0	-1.6897163
5	0x4021f26b	2.530421
6	0xbf3c2022	-0.7348653
7	0x3f3fa0b6	0.748546
8	0x3ffb227c	1.9619899
9	0xbeda8af0	-0.42684126
10	0x3eb1beb0	0.34715796
11	0x3e2263e4	0.15858418
12	0x3ed2630e	0.41091198
13	0x3e5e95b0	0.21736789
14	0x3e033564	0.12813336
15	0x3a87a400	0.0010348558
16	0xbefc6ee3	-0.4930335
17	0xbe02277a	-0.12710372
18	0x3fd14e91	1.6352102
19	0x3fde3047	1.7358483
20	0xbfaa48ca	-1.3303463
21	0xbfe52347	-1.7901391
22	0xbff3e65a	-1.9054673
23	0x3e78ed7a	0.2430934
24	0xbfff481e	-1.9943883
25	0xbf537422	-0.8259908
26	0xbfeb5727	-1.8385972
27	0x4007a448	2.119402
28	0x3fc3aa45	1.5286337
29	0xbf1f0709	-0.6212011
30	0x3fabded4	1.3427377
31	0xbfed5dc7	-1.8544244
32	0x3fe0411c	1.751987
33	0xbe986b63	-0.2976943
34	0xbf18a67f	-0.5962905
35	0x3fdc5668	1.7213869

lstm.weight_hh_l0_reverse f4 [12, 3]
0	0xbef28f84	-0.4737512
1	0x3ea3dce6	0.3200447
2	0x3eac9a7a	0.33711606
3	0xbde215d8	-0.110393226
4	0x3ee2749c	0.4422959
5	0xbe6586f4	-0.22414762
6	0xbeef0e8d	-0.4669079
7	0x3de77c00	0.11302948
8	0xba466400	-0.0007568002
9	0xbe00f7a6	-0.1259447
10	0x3dd87d38	0.105707586
11	0x3ddf0898	0.10890311
12	0x3df60788	0.12013155
13	0x3e578fa8	0.21050894
14	0xbe43596a	-0.19077078
15	0x3e9815d4	0.29704154
16	0xbe11510a	-0.1419107
17	0xbeb7e858	-0.35919452
18	0x3f08087a	0.53137934
19	0x3d574050	0.052551568
20	0xbea486cb	-0.3213409
21	0xbe5548ae	-0.20828506
22	0x3e846f48	0.2586615
23	0x3eba2af0	0.36360884
24	0x3e050710	0.12990975
25	0xbeb5bdcc	-0.35496366
26	0x3f126252	0.57181275
27	0xbe0e65b2	-0.13905981
28	0xbefe2d75	-0.49644056
29	0x3f1230f4	0.57105947
30	0x3e10d230	0.1414268
31	0x3e9c6880	0.30548477
32	0x3ed24b98	0.41073298
33	0x3e69cb00	0.22831345
34	0x3ec11d52	0.37717682
35	0x3dd560c8	0.1041885

lstm.bias_ih_l0_reverse f4 [12]
0	0x3f427886	0.75965154
1	0x3fe178cb	1.7614988
2	0x3fe1be36	1.7636173
3	0x3cc88a40	0.024479985
4	0xbe129358	-0.1431402
5	0xbf0eae64	-0.5573485
6	0x3f0389d6	0.51382196
7	0x3ec7e4bf	0.39041707
8	0x3eaa3e1e	0.33250517
9	0x3f42e690	0.7613306
10	0x400678c2	2.1011205
11	0x3fecee9c	1.8510318

lstm.bias_hh_l0_reverse f4 [12]
0	0x3ed18e84	0.40929043
1	0x3f6b42aa	0.91898596
2	0x3facece6	1.3509796
3	0xbea96be0	-0.33090115
4	0x3f076c90	0.5290003
5	0x3ea6d73e	0.32586092
6	0x3f3c735e	0.73613536
7	0x3f9022d0	1.1260624
8	0x3f4ea350	0.80717945
9	0x3f8bd8d6	1.0925548
10	0x3f89c328	1.0762682
11	0x4001d0f3	2.0283782

hidden2tag.weight f4 [5, 6]
0	0xbf83ffc4	-1.0312428
1	0xbfddf546	-1.7340477
2	0xbf94690e	-1.159456
3	0xc05aaa38	-3.4166393
4	0x3f9c00a6	1.2187698
5	0x4056a3cc	3.3537474
6	0x4055ea88	3.3424397
7	0x408a5585	4.3229394
8	0xc0165b0e	-2.3493075
9	0xbfa07e92	-1.2538626
10	0x3f8f8a5a	1.1214097
11	0x3f88a61b	1.0675691
12	0xbea1d121	-0.31604865
13	0xbed65665	-0.4186279
14	0x40119c9a	2.2751832
15	0xbea3a358	-0.3196056
16	0x3ff5196c	1.9148383
17	0xc0063cb7	-2.0974557
18	0x402a46c5	2.6605694
19	0xbf8eabb6	-1.1146152
20	0x3f666579	0.89998585
21	0x405c05d4	3.4378557
22	0xc0488b09	-3.133486
23	0xbfe1b1bd	-1.7632366
24	0xc04c7899	-3.1948607
25	0x3ff200ad	1.8906456
26	0xbfe485f6	-1.7853382
27	0x400a840c	2.1643095
28	0xc00b7b54	-2.1794024
29	0x3fd58e47	1.6684045

hidden2tag.bias f4 [5]
0	0xbeaffcce	-0.34372562
1	0x3ce9ce50	0.02854076
2	0x3eda258a	0.42606765
3	0xbfae1253	-1.3599342
4	0xbc87d8e2	-0.01658291
