model/test/run_test17.pth (torch, 4228 bytes, 11 tensors)

word_embeddings.weight f4 [10, 3]
00000000: 9a6d 1740 8b23 4ebf e3ca 123f beeb c73e
00000010: 0981 0240 1aed c1bf 895d 3740 229b ea3f
00000020: 0792 f83f 78f3 203f 9642 15c0 7570 0940
00000030: 48e7 8b3f 2a97 c5bf 805b 10c0 b936 e0bf
00000040: b461 c6bf 7acd c63f fa9e d73e 6547 073e
00000050: d4aa 17bf 1372 62bf 976f 7cbf 0190 923f
00000060: 8712 4ebf b144 0040 17d3 243e 7250 953f
00000070: 249b a9be a99a 883e
2.3660645 -0.80522984 0.5734083 0.39047045 2.0391257 -1.5150483 2.865084 1.8328593
1.9419564 0.62871504 -2.332189 2.1474888 1.0929956 -1.5436757 -2.2555847 -1.75167
-1.5498567 1.5531456 0.42113477 0.13210829 -0.5924504 -0.88455313 -0.9860777 1.1450197
-0.8049702 2.0041926 0.1609615 1.1665175 -0.33126175 0.26680496

lstm.weight_ih_l0 f4 [12, 3]
00000000: d2ca aa3f a905 bb3f 1606 09c0 6d29 f5bd
00000010: 71af 19bf a91c 4540 5740 273f dc96 18bf
00000020: 81dd 73bd d633 093f 80de c3bb 6889 b9be
00000030: c632 b5be 06a3 28be 120b 9bbe 1711 90be
00000040: 1b6c 0ebf 2a52 cbbe f225 f33f 08c1 e3bf
00000050: caf8 783e 19bd fcbe 37d3 a83e c69a 3ebf
00000060: 064d c43f 695a 0f3f f132 fc3f 610c 9a3f
00000070: eb09 bf3f d471 0bc0 1950 7dbe 6b8d 5abe
00000080: 0e29 4f40 e774 033f 556c 74bf c623 bcbe
1.3343146 1.4611102 -2.1409965 -0.11970792 -0.6003333 3.0798743 0.6533255 -0.59605193
-0.059537414 0.5359472 -0.005977452 -0.36237645 -0.353903 -0.16468439 -0.30281883 -0.2813804
-0.55633706 -0.39711124 1.8995955 -1.7793283 0.24313655 -0.4936302 0.32973644 -0.74454916
1.5336006 0.5599733 1.9703046 1.2035028 1.4924902 -2.1788225 -0.24737586 -0.21343009
3.2368808 0.51350254 -0.954778 -0.36746043

lstm.weight_hh_l0 f4 [12, 3]
00000000: 08f1 fc3e f02c 93bd 3eb8 a23e 26f7 6bbe
00000010: a445 0ebf e493 a4be e830 0c3e 70b3 393e
00000020: b86b 82bd 238d a5be e0cb e93c b80c 783e
00000030: 040c 053e c0f4 fe3d 101f f93e d96b 06bf
00000040: a893 0cbf e413 093f 0c96 033e 88e8 653e
00000050: 475a 0dbf d894 ebbe 0662 a43e 7054 1f3d
00000060: 323f 23be 2a63 bc3e 64c7 ff3e 38c2 e13e
00000070: 146e d73e 9d4a 99be 881e c73d 5ca6 28be
00000080: f416 333e 3e93 e3be 7294 013f 98de eb3e
0.49402642 -0.071863055 0.3178119 -0.23043498 -0.55575013 -0.32144082 0.13690531 0.18134856
-0.06368202 -0.3233424 0.028539598 0.24223602 0.12992865 0.12449026 0.4865651 -0.5250831
-0.54912806 0.53545976 0.12850207 0.22451985 -0.5521588 -0.46011996 0.32106036 0.038898885
-0.15942076 0.36794406 0.4995681 0.4409349 0.4207617 -0.29939738 0.0972262 -0.16469711
0.17489225 -0.44448274 0.50617135 0.46068263

lstm.bias_ih_l0 f4 [12]
00000000: 81c6 743f 002e 273f d046 0340 2026 07bf
00000010: 2e63 c1be 90cd 1cbd c51f 1f3e 3cff a3bf
00000020: 790f f3be 6bbc a73f 7cb0 ee3e a692 f23f
0.9561539 0.65304565 2.051197 -0.5279255 -0.3777098 -0.038281977 0.15539463 -1.2812266
-0.47472742 1.3104376 0.46619022 1.8951004

lstm.bias_hh_l0 f4 [12]
00000000: a70a a73f 1787 d53e d6af 2240 30af f03e
00000010: 20fd 9c3d e49d 103f 16ec 303d 3a44 c7bf
00000020: 039c 83bf 3bc1 d03f 4a6a 1e3f 3c9e 2240
1.3050126 0.41704628 2.5419822 0.47008657 0.07665467 0.5649092 0.0431939 -1.5567696
-1.0281986 1.6308969 0.61880934 2.5409079

lstm.weight_ih_l0_reverse f4 [12, 3]
00000000: 8128 1f3e d5b0 1f40 5d44 183f 0d4d 993f
00000010: 1e41 c4bf 37ef 2b40 c031 22bf d49e 463f
00000020: 2488 e13f f08a dabe b0be b13e e463 223e
00000030: 0e63 d23e b095 5e3e 6435 033e 00a4 873a
00000040: e36e fcbe 7a27 02be 91f5 ce3f 89a8 d83f
00000050: 15ba a4bf 3b9c e3bf e006 f1bf de50 7c3e
00000060: 8a86 ecbf e885 49bf f142 e9bf c366 0640
00000070: 4089 c43f 2e6a 27bf 9892 ab3f f631 eabf
00000080: 3fcf dc3f 0ec3 5abe 08da abbe c9de bb3f
0.15542795 2.495168 0.59479314 1.1976639 -1.5332372 2.6864755 -0.6335716 0.775861
1.7619672 -0.42684126 0.34715796 0.15858418 0.41091198 0.21736789 0.12813336 0.0010348558
-0.4930335 -0.12710372 1.6168691 1.6926433 -1.2869288 -1.7782053 -1.8830223 0.24640223
-1.8478558 -0.7871995 -1.8223554 2.100022 1.5354385 -0.6539639 1.3404112 -1.8296497
1.7250746 -0.2136347 -0.33564782 1.4677364

lstm.weight_hh_l0_reverse f4 [12, 3]
00000000: 848f f2be e6dc a33e 7a9a ac3e d815 e2bd
00000010: 9c74 e23e f486 65be 8d0e efbe 007c e73d
00000020: 0064 46ba a6f7 00be 387d d83d 9808 df3d
00000030: 8807 f63d a88f 573e 6a59 43be d415 983e
00000040: 0a51 11be 58e8 b7be 7a08 083f 5040 573d
00000050: cb86 a4be ae48 55be 486f 843e f02a ba3e
00000060: 1007 053e ccbd b5be 5262 123f b265 0ebe
00000070: 752d febe f430 123f 30d2 103e 8068 9c3e
00000080: 984b d23e 00cb 693e 521d c13e c860 d53d
-0.4737512 0.3200447 0.33711606 -0.110393226 0.4422959 -0.22414762 -0.4669079 0.11302948
-0.0007568002 -0.1259447 0.105707586 0.10890311 0.12013155 0.21050894 -0.19077078 0.29704154
-0.1419107 -0.35919452 0.53137934 0.052551568 -0.3213409 -0.20828506 0.2586615 0.36360884
0.12990975 -0.35496366 0.57181275 -0.13905981 -0.49644056 0.57105947 0.1414268 0.30548477
0.41073298 0.22831345 0.37717682 0.1041885

lstm.bias_ih_l0_reverse f4 [12]
00000000: bad6 2f3f 09b5 d53f 3e2e e53f 408a c83c
00000010: 5893 12be 64ae 0ebf 60cd 073f f792 c13e
00000020: 0e50 ba3e 0ff6 363f d357 0440 5e5c f23f
0.6868702 1.6695873 1.7904737 0.024479985 -0.1431402 -0.5573485 0.5304775 0.37807438
0.36389202 0.71469206 2.0678604 1.8934438

lstm.bias_hh_l0_reverse f4 [12]
00000000: e84a ac3e 2cbb 533f ee5c b03f e06b a9be
00000010: 906c 073f 3ed7 a63e e8b6 403f 5f8e 8e3f
00000020: 46ac 563f 97e0 853f 4781 853f d687 0440
0.336509 0.82707477 1.377836 -0.33090115 0.5290003 0.32586092 0.7527909 1.1137198
0.8385662 1.0459164 1.0430077 2.0707908

hidden2tag.weight f4 [5, 6]
00000000: 59f2 4bbf 0d22 8abf e46f a5bf fd0c 36c0
00000010: f01d 8e3f c3fd 3c40 6ad0 3940 c48b 5a40
00000020: c4a0 07c0 d868 95bf 9c96 7c3f 0263 ca3f
00000030: 80ec 223d f0fe 8cbe 892c 0840 afc1 11be
00000040: 867f e53f 61da e6bf 26ea 1640 582a 99bf
00000050: 2ff1 643f 998b 4540 d574 3bc0 3ceb e3bf
00000060: 2e9e 39c0 aa79 c83f 565d d3bf f25c c73f
00000070: b2f4 00c0 6755 c63f
-0.7966667 -1.0791641 -1.2924771 -2.8445427 1.1102886 2.9529884 2.9033456 3.4147806
-2.1191874 -1.1672621 0.9866731 1.5811465 0.039776325 -0.27538252 2.1277182 -0.1423404
1.7929542 -1.8035394 2.3580413 -1.1966047 0.89430517 3.0866454 -2.9290059 -1.7806163
-2.9002795 1.5662129 -1.6512859 1.557524 -2.014935 1.5494813

hidden2tag.bias f4 [5]
00000000: b0f3 7abe 0333 9dbd 2fcc e03e eebd a1bf
00000010: fad0 b3bd
-0.24507022 -0.07675745 0.4390578 -1.2636087 -0.087800935
