model/test/run_test7.pth (torch, 4228 bytes, 11 tensors)

word_embeddings.weight f4 [10, 3]
00000000: 9a6d 1740 8b23 4ebf e3ca 123f fe4a 923e
00000010: acd3 953f 028d ccbf 1f82 1d40 70f8 9c3f
00000020: 5d60 e13f 813b 923e 81a7 febf 7250 cc3f
00000030: 606f 643f 0d60 b3bf a62c d7bf f754 f1bf
00000040: bdb0 b1bf 58b3 783f fa9e d73e 6547 073e
00000050: d4aa 17bf 1372 62bf 976f 7cbf 0190 923f
00000060: 8712 4ebf b144 0040 17d3 243e 7250 953f
00000070: 249b a9be a99a 883e
2.3660645 -0.80522984 0.5734083 0.2857284 1.1705222 -1.5980532 2.461067 1.2263317
1.7607533 0.28561023 -1.9894868 1.596205 0.89232445 -1.4013687 -1.6810501 -1.8854054
-1.3882061 0.97148657 0.42113477 0.13210829 -0.5924504 -0.88455313 -0.9860777 1.1450197
-0.8049702 2.0041926 0.1609615 1.1665175 -0.33126175 0.26680496

lstm.weight_ih_l0 f4 [12, 3]
00000000: 0ad8 3e3f 1b81 7d3f b981 e1bf 4848 583f
00000010: 706a d33e b9d5 f83f 3ae2 1b3f 498f d1be
00000020: fa53 763e d633 093f 80de c3bb 6889 b9be
00000030: c632 b5be 06a3 28be 120b 9bbe 1711 90be
00000040: 1b6c 0ebf 2a52 cbbe c18a ca3f 8ac6 abbf
00000050: b385 333e 4345 01bf f829 1abe 214a 00bf
00000060: 0a71 643f c594 003e 1aca ee3f 716c 233f
00000070: ed1b ab3f 7a7f d3bf 9d43 273f 9fd9 403f
00000080: 3c6c 0540 a075 4f3f 1de9 0bbf 36a7 82bd
0.745484 0.99025124 -1.7617713 0.8448529 0.41292143 1.9440223 0.6089207 -0.4092963
0.24055472 0.5359472 -0.005977452 -0.36237645 -0.353903 -0.16468439 -0.30281883 -0.2813804
-0.55633706 -0.39711124 1.5823594 -1.3419964 0.17531471 -0.5049631 -0.15055072 -0.5011311
0.89234984 0.12556751 1.8655427 0.63837343 1.3367897 -1.6523278 0.65337545 0.75332063
2.084731 0.81038857 -0.5465258 -0.06379549

lstm.weight_hh_l0 f4 [12, 3]
00000000: 08f1 fc3e f02c 93bd 3eb8 a23e 26f7 6bbe
00000010: a445 0ebf e493 a4be e830 0c3e 70b3 393e
00000020: b86b 82bd 238d a5be e0cb e93c b80c 783e
00000030: 040c 053e c0f4 fe3d 101f f93e d96b 06bf
00000040: a893 0cbf e413 093f 0c96 033e 88e8 653e
00000050: 475a 0dbf d894 ebbe 0662 a43e 7054 1f3d
00000060: 323f 23be 2a63 bc3e 64c7 ff3e 38c2 e13e
00000070: 146e d73e 9d4a 99be 881e c73d 5ca6 28be
00000080: f416 333e 3e93 e3be 7294 013f 98de eb3e
0.49402642 -0.071863055 0.3178119 -0.23043498 -0.55575013 -0.32144082 0.13690531 0.18134856
-0.06368202 -0.3233424 0.028539598 0.24223602 0.12992865 0.12449026 0.4865651 -0.5250831
-0.54912806 0.53545976 0.12850207 0.22451985 -0.5521588 -0.46011996 0.32106036 0.038898885
-0.15942076 0.36794406 0.4995681 0.4409349 0.4207617 -0.29939738 0.0972262 -0.16469711
0.17489225 -0.44448274 0.50617135 0.46068263

lstm.bias_ih_l0 f4 [12]
00000000: f921 153f 2c57 d9bb 6646 c53f 2026 07bf
00000010: 2e63 c1be 90cd 1cbd 9a07 6a3d ec96 7dbf
00000020: 3315 07be f386 553f 705b 8ebe 2f37 ac3f
0.58254963 -0.006632706 1.5412109 -0.5279255 -0.3777098 -0.038281977 0.057136156 -0.99058414
-0.1319168 0.8340904 -0.27804136 1.3454341

lstm.bias_hh_l0 f4 [12]
00000000: ca70 6e3f 8374 78be 3a0c 0240 30af f03e
00000010: 20fd 9c3d e49d 103f 668b 61bd 7410 a2bf
00000020: 9675 2fbf 49c8 933f b26e 00be fee0 fe3f
0.9314085 -0.24263196 2.0319963 0.47008657 0.07665467 0.5649092 -0.05506458 -1.2661271
-0.68538797 1.1545497 -0.12542227 1.9912412

lstm.weight_ih_l0_reverse f4 [12, 3]
00000000: 0236 0c3e 1533 ec3f 2f50 8b3f 5e2f 833f
00000010: f6a2 c9bf d9a0 0740 68b4 6f3e b1db 233f
00000020: 91c5 643f f08a dabe b0be b13e e463 223e
00000030: 0e63 d23e b095 5e3e 6435 033e 00a4 873a
00000040: e36e fcbe 7a27 02be a69b a83f f2c9 773f
00000050: 3341 1abf b62b bebf 077e ccbf 6d6e f83c
00000060: 511f acbf 973c 07bf 34ff bbbf b585 f23f
00000070: 9b1b 973f 086d 01bf 33ce b83f 0683 b2bf
00000080: e962 993f a52b 023f 014c 713e 90a1 443f
0.13692477 1.8453089 1.0883845 1.024883 -1.5752857 2.1191924 0.23408663 0.640071
0.8936396 -0.42684126 0.34715796 0.15858418 0.41091198 0.21736789 0.12813336 0.0010348558
-0.4930335 -0.12710372 1.31725 0.9679252 -0.60255736 -1.485709 -1.597596 0.030326093
-1.3447057 -0.5282683 -1.4687257 1.8947054 1.18053 -0.50556993 1.4437927 -1.3946235
1.198331 0.50847846 0.2356415 0.76809025

lstm.weight_hh_l0_reverse f4 [12, 3]
00000000: 848f f2be e6dc a33e 7a9a ac3e d815 e2bd
00000010: 9c74 e23e f486 65be 8d0e efbe 007c e73d
00000020: 0064 46ba a6f7 00be 387d d83d 9808 df3d
00000030: 8807 f63d a88f 573e 6a59 43be d415 983e
00000040: 0a51 11be 58e8 b7be 7a08 083f 5040 573d
00000050: cb86 a4be ae48 55be 486f 843e f02a ba3e
00000060: 1007 053e ccbd b5be 5262 123f b265 0ebe
00000070: 752d febe f430 123f 30d2 103e 8068 9c3e
00000080: 984b d23e 00cb 693e 521d c13e c860 d53d
-0.4737512 0.3200447 0.33711606 -0.110393226 0.4422959 -0.22414762 -0.4669079 0.11302948
-0.0007568002 -0.1259447 0.105707586 0.10890311 0.12013155 0.21050894 -0.19077078 0.29704154
-0.1419107 -0.35919452 0.53137934 0.052551568 -0.3213409 -0.20828506 0.2586615 0.36360884
0.12990975 -0.35496366 0.57181275 -0.13905981 -0.49644056 0.57105947 0.1414268 0.30548477
0.41073298 0.22831345 0.37717682 0.1041885

lstm.bias_ih_l0_reverse f4 [12]
00000000: f8f0 b03e c90c bb3f f2f9 af3f 408a c83c
00000010: 5893 12be 64ae 0ebf 9677 503f 5158 833e
00000020: 6f09 e73d 58ef fa3e 5208 d23f c4bc 9e3f
0.34558845 1.4613277 1.3748152 0.024479985 -0.1431402 -0.5573485 0.81432474 0.25653318
0.11281096 0.4901073 1.6408789 1.2401357

lstm.bias_hh_l0_reverse f4 [12]
00000000: 0466 9cbb af6a 1e3f 4451 763f e06b a9be
00000010: 906c 073f 3ed7 a63e 90b0 843f 68ff 7d3f
00000020: 7065 163f ca42 523f e3b3 1d3f 1270 b53f
-0.0047729034 0.61881536 0.9621775 -0.33090115 0.5290003 0.32586092 1.0366383 0.99217844
0.5874853 0.8213316 0.6160261 1.4174826

hidden2tag.weight f4 [5, 6]
00000000: 4b7c a93e 63b9 a93e 62a8 8cbf 2e07 d6bf
00000010: 06f5 ac3e 13d5 e53f bd3f c43f 784a c93f
00000020: fff8 8fbf 2811 72bf c321 8c3e 45cc 883f
00000030: 57cd 2d3f 914d 8ebe df5c bc3f 7c00 923e
00000040: 3c8a a43f c37e 55bf 20af ae3f 25ea 60bf
00000050: 1afe 5c3f 2a27 e33f fcb1 01c0 e9c6 b3bf
00000060: 443c ffbf 4ee6 0b3f 528a bebf 7da4 1a3f
00000070: 6b06 71bf 5a62 d83f
0.3310264 0.3314925 -1.0988886 -1.6720941 0.33780688 1.795565 1.5331951 1.5725851
-1.1247863 -0.9455743 0.27369508 1.0687338 0.6789145 -0.27793553 1.4715842 0.28515995
1.2854686 -0.8339655 1.3647194 -0.87857276 0.8632523 1.7746327 -2.0264883 -1.4045078
-1.9940267 0.5464829 -1.4885962 0.6040724 -0.9415042 1.6905015

hidden2tag.bias f4 [5]
00000000: 5c90 c9be e2b9 b7be 5b35 de3e 9cb1 45bf
00000010: 39f5 ae3d
-0.3936795 -0.35884005 0.43400082 -0.77224135 0.08542866
