model/test/run_test47.pth (torch, 4228 bytes, 11 tensors)

word_embeddings.weight f4 [10, 3]
000000 9a 6d 17 40 8b 23 4e bf e3 ca 12 3f be d4 e5 3e
       2.3660645 -0.80522984 0.5734083 0.44888872
000010 90 5d 07 40 89 d6 c8 bf 33 60 3a 40 59 65 f8 3f
       2.1150856 -1.5690471 2.9121215 1.9405929
000020 34 09 f9 3f 15 aa 7e 3f 08 02 14 c0 69 d2 15 40
       1.9455934 0.99478275 -2.312624 2.3409674
000030 aa 22 98 3f 06 c0 c8 bf c5 39 11 c0 ff 63 e4 bf
       1.1885579 -1.5683601 -2.269151 -1.7843016
000040 67 be c8 bf 96 cd cd 3f fa 9e d7 3e 65 47 07 3e
       -1.5683106 1.6078365 0.42113477 0.13210829
000050 d4 aa 17 bf 13 72 62 bf 97 6f 7c bf 01 90 92 3f
       -0.5924504 -0.88455313 -0.9860777 1.1450197
000060 87 12 4e bf b1 44 00 40 17 d3 24 3e 72 50 95 3f
       -0.8049702 2.0041926 0.1609615 1.1665175
000070 24 9b a9 be a9 9a 88 3e
       -0.33126175 0.26680496

lstm.weight_ih_l0 f4 [12, 3]
000000 a3 a6 b3 3f f6 a9 bf 3f c8 b6 0a c0 0f 6a 57 be
       1.4035228 1.4973743 -2.167406 -0.21036552
000010 5b a3 32 bf cf 0d 4d 40 ea b7 2b 3f ec 9e 11 bf
       -0.6978051 3.2039678 0.67077506 -0.5688312
000020 26 eb f5 bd d6 33 09 3f 80 de c3 bb 68 89 b9 be
       -0.12007742 0.5359472 -0.005977452 -0.36237645
000030 c6 32 b5 be 06 a3 28 be 12 0b 9b be 17 11 90 be
       -0.353903 -0.16468439 -0.30281883 -0.2813804
000040 1b 6c 0e bf 2a 52 cb be 81 e5 f7 3f 65 95 e8 bf
       -0.55633706 -0.39711124 1.9366914 -1.8170592
000050 2c 17 8e 3e 43 57 f3 be 75 a6 de 3e ec 7c 48 bf
       0.27752054 -0.47527513 0.43486372 -0.78315616
000060 af 68 cb 3f f0 2f 10 3f 8a ac ff 3f 43 52 a3 3f
       1.5891322 0.56323147 1.997453 1.2759479
000070 19 1c c2 3f 6f 79 0d c0 d8 5a b4 be 8d de a6 be
       1.5164825 -2.2105367 -0.35225558 -0.32591668
000080 6a 90 57 40 7c d5 c7 3e b4 3d 7e bf bc f1 06 bf
       3.3681893 0.39030063 -0.993129 -0.5271261

lstm.weight_hh_l0 f4 [12, 3]
000000 08 f1 fc 3e f0 2c 93 bd 3e b8 a2 3e 26 f7 6b be
       0.49402642 -0.071863055 0.3178119 -0.23043498
000010 a4 45 0e bf e4 93 a4 be e8 30 0c 3e 70 b3 39 3e
       -0.55575013 -0.32144082 0.13690531 0.18134856
000020 b8 6b 82 bd 23 8d a5 be e0 cb e9 3c b8 0c 78 3e
       -0.06368202 -0.3233424 0.028539598 0.24223602
000030 04 0c 05 3e c0 f4 fe 3d 10 1f f9 3e d9 6b 06 bf
       0.12992865 0.12449026 0.4865651 -0.5250831
000040 a8 93 0c bf e4 13 09 3f 0c 96 03 3e 88 e8 65 3e
       -0.54912806 0.53545976 0.12850207 0.22451985
000050 47 5a 0d bf d8 94 eb be 06 62 a4 3e 70 54 1f 3d
       -0.5521588 -0.46011996 0.32106036 0.038898885
000060 32 3f 23 be 2a 63 bc 3e 64 c7 ff 3e 38 c2 e1 3e
       -0.15942076 0.36794406 0.4995681 0.4409349
000070 14 6e d7 3e 9d 4a 99 be 88 1e c7 3d 5c a6 28 be
       0.4207617 -0.29939738 0.0972262 -0.16469711
000080 f4 16 33 3e 3e 93 e3 be 72 94 01 3f 98 de eb 3e
       0.17489225 -0.44448274 0.50617135 0.46068263

lstm.bias_ih_l0 f4 [12]
000000 f7 ae 80 3f 31 57 39 3f 87 5e 06 40 20 26 07 bf
       1.0053395 0.7239867 2.0995195 -0.5279255
000010 2e 63 c1 be 90 cd 1c bd c5 d6 21 3e 07 73 a9 bf
       -0.3777098 -0.038281977 0.15804584 -1.3238229
000020 a8 85 fd be 18 08 af 3f ac 19 0d 3f 48 78 f7 3f
       -0.49516034 1.3674345 0.551173 1.9333582

lstm.bias_hh_l0 f4 [12]
000000 5e 56 ad 3f 81 d9 f9 3e 8d c7 25 40 30 af f0 3e
       1.3541982 0.48798755 2.5903046 0.47008657
000010 20 fd 9c 3d e4 9d 10 3f 29 c8 3b 3d 05 b8 cc bf
       0.07665467 0.5649092 0.045845184 -1.5993658
000020 91 39 86 bf e8 0c d8 3f b9 2b 34 3f 0e 11 25 40
       -1.0486318 1.6878939 0.70379215 2.579166

lstm.weight_ih_l0_reverse f4 [12, 3]
000000 d7 0b 87 3e f3 aa 1c 40 07 31 eb 3e c8 b3 b0 3f
       0.2637622 2.447934 0.45935842 1.3804865
000010 c1 63 e3 bf e9 9b 1b 40 48 6c 40 bf 19 ce 46 3f
       -1.7764817 2.431391 -0.75165224 0.7765823
000020 a7 fb 00 40 f0 8a da be b0 be b1 3e e4 63 22 3e
       2.0153596 -0.42684126 0.34715796 0.15858418
000030 0e 63 d2 3e b0 95 5e 3e 64 35 03 3e 00 a4 87 3a
       0.41091198 0.21736789 0.12813336 0.0010348558
000040 e3 6e fc be 7a 27 02 be 74 61 d1 3f 3a 34 de 3f
       -0.4930335 -0.12710372 1.6357865 1.7359688
000050 ef 90 aa bf 13 6a e4 bf 29 9f f4 bf 0b c0 68 3e
       -1.332548 -1.7844871 -1.9111072 0.22729509
000060 4b 40 02 c0 bd 47 4e bf 06 82 ec bf d0 66 08 40
       -2.0351741 -0.80578214 -1.847718 2.1312752
000070 6c c5 be 3f ec 4a 0f bf 85 36 ad 3f 66 6d ed bf
       1.4903998 -0.55973697 1.3532263 -1.8549011
000080 42 c2 df 3f 2f 38 9b be 42 38 0d bf b5 19 dc 3f
       1.7481158 -0.30316302 -0.5516397 1.7195345

lstm.weight_hh_l0_reverse f4 [12, 3]
000000 84 8f f2 be e6 dc a3 3e 7a 9a ac 3e d8 15 e2 bd
       -0.4737512 0.3200447 0.33711606 -0.110393226
000010 9c 74 e2 3e f4 86 65 be 8d 0e ef be 00 7c e7 3d
       0.4422959 -0.22414762 -0.4669079 0.11302948
000020 00 64 46 ba a6 f7 00 be 38 7d d8 3d 98 08 df 3d
       -0.0007568002 -0.1259447 0.105707586 0.10890311
000030 88 07 f6 3d a8 8f 57 3e 6a 59 43 be d4 15 98 3e
       0.12013155 0.21050894 -0.19077078 0.29704154
000040 0a 51 11 be 58 e8 b7 be 7a 08 08 3f 50 40 57 3d
       -0.1419107 -0.35919452 0.53137934 0.052551568
000050 cb 86 a4 be ae 48 55 be 48 6f 84 3e f0 2a ba 3e
       -0.3213409 -0.20828506 0.2586615 0.36360884
000060 10 07 05 3e cc bd b5 be 52 62 12 3f b2 65 0e be
       0.12990975 -0.35496366 0.57181275 -0.13905981
000070 75 2d fe be f4 30 12 3f 30 d2 10 3e 80 68 9c 3e
       -0.49644056 0.57105947 0.1414268 0.30548477
000080 98 4b d2 3e 00 cb 69 3e 52 1d c1 3e c8 60 d5 3d
       0.41073298 0.22831345 0.37717682 0.1041885

lstm.bias_ih_l0_reverse f4 [12]
000000 35 f4 4d 3f dc dd e6 3f a4 de e0 3f 40 8a c8 3c
       0.80450755 1.8036456 1.7567945 0.024479985
000010 58 93 12 be 64 ae 0e bf f4 92 03 3f e7 90 ca 3e
       -0.1431402 -0.5573485 0.5139611 0.39563677
000020 40 70 ad 3e 20 b8 49 3f 87 d3 06 40 db 88 ed 3f
       0.33874702 0.7879658 2.1066606 1.855739

lstm.bias_hh_l0_reverse f4 [12]
000000 de 85 e8 3e cf 0c 76 3f 54 0d ac 3f e0 6b a9 be
       0.45414633 0.96113294 1.3441567 -0.33090115
000010 90 6c 07 3f 3e d7 a6 3e 7c 7c 3c 3f d7 cd 90 3f
       0.5290003 0.32586092 0.7362745 1.1312817
000020 61 3c 50 3f 9b 41 8f 3f ad 78 8a 3f 14 1e 02 40
       0.8134213 1.1191896 1.0818077 2.0330858

hidden2tag.weight f4 [5, 6]
000000 e5 5e 93 bf c1 5b fe bf 84 bd 91 bf 1f 90 69 c0
       -1.1513335 -1.9871751 -1.138596 -3.6494215
000010 91 ac 98 3f 30 03 69 40 6a b0 63 40 57 a9 96 40
       1.1927663 3.6408195 3.5576425 4.7081714
000020 89 39 1e c0 73 19 a5 bf 61 e3 9d 3f 0b 3c 46 3f
       -2.4722617 -1.2898391 1.2335016 0.7743537
000030 c5 69 10 bf f1 0e 08 bf 11 ef 16 40 1d b6 e7 be
       -0.5641139 -0.531478 2.3583415 -0.4525613
000040 dd c4 fe 3f 6f 1d 11 c0 e9 a3 38 40 1f 1d 8b bf
       1.9903828 -2.2674215 2.8850043 -1.0868262
000050 e1 ff 6b 3f 14 5e 6a 40 bf f2 4f c0 72 3c e1 bf
       0.92187315 3.661992 -3.249191 -1.7596571
000060 8e f7 54 c0 56 bd 04 40 5a 74 ec bf da e3 1d 40
       -3.3276095 2.0740561 -1.8473008 2.467032
000070 4b ba 0f c0 aa 61 d6 3f
       -2.2457454 1.6748555

hidden2tag.bias f4 [5]
000000 9a 6d d2 be 19 15 c1 3d fb e9 d4 3e df d4 b2 bf
       -0.41099244 0.09427852 0.41584763 -1.3971213
000010 6f 03 c5 3c
       0.024049489
