model/test/run_test10.pth (torch, 4228 bytes, 11 tensors)

word_embeddings.weight f4 [10, 3]
2.3660645 -0.80522984 0.5734083 0.35994133 1.640514 -1.5394914 2.6969302 1.5618863
1.88219 0.3397339 -2.2103333 1.8581004 0.98473 -1.5005662 -1.9480944 -1.6822073
-1.4648765 1.3265072 0.42113477 0.13210829 -0.5924504 -0.88455313 -0.9860777 1.1450197
-0.8049702 2.0041926 0.1609615 1.1665175 -0.33126175 0.26680496
00000000: 9a6d 1740 8b23 4ebf e3ca 123f 3b4a b83e
00000010: 5dfc d13f 0e0e c5bf 819a 2c40 e4eb c73f
00000020: 9aeb f03f 9af1 ad3e 1a76 0dc0 3cd6 ed3f
00000030: 4417 7c3f 8e12 c0bf 285b f9bf 9252 d7bf
00000040: 1381 bbbf fdca a93f fa9e d73e 6547 073e
00000050: d4aa 17bf 1372 62bf 976f 7cbf 0190 923f
00000060: 8712 4ebf b144 0040 17d3 243e 7250 953f
00000070: 249b a9be a99a 883e

lstm.weight_ih_l0 f4 [12, 3]
1.0771253 1.2830747 -1.9836278 0.42890313 -0.026444308 2.4702606 0.646295 -0.50205386
0.060867682 0.5359472 -0.005977452 -0.36237645 -0.353903 -0.16468439 -0.30281883 -0.2813804
-0.55633706 -0.39711124 1.7760975 -1.5812929 0.19036819 -0.5264936 0.023765016 -0.6153605
1.1523285 0.32269248 1.9850279 0.9537734 1.4549984 -1.9563626 0.33755457 0.4039437
2.5780222 0.65447646 -0.77282864 -0.24112876
00000000: 3edf 893f cb3b a43f 84e7 fdbf 3199 db3e
00000010: bca1 d8bc c018 1e40 9773 253f 9a86 00bf
00000020: 6450 793d d633 093f 80de c3bb 6889 b9be
00000030: c632 b5be 06a3 28be 120b 9bbe 1711 90be
00000040: 1b6c 0ebf 2a52 cbbe 2a57 e33f ce67 cabf
00000050: e1ef 423e 49c8 06bf daae c23c 4488 1dbf
00000060: 807f 933f f337 a53e 6515 fe3f 7e2a 743f
00000070: 633d ba3f 176a fabf f4d3 ac3e b5d1 ce3e
00000080: 51fe 2440 c58b 273f 19d8 45bf 75ea 76be

lstm.weight_hh_l0 f4 [12, 3]
0.49402642 -0.071863055 0.3178119 -0.23043498 -0.55575013 -0.32144082 0.13690531 0.18134856
-0.06368202 -0.3233424 0.028539598 0.24223602 0.12992865 0.12449026 0.4865651 -0.5250831
-0.54912806 0.53545976 0.12850207 0.22451985 -0.5521588 -0.46011996 0.32106036 0.038898885
-0.15942076 0.36794406 0.4995681 0.4409349 0.4207617 -0.29939738 0.0972262 -0.16469711
0.17489225 -0.44448274 0.50617135 0.46068263
00000000: 08f1 fc3e f02c 93bd 3eb8 a23e 26f7 6bbe
00000010: a445 0ebf e493 a4be e830 0c3e 70b3 393e
00000020: b86b 82bd 238d a5be e0cb e93c b80c 783e
00000030: 040c 053e c0f4 fe3d 101f f93e d96b 06bf
00000040: a893 0cbf e413 093f 0c96 033e 88e8 653e
00000050: 475a 0dbf d894 ebbe 0662 a43e 7054 1f3d
00000060: 323f 23be 2a63 bc3e 64c7 ff3e 38c2 e13e
00000070: 146e d73e 9d4a 99be 881e c73d 5ca6 28be
00000080: f416 333e 3e93 e3be 7294 013f 98de eb3e

lstm.bias_ih_l0 f4 [12]
0.7849497 0.2758317 1.8398716 -0.5279255 -0.3777098 -0.038281977 0.12952793 -1.1264331
-0.30074498 1.0948626 0.013640318 1.6679589
00000000: 77f2 483f d039 8d3e ea80 eb3f 2026 07bf
00000010: 2e63 c1be 90cd 1cbd f8a2 043e f62e 90bf
00000020: 3ffb 99be 7524 8c3f a47b 5f3c ad7f d53f

lstm.bias_hh_l0 f4 [12]
1.1338084 0.039832454 2.330657 0.47008657 0.07665467 0.5649092 0.017327212 -1.4019761
-0.8542161 1.415322 0.16625941 2.3137665
00000000: a220 913f 5b27 233d 7c29 1540 30af f03e
00000010: 20fd 9c3d e49d 103f ccf1 8d3c f473 b3bf
00000020: e8ad 5abf 4529 b53f e83f 2a3e c014 1440

lstm.weight_ih_l0_reverse f4 [12, 3]
0.113774136 2.2296588 0.8605124 1.1482289 -1.604292 2.4404283 -0.13865301 0.4982517
1.0719056 -0.42684126 0.34715796 0.15858418 0.41091198 0.21736789 0.12813336 0.0010348558
-0.4930335 -0.12710372 1.4983826 1.4052097 -1.0116963 -1.6616144 -1.7713786 0.15744397
-1.5270392 -0.6409348 -1.7077221 2.0205812 1.4175752 -0.61813724 1.3925486 -1.6581596
1.5110596 0.14384586 -0.058472563 0.9503891
00000000: 6a02 e93d bbb2 0e40 8a4a 5c3f 2af9 923f
00000010: 7159 cdbf fa2f 1c40 0efb 0dbe d91a ff3e
00000020: 3434 893f f08a dabe b0be b13e e463 223e
00000030: 0e63 d23e b095 5e3e 6435 033e 00a4 873a
00000040: e36e fcbe 7a27 02be 00cb bf3f e9dd b33f
00000050: 447f 81bf c8af d4bf 89bc e2bf fe38 213e
00000060: 0576 c3bf 4e14 24bf a396 dabf 3451 0140
00000070: 1b73 b53f 3e3e 1ebf 083f b23f 933e d4bf
00000080: 676a c13f 544c 133e ed80 6fbd b34c 733f

lstm.weight_hh_l0_reverse f4 [12, 3]
-0.4737512 0.3200447 0.33711606 -0.110393226 0.4422959 -0.22414762 -0.4669079 0.11302948
-0.0007568002 -0.1259447 0.105707586 0.10890311 0.12013155 0.21050894 -0.19077078 0.29704154
-0.1419107 -0.35919452 0.53137934 0.052551568 -0.3213409 -0.20828506 0.2586615 0.36360884
0.12990975 -0.35496366 0.57181275 -0.13905981 -0.49644056 0.57105947 0.1414268 0.30548477
0.41073298 0.22831345 0.37717682 0.1041885
00000000: 848f f2be e6dc a33e 7a9a ac3e d815 e2bd
00000010: 9c74 e23e f486 65be 8d0e efbe 007c e73d
00000020: 0064 46ba a6f7 00be 387d d83d 9808 df3d
00000030: 8807 f63d a88f 573e 6a59 43be d415 983e
00000040: 0a51 11be 58e8 b7be 7a08 083f 5040 573d
00000050: cb86 a4be ae48 55be 486f 843e f02a ba3e
00000060: 1007 053e ccbd b5be 5262 123f b265 0ebe
00000070: 752d febe f430 123f 30d2 103e 8068 9c3e
00000080: 984b d23e 00cb 693e 521d c13e c860 d53d

lstm.bias_ih_l0_reverse f4 [12]
0.49504027 1.5926634 1.7601393 0.024479985 -0.1431402 -0.5573485 0.6427543 0.3313901
0.26856506 0.59485847 1.8924139 1.6951948
00000000: eb75 fd3e 65dc cb3f 3f4c e13f 408a c83c
00000010: 5893 12be 64ae 0ebf 8c8b 243f f7ab a93e
00000020: 5c81 893e a548 183f 9e3a f23f 25fc d83f

lstm.bias_hh_l0_reverse f4 [12]
0.14467897 0.750151 1.3475016 -0.33090115 0.5290003 0.32586092 0.8650677 1.0670353
0.7432394 0.9260828 0.86756104 1.8725418
00000000: b926 143e e509 403f ef7a ac3f e06b a9be
00000010: 906c 073f 3ed7 a63e 1475 5d3f 9d94 883f
00000020: f044 3e3f c313 6d3f 7b18 5e3f 73af ef3f

hidden2tag.weight f4 [5, 6]
-0.1393818 -0.02373122 -1.3906677 -2.072833 0.7388495 2.3866534 2.1032395 2.1693614
-1.572361 -1.0410995 0.6031224 1.4188741 0.44366762 -0.2673092 1.8133304 0.099498376
1.5590259 -1.2633163 1.840487 -1.137969 0.8975295 2.419676 -2.4950342 -1.6530197
-2.4047332 0.91911846 -1.5451132 0.87459683 -1.4795432 1.5664903
00000000: 1aba 0ebe fa67 c2bc 6601 b2bf 4ca9 04c0
00000010: 3e25 3d3f eebe 1840 7a9b 0640 d1d6 0a40
00000020: 2043 c9bf c042 85bf 3b66 1a3f ab9d b53f
00000030: 6728 e33e c0dc 88be 361b e83f cec5 cb3d
00000040: 298e c73f 59b4 a1bf 1495 eb3f f8a8 91bf
00000050: 7ec4 653f f9db 1a40 a4ae 1fc0 2696 d3bf
00000060: 26e7 19c0 594b 6b3f 45c6 c5bf 94e5 5f3f
00000070: ac61 bdbf c182 c83f

hidden2tag.bias f4 [5]
-0.24896902 -0.26275006 0.4494658 -1.0388051 -0.037882403
00000000: bcf1 7ebe 2d87 86be 6220 e63e 91f7 84bf
00000010: 942a 1bbd
