model/test/run_test24.pth (torch, 4228 bytes, 11 tensors)

word_embeddings.weight f4 [10, 3]
00000000: 80e7 b23f 5c7b aebf 2695 9b3f 4ce4 3e40
00000010: 8344 703f 93bb 03bf cab6 8ebf 9343 11c0
00000020: dce4 7740 63fb 0f3f c868 5b40 6818 36c0
00000030: e404 d13f 235d 85be be90 bb3f 65f1 3dbf
00000040: 87fb 2b40 4339 cd3f 2ed5 b6bc bc1e f6be
00000050: bd41 a7be a6d5 1b3f 613f 923e 63ef 4abf
00000060: 3ec3 74bf 2d2a 9e3f 8151 21be 69fa 093f
00000070: 65c5 2f40 8c57 183f
1.3976898 -1.3631396 1.2154891 2.9826841 0.9385454 -0.5145809 -1.1149533 -2.2697494
3.8733435 0.5624296 3.4282703 -2.8452396 1.6329618 -0.2604762 1.4653547 -0.74196464
2.687227 1.60331 -0.022318449 -0.48070323 -0.32667342 0.60872877 0.2856398 -0.79271525
-0.95610416 1.2356621 -0.15753748 0.5389772 2.746423 0.59508586

lstm.weight_ih_l0 f4 [12, 3]
00000000: 07da f93f 6c68 0f3f 72fe b83f daa2 5ebf
00000010: adf7 c83e cfb2 3940 1978 9e3e 667c b33f
00000020: 6c6b f5be ece9 083f 1e33 7dbe 2e94 ccbe
00000030: 8cd3 dd3e 164c b4be 5602 c0be 68b6 02be
00000040: 9cef f43e 206a 1abe ccc4 c23f db1d 963d
00000050: 35ce d1bf 8042 03c0 0547 d3bf 62b1 b6be
00000060: 3994 a5bf b5f5 e03e 703c b8bf c4b8 dc3f
00000070: ba7e 5c3f 2f0a ce3f b056 7bbf cf6e a53e
00000080: a061 1c40 0a2a 2ebd cc93 f43f ceea bbbe
1.9519662 0.5601871 1.445265 -0.8696724 0.39251462 2.9015386 0.30951002 1.4022338
-0.4793352 0.53481936 -0.24726531 -0.39956802 0.4332546 -0.352143 -0.37501782 -0.12764895
0.47839057 -0.15079546 1.5216308 0.07329913 -1.6391054 -2.0509338 -1.6506048 -0.35682207
-1.2935859 0.4393746 -1.4393444 1.7243886 0.8613087 1.6096858 -0.9817915 0.32311103
2.4434586 -0.04252056 1.9107604 -0.3670258

lstm.weight_hh_l0 f4 [12, 3]
00000000: fc0d 0cbf 374a a3be 1477 fa3e 087a 99bd
00000010: 8713 9ebe 6cb6 043e e0e0 363e 9e1e 0b3f
00000020: 488a 073f 00be 7a3b 8073 093f 9806 bb3e
00000030: 4c32 2dbe 4626 09bf 5e1b 973e a49e d93e
00000040: fcb7 023f 609b fd3c 50f4 95bd 6c28 b9bd
00000050: e8ef acbe 8ae8 913e 56f5 61be 7889 bc3e
00000060: e8e5 eabe a594 10bf e84e e13e 0057 dabc
00000070: 9693 b1be 7c78 f63e 9812 cd3e 2288 05be
00000080: 181f 4a3e 2b29 f6be ba43 a33e f0b5 3d3d
-0.5470884 -0.3189256 0.48918974 -0.07493979 -0.30874273 0.12960213 0.1785922 0.54343593
0.52945375 0.0038260221 0.53691864 0.36528468 -0.16913718 -0.53574026 0.29513067 0.42503846
0.5106199 0.030957878 -0.073219895 -0.09040913 -0.33776784 0.28497726 -0.22066244 0.3682363
-0.4587853 -0.56476814 0.44005513 -0.026652813 -0.34682912 0.48138797 0.40053248 -0.13040212
0.19738424 -0.48078284 0.3188761 0.046316087

lstm.bias_ih_l0 f4 [12]
00000000: db12 fe3f b90b a63f ae80 453f 0a60 003f
00000010: ca8e a53e d08f afbe 5151 133e 45cf 7dbf
00000020: 3537 e1be 6a08 1540 45a0 a73f 93e6 1c3f
1.9849504 1.2972327 0.77149475 0.50146544 0.32335502 -0.34289408 0.14386488 -0.99144393
-0.43987432 2.3286386 1.3095785 0.6128933

lstm.bias_hh_l0 f4 [12]
00000000: a6ee 1340 34be be3e c403 4e3f d467 62be
00000010: 4217 ccbe e55f a7be 06bd a7be 2012 fcbd
00000020: 76a4 66bf 8409 1e40 d9c7 673f e241 b63f
2.311441 0.37254488 0.80474496 -0.2210992 -0.39861494 -0.3269035 -0.327614 -0.123081446
-0.900947 2.4693308 0.9053932 1.4238856

lstm.weight_ih_l0_reverse f4 [12, 3]
00000000: d41e f93f 7221 a03f efc1 a33e 7939 cd3e
00000010: 39bd 10c0 5136 823f 35aa c83f 3566 f03f
00000020: 5e7a adbe 52a0 64be 0062 753c 5877 713e
00000030: 9008 243d d0c7 44bd 0c79 e03e 251e c4be
00000040: c8d7 0ebe 20e7 d83e 9019 ae3e 34d9 2f40
00000050: 1283 e9bf 5e61 2c3f cc85 40bf 5b13 ae3f
00000060: 52fe 383f c902 41bf fea6 ff3f fa9b 1140
00000070: b5aa ce3f 1a1e 68bf b85f 163e 5402 0bc0
00000080: 5779 903f b527 3f3f c8d3 c53f bb3c d9be
1.9462533 1.2510207 0.31983897 0.4008291 -2.2615492 1.0172826 1.5676943 1.8781191
-0.3388242 -0.22326782 0.014976978 0.23580682 0.04004723 -0.04804212 0.4384235 -0.38304248
-0.13949502 0.42363834 0.34003878 2.747632 -1.8243124 0.6733607 -0.7520416 1.3599657
0.7226306 -0.75394875 1.9972837 2.275145 1.6145846 -0.9067093 0.14684951 -2.172017
1.128703 0.74669963 1.5455256 -0.42429146

lstm.weight_hh_l0_reverse f4 [12, 3]
00000000: d0df ca3e e953 a0be 64dc dbbd 1cea ef3e
00000010: a043 713e 01e0 a5be b454 603e e860 c03d
00000020: 7821 a33d a00a 423e 9455 e33e 46a1 dfbe
00000030: 7735 c7be a293 ac3e 872d 08bf b097 d7be
00000040: 00a0 edb8 7800 c0be 00b8 c73a a43b ddbd
00000050: 00fa a93a 84eb 8dbe 1025 ab3d 8055 3fbd
00000060: baa7 02be 4077 63bd 74c2 c2bd d22f afbe
00000070: fcaf 9c3e 6cdb f3be f0aa 273e e6b2 cabe
00000080: f093 e8bd 4c0c a6be 21db a1be c8e6 eabd
0.3962388 -0.31314018 -0.107353956 0.468583 0.23560953 -0.32397464 0.21907312 0.093934834
0.07965368 0.18949366 0.44401228 -0.4367773 -0.38907978 0.33706385 -0.5319447 -0.42107916
-0.00011330843 -0.37500358 0.0015237331 -0.10802391 0.0012968183 -0.27718747 0.083566785 -0.0467124
-0.12759295 -0.055533648 -0.09509745 -0.34216172 0.30603015 -0.47628343 0.16373801 -0.39589614
-0.11356342 -0.32431257 -0.31612495 -0.11469799

lstm.bias_ih_l0_reverse f4 [12]
00000000: 4197 bc3f b2fe 20be ee69 893f d802 0d3f
00000010: f4b1 babd 448e b7be 945b ccbe 8860 2c3f
00000020: d87d 0a3f abc0 0b40 0ae6 283e 8db2 be3f
1.4733659 -0.15722159 1.0735452 0.55082464 -0.09115973 -0.35850728 -0.3991362 0.67334795
0.5409827 2.1836345 0.16494003 1.4898239

lstm.bias_hh_l0_reverse f4 [12]
00000000: 4c1c ee3f c155 b93e e2b5 a53f 1cd1 f33e
00000010: 1648 26be 809d fe3b e407 c83e d6a3 4e3f
00000020: 81d5 353f dc6a d53f a512 203f 4330 c63f
1.8602386 0.36198238 1.2946131 0.47620475 -0.16238436 0.0077702403 0.3906852 0.80718744
0.71028906 1.6673236 0.6252845 1.5483478

hidden2tag.weight f4 [5, 6]
00000000: c3dc 1bc0 dd96 2ec0 d1a0 78bf b7bd 693f
00000010: f42a 07c0 2f6d 893f 95de 8fbe 427d 09c0
00000020: 32de 80bf 0cdb 37c0 6bf9 713f 457d af3f
00000030: 2c19 be3f b393 063e c74b 3240 52dd 6a3f
00000040: 3aaf dcbf cdab 11c0 77ce c5bf 6e53 7340
00000050: 638f cebe 1b09 8abf 5aa6 c33f fdd5 10be
00000060: 2a88 0b40 5f0d 603e b188 cbbf 5174 a73f
00000070: d878 72bf 665e b53f
-2.4353492 -2.727958 -0.97120386 0.91305107 -2.1119967 1.0736445 -0.28099504 -2.1482701
-1.0067809 -2.8727446 0.94521207 1.3710104 1.4851432 0.1314228 2.785875 0.9174396
-1.7240975 -2.276111 -1.5453633 3.8019671 -0.4034377 -1.0784029 1.5285141 -0.1414413
2.1801858 0.218801 -1.590109 1.3082372 -0.9471564 1.4169433

hidden2tag.bias f4 [5]
00000000: 0c46 a3be c7ce 11be 2b57 073f 0159 04be
00000010: 48ec 993e
-0.3188938 -0.14239036 0.5286738 -0.12924577 0.3006308
