model/test/run_test5.pth (torch, 4228 bytes, 11 tensors)

word_embeddings.weight f4 [10, 3]
000000 9a 6d 17 40 8b 23 4e bf e3 ca 12 3f 84 cf fc 3c
       2.3660645 -0.80522984 0.5734083 0.03086067
000010 5b ca 3d 3f c8 df cb bf 53 55 0b 40 93 9a 66 3f
       0.74136895 -1.5927668 2.1770828 0.9007961
000020 1b 7b c6 3f bb 8c a4 3e 01 22 d9 bf 32 45 a9 3f
       1.5506319 0.3213862 -1.6963502 1.3224242
000030 90 90 51 3f f4 25 9c bf 3b fa b7 bf c9 5a 02 c0
       0.8186121 -1.2199082 -1.4373239 -2.036791
000040 3e b8 96 bf 2b 7d 28 3f fa 9e d7 3e 65 47 07 3e
       -1.1774976 0.6581599 0.42113477 0.13210829
000050 d4 aa 17 bf 13 72 62 bf 97 6f 7c bf 01 90 92 3f
       -0.5924504 -0.88455313 -0.9860777 1.1450197
000060 87 12 4e bf b1 44 00 40 17 d3 24 3e 72 50 95 3f
       -0.8049702 2.0041926 0.1609615 1.1665175
000070 24 9b a9 be a9 9a 88 3e
       -0.33126175 0.26680496

lstm.weight_ih_l0 f4 [12, 3]
000000 de 80 d4 3e cb 11 20 3f d1 0c bc bf 94 c7 3d 3f
       0.41504568 0.6252715 -1.4691411 0.7413266
000010 9b 8a dd 3e 38 7e ce 3f ba b4 08 3f 5f 29 b4 be
       0.4326981 1.6132269 0.53400767 -0.35187814
000020 ba d3 eb 3e d6 33 09 3f 80 de c3 bb 68 89 b9 be
       0.46059972 0.5359472 -0.005977452 -0.36237645
000030 c6 32 b5 be 06 a3 28 be 12 0b 9b be 17 11 90 be
       -0.353903 -0.16468439 -0.30281883 -0.2813804
000040 1b 6c 0e bf 2a 52 cb be 5c 6c a8 3f 92 66 8d bf
       -0.55633706 -0.39711124 1.3158069 -1.1046927
000050 cd af 82 3e 7a 8d da be d0 38 4d be ea 4a c9 be
       0.2552475 -0.42686063 -0.20041203 -0.39314967
000060 c0 0f 52 3f 20 e9 24 ba 04 ce cd 3f 4c 5d a8 3e
       0.8205528 -0.0006290842 1.6078496 0.3288368
000070 8b 28 8a 3f 4d 74 a7 bf 7f e7 e6 3e 12 5c 24 3f
       1.0793623 -1.3082367 0.45098493 0.6420299
000080 a5 23 e0 3f 1a 03 74 3f 92 3d aa be 88 f9 2e 3e
       1.7510878 0.9531723 -0.332501 0.17087376

lstm.weight_hh_l0 f4 [12, 3]
000000 08 f1 fc 3e f0 2c 93 bd 3e b8 a2 3e 26 f7 6b be
       0.49402642 -0.071863055 0.3178119 -0.23043498
000010 a4 45 0e bf e4 93 a4 be e8 30 0c 3e 70 b3 39 3e
       -0.55575013 -0.32144082 0.13690531 0.18134856
000020 b8 6b 82 bd 23 8d a5 be e0 cb e9 3c b8 0c 78 3e
       -0.06368202 -0.3233424 0.028539598 0.24223602
000030 04 0c 05 3e c0 f4 fe 3d 10 1f f9 3e d9 6b 06 bf
       0.12992865 0.12449026 0.4865651 -0.5250831
000040 a8 93 0c bf e4 13 09 3f 0c 96 03 3e 88 e8 65 3e
       -0.54912806 0.53545976 0.12850207 0.22451985
000050 47 5a 0d bf d8 94 eb be 06 62 a4 3e 70 54 1f 3d
       -0.5521588 -0.46011996 0.32106036 0.038898885
000060 32 3f 23 be 2a 63 bc 3e 64 c7 ff 3e 38 c2 e1 3e
       -0.15942076 0.36794406 0.4995681 0.4409349
000070 14 6e d7 3e 9d 4a 99 be 88 1e c7 3d 5c a6 28 be
       0.4207617 -0.29939738 0.0972262 -0.16469711
000080 f4 16 33 3e 3e 93 e3 be 72 94 01 3f 98 de eb 3e
       0.17489225 -0.44448274 0.50617135 0.46068263

lstm.bias_ih_l0 f4 [12]
000000 d2 53 c9 3e 9b bb 6f bd f4 d5 96 3f 20 26 07 bf
       0.39321762 -0.058528524 1.1784043 -0.5279255
000010 2e 63 c1 be 90 cd 1c bd f9 25 b4 bd 8f e0 5f bf
       -0.3777098 -0.038281977 -0.08796305 -0.87452024
000020 80 ff 6e 3c 79 a7 17 3f cc 70 bd be 2c ba 75 3f
       0.014587283 0.5923992 -0.3700012 0.959872

lstm.bias_hh_l0 f4 [12]
000000 ba f8 3d 3f 58 cc 96 be 02 a8 d5 3f 30 af f0 3e
       0.7420765 -0.29452777 1.6691897 0.47008657
000010 20 fd 9c 3d e4 9d 10 3f bc f7 4c be 46 35 93 bf
       0.07665467 0.5649092 -0.20016378 -1.1500633
000020 4c f4 09 bf 18 b1 69 3f 6c 99 5e be e5 86 cd 3f
       -0.5388839 0.9128585 -0.21738213 1.6056792

lstm.weight_ih_l0_reverse f4 [12, 3]
000000 55 d0 4e 3e 97 ea b8 3f 69 d8 97 3f 8a c8 4f 3f
       0.2019666 1.4446591 1.1862918 0.81165373
000010 0b af bc bf 55 5c de 3f e4 13 de 3e c0 3e 48 3f
       -1.4740919 1.7371927 0.4337455 0.7822075
000020 d8 ab 82 3f f0 8a da be b0 be b1 3e e4 63 22 3e
       1.0208693 -0.42684126 0.34715796 0.15858418
000030 0e 63 d2 3e b0 95 5e 3e 64 35 03 3e 00 a4 87 3a
       0.41091198 0.21736789 0.12813336 0.0010348558
000040 e3 6e fc be 7a 27 02 be d1 c3 88 3f b9 c4 07 3f
       -0.4930335 -0.12710372 1.0684758 0.5303455
000050 b6 3d 69 be 41 ca a0 bf fd 0c af bf 86 30 fd bd
       -0.22777447 -1.2561723 -1.3675839 -0.12362771
000060 0e 83 9d bf 75 e1 aa be 89 18 96 bf 6b 3a d9 3f
       -1.230562 -0.33375135 -1.1726238 1.6970953
000070 92 2b 54 3f 09 78 a5 be 4a 3b ab 3f e9 cd 8d bf
       0.82878983 -0.32318142 1.3377469 -1.1078464
000080 3a 30 58 3f eb eb 3a 3f 8f 3f d8 3e 41 de 53 3f
       0.8444859 0.7301623 0.4223599 0.8276101

lstm.weight_hh_l0_reverse f4 [12, 3]
000000 84 8f f2 be e6 dc a3 3e 7a 9a ac 3e d8 15 e2 bd
       -0.4737512 0.3200447 0.33711606 -0.110393226
000010 9c 74 e2 3e f4 86 65 be 8d 0e ef be 00 7c e7 3d
       0.4422959 -0.22414762 -0.4669079 0.11302948
000020 00 64 46 ba a6 f7 00 be 38 7d d8 3d 98 08 df 3d
       -0.0007568002 -0.1259447 0.105707586 0.10890311
000030 88 07 f6 3d a8 8f 57 3e 6a 59 43 be d4 15 98 3e
       0.12013155 0.21050894 -0.19077078 0.29704154
000040 0a 51 11 be 58 e8 b7 be 7a 08 08 3f 50 40 57 3d
       -0.1419107 -0.35919452 0.53137934 0.052551568
000050 cb 86 a4 be ae 48 55 be 48 6f 84 3e f0 2a ba 3e
       -0.3213409 -0.20828506 0.2586615 0.36360884
000060 10 07 05 3e cc bd b5 be 52 62 12 3f b2 65 0e be
       0.12990975 -0.35496366 0.57181275 -0.13905981
000070 75 2d fe be f4 30 12 3f 30 d2 10 3e 80 68 9c 3e
       -0.49644056 0.57105947 0.1414268 0.30548477
000080 98 4b d2 3e 00 cb 69 3e 52 1d c1 3e c8 60 d5 3d
       0.41073298 0.22831345 0.37717682 0.1041885

lstm.bias_ih_l0_reverse f4 [12]
000000 0d e6 98 3e f8 26 a5 3f 13 8b 6a 3f 40 8a c8 3c
       0.29863015 1.2902517 0.9161846 0.024479985
000010 58 93 12 be 64 ae 0e bf 3a 52 77 3f 4a 7b 1b 3e
       -0.1431402 -0.5573485 0.9660984 0.1518375
000020 f2 ff a4 bd b2 d6 d3 3e 82 ea ad 3f 12 e0 44 3f
       -0.0805663 0.41374737 1.3587191 0.76904404

lstm.bias_hh_l0_reverse f4 [12]
000000 10 e4 53 bd 1e 3e e5 3e 72 e8 00 3f e0 6b a9 be
       -0.05173117 0.44773954 0.50354683 -0.33090115
000010 90 6c 07 3f 3e d7 a6 3e e3 1d 98 3f 12 32 63 3f
       0.5290003 0.32586092 1.1884121 0.88748276
000020 87 c8 c9 3e 78 b6 3e 3f 85 f0 aa 3e b0 46 72 3f
       0.39410803 0.74497175 0.33386627 0.9463911

hidden2tag.weight f4 [5, 6]
000000 4c 61 15 3f a5 f6 97 3e f0 54 47 bf 56 f7 a9 bf
       0.5835159 0.29680362 -0.7786398 -1.3278606
000010 7a 9f cb 3d 19 91 aa 3f ba 02 90 3f 7d c1 94 3f
       0.09942527 1.332553 1.1250832 1.1621548
000020 ce 62 48 bf 14 8a 57 bf 9b 9b c2 3c 44 76 50 3f
       -0.78275764 -0.84195065 0.02375584 0.8143046
000030 b5 c9 27 3f d0 ba 63 be c8 32 8e 3f f0 8c b9 3e
       0.65542156 -0.22239232 1.1109247 0.3624034
000040 be af 79 3f 83 83 f5 be a0 0c 7c 3f 9c ea 1e bf
       0.97533786 -0.47951898 0.98456764 -0.62076735
000050 4b 81 58 3f a5 05 a3 3f ce cb c6 bf 17 5e 94 bf
       0.84572285 1.2736098 -1.5530946 -1.1591214
000060 06 66 cb bf 8f b5 a5 3e 44 70 a4 bf 71 cb e6 3e
       -1.589051 0.3236508 -1.2846761 0.45077088
000070 84 2b 0c bf 56 f8 be 3f
       -0.547539 1.4919536

hidden2tag.bias f4 [5]
000000 38 9e f6 be 66 32 c1 be c0 b9 bc 3e fb 67 da be
       -0.48167586 -0.37733763 0.36860466 -0.42657456
000010 5f aa f4 3d
       0.11946558
