model/test/run_test6.pth (torch, 4228 bytes, 11 tensors)

word_embeddings.weight f4 [10, 3]
000000 80 e7 b2 3f 5c 7b ae bf 26 95 9b 3f 60 de ea 3f
       1.3976898 -1.3631396 1.2154891 1.8349113
000010 e8 2c ca 3e 87 89 03 bf ec ad f4 3e ea 04 b1 bf
       0.39487386 -0.51381725 0.47788942 -1.3829625
000020 f6 46 37 40 45 5b 5b 3f a3 43 18 40 ed ba dd bf
       2.863706 0.8568614 2.3791282 -1.732267
000030 11 63 bd 3f 48 c8 44 bf 46 1a 8d 3f 22 5f 39 be
       1.4795858 -0.76868105 1.1023643 -0.18102697
000040 c9 70 00 40 1b 07 93 3f 2e d5 b6 bc bc 1e f6 be
       2.0068839 1.1486543 -0.022318449 -0.48070323
000050 bd 41 a7 be a6 d5 1b 3f 61 3f 92 3e 63 ef 4a bf
       -0.32667342 0.60872877 0.2856398 -0.79271525
000060 3e c3 74 bf 2d 2a 9e 3f 81 51 21 be 69 fa 09 3f
       -0.95610416 1.2356621 -0.15753748 0.5389772
000070 65 c5 2f 40 8c 57 18 3f
       2.746423 0.59508586

lstm.weight_ih_l0 f4 [12, 3]
000000 2e 45 dd 3f 08 c3 1a 3f f1 e1 54 3e 52 37 55 bf
       1.7286737 0.60453844 0.20789315 -0.8328754
000010 34 d9 9c bd 17 39 89 3f 9a 2d 53 3d 76 0f 2b 3f
       -0.07658616 1.0720547 0.05155716 0.66820467
000020 77 cd fe bd ec e9 08 3f 1e 33 7d be 2e 94 cc be
       -0.12441533 0.53481936 -0.24726531 -0.39956802
000030 8c d3 dd 3e 16 4c b4 be 56 02 c0 be 68 b6 02 be
       0.4332546 -0.352143 -0.37501782 -0.12764895
000040 9c ef f4 3e 20 6a 1a be 1a c8 90 3f 02 f6 c7 3e
       0.47839057 -0.15079546 1.1311066 0.39054877
000050 42 49 c4 bf 08 fa d6 be d1 45 7b bf c8 40 5e be
       -1.5334857 -0.41987634 -0.98153406 -0.217044
000060 6a d0 87 be 96 38 0f 3f 29 37 a6 bf 7b 5c b7 3f
       -0.26526195 0.5594572 -1.2985584 1.4325098
000070 b0 06 72 3f 72 58 c3 3e 7c dd 5f bf 48 9c 1e be
       0.94541454 0.38153416 -0.87447333 -0.15489304
000080 c7 c0 2a 3f 79 1a eb be 77 3f 48 3f 0e 7f 49 3c
       0.66700405 -0.45918635 0.7822184 0.012298359

lstm.weight_hh_l0 f4 [12, 3]
000000 fc 0d 0c bf 37 4a a3 be 14 77 fa 3e 08 7a 99 bd
       -0.5470884 -0.3189256 0.48918974 -0.07493979
000010 87 13 9e be 6c b6 04 3e e0 e0 36 3e 9e 1e 0b 3f
       -0.30874273 0.12960213 0.1785922 0.54343593
000020 48 8a 07 3f 00 be 7a 3b 80 73 09 3f 98 06 bb 3e
       0.52945375 0.0038260221 0.53691864 0.36528468
000030 4c 32 2d be 46 26 09 bf 5e 1b 97 3e a4 9e d9 3e
       -0.16913718 -0.53574026 0.29513067 0.42503846
000040 fc b7 02 3f 60 9b fd 3c 50 f4 95 bd 6c 28 b9 bd
       0.5106199 0.030957878 -0.073219895 -0.09040913
000050 e8 ef ac be 8a e8 91 3e 56 f5 61 be 78 89 bc 3e
       -0.33776784 0.28497726 -0.22066244 0.3682363
000060 e8 e5 ea be a5 94 10 bf e8 4e e1 3e 00 57 da bc
       -0.4587853 -0.56476814 0.44005513 -0.026652813
000070 96 93 b1 be 7c 78 f6 3e 98 12 cd 3e 22 88 05 be
       -0.34682912 0.48138797 0.40053248 -0.13040212
000080 18 1f 4a 3e 2b 29 f6 be ba 43 a3 3e f0 b5 3d 3d
       0.19738424 -0.48078284 0.3188761 0.046316087

lstm.bias_ih_l0 f4 [12]
000000 de 57 b5 3f 62 67 96 bc b6 97 86 3e 0a 60 00 3f
       1.416744 -0.018359844 0.2628762 0.50146544
000010 ca 8e a5 3e d0 8f af be 40 cc b0 3c f2 7d 14 be
       0.32335502 -0.34289408 0.021581769 -0.1450117
000020 d3 53 45 3e 2e ff e1 3f d1 22 9e 3c 2b 4b a3 3c
       0.19270258 1.7656 0.019303711 0.019933304

lstm.bias_hh_l0 f4 [12]
000000 4e 22 df 3f 92 6b 71 bf e0 9d 97 3e d4 67 62 be
       1.7432344 -0.94304764 0.29612637 -0.2210992
000010 42 17 cc be e5 5f a7 be ea 58 e6 be 85 2d 39 3f
       -0.39861494 -0.3269035 -0.4498971 0.7233508
000020 c8 67 89 be 60 01 f4 3f 2e 0f c5 be 94 b7 54 3f
       -0.2683699 1.906292 -0.38488144 0.8309262

lstm.weight_ih_l0_reverse f4 [12, 3]
000000 e4 4e b7 3f 0b 00 24 3f d9 1a a2 3e 8c ae 92 be
       1.432095 0.64062566 0.31661108 -0.28648794
000010 5b e6 e1 bf 00 31 6a 3f d5 b6 9a 3e ce cb 5d 3f
       -1.7648424 0.9148102 0.30217615 0.86639106
000020 6d 3e b0 bf 52 a0 64 be 00 62 75 3c 58 77 71 3e
       -1.3769051 -0.22326782 0.014976978 0.23580682
000030 90 08 24 3d d0 c7 44 bd 0c 79 e0 3e 25 1e c4 be
       0.04004723 -0.04804212 0.4384235 -0.38304248
000040 c8 d7 0e be 20 e7 d8 3e ff 33 9c 3e 41 a3 cb 3f
       -0.13949502 0.42363834 0.3050842 1.5909196
000050 c9 0c 91 bf 85 df f9 3e ca f2 04 bf f0 5a 9e 3f
       -1.1332027 0.48803344 -0.51932967 1.2371502
000060 3b 03 d5 3d bb dd 45 be c1 cc 93 3f af 0d de 3f
       0.10401007 -0.19322865 1.1546861 1.7347926
000070 72 05 c1 3e 13 2a 7b be 88 9d ed be 17 7a db bf
       0.37699467 -0.24527769 -0.4640925 -1.7146634
000080 86 0e 79 3f 25 5b b9 be e6 fb 81 3f 1d ae 0c bf
       0.97287786 -0.3620235 1.0154998 -0.54953176

lstm.weight_hh_l0_reverse f4 [12, 3]
000000 d0 df ca 3e e9 53 a0 be 64 dc db bd 1c ea ef 3e
       0.3962388 -0.31314018 -0.107353956 0.468583
000010 a0 43 71 3e 01 e0 a5 be b4 54 60 3e e8 60 c0 3d
       0.23560953 -0.32397464 0.21907312 0.093934834
000020 78 21 a3 3d a0 0a 42 3e 94 55 e3 3e 46 a1 df be
       0.07965368 0.18949366 0.44401228 -0.4367773
000030 77 35 c7 be a2 93 ac 3e 87 2d 08 bf b0 97 d7 be
       -0.38907978 0.33706385 -0.5319447 -0.42107916
000040 00 a0 ed b8 78 00 c0 be 00 b8 c7 3a a4 3b dd bd
       -0.00011330843 -0.37500358 0.0015237331 -0.10802391
000050 00 fa a9 3a 84 eb 8d be 10 25 ab 3d 80 55 3f bd
       0.0012968183 -0.27718747 0.083566785 -0.0467124
000060 ba a7 02 be 40 77 63 bd 74 c2 c2 bd d2 2f af be
       -0.12759295 -0.055533648 -0.09509745 -0.34216172
000070 fc af 9c 3e 6c db f3 be f0 aa 27 3e e6 b2 ca be
       0.30603015 -0.47628343 0.16373801 -0.39589614
000080 f0 93 e8 bd 4c 0c a6 be 21 db a1 be c8 e6 ea bd
       -0.11356342 -0.32431257 -0.31612495 -0.11469799

lstm.bias_ih_l0_reverse f4 [12]
000000 7c 32 76 3f 89 cb 74 be ce e9 a6 be d8 02 0d 3f
       0.96170783 -0.23905768 -0.32600254 0.55082464
000010 f4 b1 ba bd 44 8e b7 be 02 85 f2 be d9 72 1b 3f
       -0.09115973 -0.35850728 -0.47367102 0.6072212
000020 f9 b3 6d 3e 28 89 d5 3f 3c bd 1d 3c 45 2a 9d 3e
       0.23213185 1.6682482 0.0096276365 0.30696312

lstm.bias_hh_l0_reverse f4 [12]
000000 49 9e ac 3f 55 6f 8f 3e fa e7 d6 bd 1c d1 f3 3e
       1.3485805 0.28014627 -0.10493465 0.47620475
000010 16 48 26 be 80 9d fe 3b 76 de a1 3e 27 b6 3d 3f
       -0.16238436 0.0077702403 0.31615037 0.7410607
000020 4e 89 cd 3e ac 72 93 3f 2f a0 f0 3e 19 21 bb 3e
       0.40143818 1.151937 0.4699721 0.3654869

hidden2tag.weight f4 [5, 6]
000000 15 e4 9d be 4b 04 6b bf f6 f4 9a be 8f d0 99 3e
       -0.30838075 -0.91803426 -0.30265015 0.3004193
000010 45 9d 87 bf 1a 17 03 3f b8 d0 15 bf 3c 2f 71 3d
       -1.059487 0.51207125 -0.58521605 0.058882937
000020 d1 d8 06 bf 5b 3a b3 bf 80 f9 fd 3e 6d af 3f 3f
       -0.52674586 -1.4002184 0.49604416 0.74877053
000030 5f 4d 8f 3f 66 07 84 3e 60 04 5d 3f 50 6a 2f 3f
       1.1195487 0.25786895 0.863348 0.68521595
000040 3e db 51 bf 17 4c 52 bf 1d 2b 89 bf e0 d5 66 3f
       -0.8197516 -0.82147354 -1.0716282 0.901701
000050 84 9d 87 bf 27 ff 88 bf 15 e7 a3 3f d6 e4 4a 3f
       -1.0594945 -1.0702866 1.2804896 0.79255426
000060 73 59 a5 3f 28 61 34 bf 9a 18 91 3e f4 85 38 3f
       1.2917923 -0.7046075 0.28339082 0.72079396
000070 23 a0 d3 be 87 b7 3d be
       -0.41333112 -0.18527041

hidden2tag.bias f4 [5]
000000 93 7f a7 be 2f a0 08 bf 43 44 0e 3f 31 bf c9 3e
       -0.3271452 -0.5336942 0.5557291 0.3940368
000010 38 e0 d2 3d
       0.102966726
