model/rnn_model/model3.pth (torch, 76996 bytes, 11 tensors)

word_embeddings.weight f4 [301, 8]
0	0xbf85722a	-1.0425465
1	0xc06dc3da	-3.7150788
2	0xbf8eb62a	-1.1149342
3	0xc11cfd90	-9.811905
4	0xbe815921	-0.25263312
5	0xbeeeb78e	-0.46624416
6	0x40bb006f	5.843803
7	0xc071a1cf	-3.775501
8	0x41743cc1	15.2648325
9	0x40273972	2.6128812
10	0x40c102cb	6.031591
11	0x40b13f4a	5.5389757
12	0x40df2248	6.9729347
13	0xc1ddfced	-27.748499
14	0x418b6729	17.425371
15	0x41a90b92	21.13065
16	0xc07e74fb	-3.97589
17	0xc1a0aa8a	-20.083271
18	0xc0b79b1a	-5.7376833
19	0x41c13a0b	24.153341
20	0x415c3699	13.7633295
21	0x3e85e9d1	0.2615495
22	0xc11d36e8	-9.825905
23	0x4169f435	14.622121
24	0x41a048ca	20.035542
25	0x3f5089e2	0.8146039
26	0x414d5e00	12.835449
27	0xc0836225	-4.1057305
28	0x4196cbf5	18.849588
29	0x4165a1b3	14.351977
30	0xbeef6c5f	-0.46762368
31	0x41a9b042	21.211063
32	0xc0ded767	-6.963794
33	0x41173244	9.449772
34	0x401d388d	2.4565766
35	0x418cf7bc	17.620964
36	0xc00ae4b9	-2.1702101
37	0x41dcf5d1	27.620028
38	0xc19eba33	-19.840918
39	0xbfeb95ff	-1.840515
40	0x412596a4	10.3492775
41	0xc12bb79e	-10.732328
42	0xc1e01f36	-28.01524
43	0x4194ba06	18.590832
44	0xc1b4a52a	-22.580647
45	0xbff31129	-1.8989612
46	0x40e495a1	7.1432652
47	0xbfc6dd50	-1.5536289
48	0x401422fc	2.3146353
49	0x4149c171	12.609727
50	0xbfa5b9cd	-1.2947327
51	0xc1474818	-12.455101
52	0x415c1ed0	13.757523
53	0xbf8d952a	-1.1061146
54	0x3ec3b91f	0.38227174
55	0xc164038d	-14.250867
56	0x409ad05c	4.8379345
57	0x41d6930e	26.821804
58	0x4103904c	8.222729
59	0x3fcec767	1.6154603
60	0x41511a92	13.068987
61	0x41115c40	9.085022
62	0xc0cc4d90	-6.384468
63	0xc156e07a	-13.429804
64	0x4146c07f	12.421996
65	0x3fa1bcad	1.2635704
66	0xbfb1c87d	-1.3889309
67	0x40c00bc3	6.0014358
68	0x4001d41c	2.0285711
69	0x40b7409e	5.726638
70	0x3e2bff4b	0.16796605
71	0xc1daa4dc	-27.330498
72	0xc01fdb09	-2.4977438
73	0x41238279	10.219354
74	0xc15f2af8	-13.94799
75	0x40c6d9ee	6.2141027
76	0x41910666	18.128124
77	0x41bc37a7	23.527174
78	0x4109dbfe	8.616209
79	0xc15b31a3	-13.699618
80	0x4009e060	2.1543198
81	0x40ec8068	7.3906746
82	0xbfdd0a0a	-1.7268689
83	0x401821f0	2.3770714
84	0xc0d6cb44	-6.7123127
85	0xc231ed84	-44.48195
86	0x4140ca08	12.049324
87	0x4194d46c	18.603722
88	0x40cf1b9a	6.4721193
89	0x3fc23af8	1.5174246
90	0xc18d53a2	-17.665836
91	0x4187bfa4	16.968575
92	0x417c9718	15.786888
93	0xc180e2d2	-16.110752
94	0x4007ee2a	2.1239114
95	0x41acc4b5	21.596048
96	0xc15758cc	-13.459179
97	0xc117a663	-9.478122
98	0x40a6fc71	5.2183156
99	0xc12de8e4	-10.869358
100	0x412f2373	10.946155
101	0xc1d53bf8	-26.654282
102	0x40e4b7cf	7.1474376
103	0x4088523e	4.2600393
104	0xbfc295db	-1.5201982
105	0x41252a1b	10.32278
106	0xc1084b92	-8.51845
107	0x40e861db	7.2619452
108	0x3dc5521e	0.09634803
109	0x41d35b03	26.41944
110	0x4146a819	12.416039
111	0x409740a1	4.7266393
112	0xc0dae158	-6.840008
113	0xbf1f8376	-0.6230997
114	0xc179b005	-15.6054735
115	0x3f14001e	0.5781268
116	0xc0aa53c3	-5.322725
117	0x40640ca9	3.5632727
118	0x4130df0e	11.054457
119	0xc0835f4e	-4.105384
120	0x40a631fa	5.1936007
121	0x41a9d057	21.226728
122	0x40c7dbe5	6.2455926
123	0x413180e3	11.0939665
124	0x40442d72	3.0652738
125	0xbf80f53f	-1.0074843
126	0xc0a4982c	-5.1435757
127	0xbf84a264	-1.0362058
128	0x4108cb46	8.549627
129	0x4196679e	18.800594
130	0x40a79877	5.2373614
131	0x41a85a8d	21.044214
132	0xc0c55ff1	-6.1679616
133	0xc18ecaff	-17.84912
134	0xc1c1e43e	-24.236446
135	0x40bb601a	5.855481
136	0x41885a7b	17.04418
137	0xc092ff6a	-4.5936785
138	0xc0537929	-3.30427
139	0xbf831cd4	-1.0243173
140	0x419499ff	18.575193
141	0xc0e2a5f0	-7.082756
142	0xbf11a595	-0.56893283
143	0x41742f1d	15.261502
144	0xc1593592	-13.575579
145	0xc1916a04	-18.176765
146	0xc174e6b7	-15.306327
147	0xc1613eec	-14.077862
148	0x40734af0	3.8014488
149	0x4016614c	2.3496885
150	0x4030cea8	2.7626133
151	0x418acce9	17.350054
152	0x418f2bcb	17.896383
153	0x41904215	18.032267
154	0xc065d698	-3.5912228
155	0x41ecf33b	29.618765
156	0x41c808f3	25.00437
157	0x4118097e	9.502317
158	0xbecfaa69	-0.405597
159	0x40a0c8b9	5.0245023
160	0xc085c6d8	-4.180523
161	0x418744c7	16.908583
162	0x41511939	13.068658
163	0x40b872d0	5.764015
164	0x3f3da8f7	0.74085945
165	0xbf535954	-0.8255818
166	0xc08c6c4e	-4.388221
167	0x41a46d50	20.553375
168	0xc12f0960	-10.939789
169	0xc14577b8	-12.341728
170	0xc0a0dbe6	-5.026843
171	0xc171b702	-15.10718
172	0xc072bfc4	-3.7929544
173	0xbd1851d5	-0.037187416
174	0x404da3d6	3.2131248
175	0x40728686	3.7894607
176	0xc1718b06	-15.096441
177	0x405c26ac	3.4398603
178	0xc0528e37	-3.28993
179	0x4162efdf	14.183562
180	0xc0558712	-3.336369
181	0x418e1596	17.76054
182	0xc166778f	-14.404189
183	0x41791c74	15.569447
184	0xc1d0de41	-26.108522
185	0x40e860c7	7.2618136
186	0x41af4eec	21.913536
187	0x40fdd48a	7.9321947
188	0xc13951a6	-11.582434
189	0xc078e142	-3.8887486
190	0xc0ec78f0	-7.389763
191	0x41c68de2	24.819279
192	0x40ddc6a4	6.930498
193	0xc06d3c85	-3.7068188
194	0x4190a0cb	18.078512
195	0x4166c4d1	14.423051
196	0x41a68045	20.812632
197	0xbfd3ccde	-1.6546896
198	0xc12a5ddf	-10.647918
199	0xc13631db	-11.387172
200	0x3e623ec4	0.22094256
201	0x411b0814	9.689472
202	0x418bf894	17.496376
203	0x3fd3c3a7	1.6544083
204	0x41c65494	24.791298
205	0x40063723	2.0971153
206	0x41448a47	12.283759
207	0x402b5913	2.6773117
208	0x411e6e74	9.901966
209	0xc0fb632e	-7.855857
210	0xc0f2405e	-7.5703573
211	0x4031c7ee	2.7778277
212	0x41d048c6	26.035534
213	0xbfd90e9d	-1.6957585
214	0xc12b269f	-10.696929
215	0xc0586c5c	-3.3816137
216	0xbec04acb	-0.37557063
217	0xc12710eb	-10.44163
218	0xc02f70bc	-2.7412558
219	0xc1239ecd	-10.22627
220	0x3fab5d95	1.3387934
221	0xc10fd57a	-8.989618
222	0xc17e84a9	-15.907388
223	0x40c1316a	6.037282
224	0x41baf619	23.370165
225	0x41cc1860	25.511902
226	0xc18f5978	-17.918686
227	0x40923fb3	4.570276
228	0xc0b9b321	-5.8031163
229	0x40d7fd97	6.749706
230	0xc02a6db2	-2.6629453
231	0xc0a00c1a	-5.0014772
232	0x41d94bd4	27.162025
233	0x3f065ca3	0.524851
234	0x4139a0b5	11.601735
235	0xc0570a06	-3.3599868
236	0x40ef8af5	7.4857125
237	0xbf5b80c7	-0.85743374
238	0xc13f0434	-11.938526
239	0xc08f5c59	-4.480023
240	0x415283e9	13.157205
241	0xc0664358	-3.5978603
242	0x40dfbd68	6.991871
243	0x40bd8bbe	5.9233084
244	0x40a6e8ed	5.2159333
245	0xc178d700	-15.55249
246	0xbfd24166	-1.6426208
247	0x41493eaf	12.577804
248	0x40e4e46e	7.1528845
249	0x418c5952	17.543613
250	0x40aea8e8	5.4581184
251	0x41344d0a	11.268808
252	0xc14ac8e5	-12.6740465
253	0x417ae462	15.6807575
254	0xc004741a	-2.0695863
255	0x4113d096	9.238424

lstm.weight_ih_l0 f4 [32, 8]
0	0xbffa8e50	-1.957468
1	0x40b76c5c	5.7319775
2	0xc08048da	-4.008893
3	0x4133121d	11.191922
4	0x41877830	16.933685
5	0x40f36210	7.6057205
6	0xc196e301	-18.860842
7	0x41f2c1cb	30.344625
8	0x41465a23	12.397006
9	0x420e317d	35.54833
10	0xbe8f9ac8	-0.28047776
11	0xc11057ad	-9.021405
12	0x41d0e175	26.110086
13	0xc0e0b221	-7.0217443
14	0x3fb457e7	1.4089326
15	0x419c982e	19.574306
16	0x4156f04a	13.433664
17	0xc1d8c970	-27.098358
18	0x4164ede1	14.308076
19	0x416172c4	14.090519
20	0x413fb3c3	11.981387
21	0xc1900d18	-18.006393
22	0x41d76809	26.925798
23	0xbf96c9c2	-1.1780322
24	0x4192d587	18.354261
25	0x414c4e63	12.769137
26	0xc14ae315	-12.68044
27	0x419179a6	18.184399
28	0x41882075	17.015848
29	0xbfd04e9c	-1.627399
30	0x3fff17a4	1.992909
31	0xc118d964	-9.553074
32	0x4172eaf4	15.182362
33	0xc131eed4	-11.120808
34	0xc1a196c0	-20.198608
35	0x41d38618	26.440475
36	0x4123cf31	10.238084
37	0x418ccff0	17.601532
38	0xc1d5a1a6	-26.70393
39	0xc179a4aa	-15.602701
40	0xc11a2fe0	-9.636688
41	0xc10e11d2	-8.879351
42	0x410dd538	8.864555
43	0xc107fd72	-8.499376
44	0x40efff34	7.4999027
45	0xc1b8cceb	-23.100058
46	0x414f2524	12.946568
47	0x42004e5e	32.07653
48	0x4149641f	12.586944
49	0xc0a8c4ff	-5.2740474
50	0xc1e7f267	-28.99336
51	0x40f4eb08	7.6536903
52	0xc13e3fa2	-11.890535
53	0x419c50af	19.539396
54	0x414cab95	12.79189
55	0x40c95cc7	6.2925754
56	0xc20c8423	-35.12904
57	0xc0bdb73c	-5.9286175
58	0xc149746e	-12.590925
59	0x4153bfef	13.234359
60	0xc107df2f	-8.491988
61	0xc1466dfd	-12.401853
62	0xc1a09009	-20.07033
63	0x4215bfe7	37.437405
64	0xbe5791a7	-0.21051656
65	0xbddd6724	-0.10810688
66	0xbe9fce5e	-0.31212133
67	0xbea51574	-0.3224293
68	0x3eb15cbf	0.34641072
69	0xbe2ca917	-0.16861378
70	0x3eaa1ce9	0.33225182
71	0x3e9eeb79	0.31039026
72	0x3d45d108	0.04829505
73	0xbe8115ef	-0.25212047
74	0x3e6a37de	0.22872874
75	0x3db5a11c	0.0886862
76	0x3e6df766	0.23238906
77	0xbdf183d4	-0.11792722
78	0x3d6f3ea0	0.058409333
79	0x3dbe5940	0.09294367
80	0x3e55e786	0.208891
81	0x3e363aae	0.17795822
82	0x3cc54260	0.024079502
83	0xbca35c50	-0.019941479
84	0x3e49480a	0.19656387
85	0x3e21dd6a	0.15807119
86	0xbd91eee0	-0.0712564
87	0xbe54d6fc	-0.20785135
88	0x3e078c1e	0.13237044
89	0xbe695d93	-0.22789602
90	0x3e1fdb6e	0.1561105
91	0x3dc986c0	0.09840155
92	0xbe22b417	-0.15889011
93	0x3d142098	0.036163896
94	0xbe375c25	-0.17906244
95	0x3e988595	0.29789415
96	0xbd170890	-0.0368734
97	0xbea7fa8d	-0.32808343
98	0x3e950ba9	0.29110458
99	0x3dbeefec	0.09323105
100	0x3e20d386	0.1570569
101	0xbd1d0ba8	-0.038341194
102	0x3e98726d	0.297748
103	0xbe9f02ea	-0.3105691
104	0x3c10ea00	0.008844852
105	0xbeab451c	-0.33451164
106	0xbe117647	-0.14205275
107	0x3e79ab9a	0.24381867
108	0xbdf11196	-0.117709324
109	0x3e69903a	0.22808924
110	0x3d5561e8	0.052095324
111	0xbe959f88	-0.29223275
112	0xbeaeb477	-0.3412206
113	0x3c8411b0	0.016121715
114	0xbb8b5400	-0.004251957
115	0x3e9bbb73	0.3041645
116	0x3d34a4d0	0.04410249
117	0x3e4cf38e	0.20014784
118	0x3e8d06e3	0.27544317
119	0x3d3fca18	0.04682359
120	0xbdfb2cd8	-0.12264413
121	0xbe192871	-0.14956833
122	0x3e83bdd7	0.25730774
123	0x3e75bada	0.2399706
124	0x3e9387a3	0.2881442
125	0x3e89772d	0.26848736
126	0x3e62ac6a	0.22136083
127	0x3d5c8798	0.05384025
128	0xc11a27de	-9.634733
129	0xc0801350	-4.0023575
130	0xc13d62ab	-11.836589
131	0xc0ed6eca	-7.419774
132	0xc0978c12	-4.7358484
133	0x40dfe596	6.9967756
134	0xc144c540	-12.298157
135	0xc193cb9b	-18.474417
136	0xc001e046	-2.0293136
137	0x4022245a	2.5334687
138	0xc08fba10	-4.4914627
139	0x402a0b7a	2.6569505
140	0x417ff2ad	15.996747
141	0x414dabc8	12.854439
142	0x4143d53a	12.239557
143	0xc1815ccf	-16.170317
144	0x4171d10e	15.113539
145	0x40bf0886	5.9697905
146	0xc091ac21	-4.552262
147	0xc125f2fe	-10.371824
148	0xc1b3321b	-22.399466
149	0xc0a6ade3	-5.2087264
150	0xc182648d	-16.299097
151	0xc0cef9aa	-6.4679766
152	0x3ff616b7	1.9225682
153	0xc18b2c74	-17.396706
154	0x4157e0fe	13.49243
155	0x3eca5eb0	0.39525366
156	0xc03ae69b	-2.920325
157	0x3fb9d01d	1.4516636
158	0x41115def	9.085433
159	0x40634ccb	3.551562
160	0xc20c7b60	-35.120483
161	0x41004e44	8.019108
162	0xc09b775e	-4.858321
163	0xbf894e5b	-1.0727037
164	0x414bb507	12.731696
165	0x417e166c	15.880474
166	0xc03e8322	-2.9767537
167	0xc0ad9654	-5.4246006
168	0x41318f86	11.09754
169	0xbc3f2313	-0.011666077
170	0xc13dc5c3	-11.860782
171	0x4192ad58	18.33464
172	0x40af6529	5.4810987
173	0xc0b98245	-5.797152
174	0x40d2ee89	6.591618
175	0xc0fd2359	-7.910565
176	0x40ea7530	7.326805
177	0xc13204eb	-11.126201
178	0xc112ed5a	-9.182947
179	0xc11df68a	-9.87269
180	0xc1229e64	-10.16367
181	0x4109c602	8.610842
182	0x41af1ba0	21.888489
183	0xc1a7ef63	-20.991888
184	0xc106db9e	-8.4286175
185	0x4088033c	4.250395
186	0xbe0d861a	-0.13820687
187	0x41122fa1	9.136628
188	0xc18b5523	-17.41657
189	0xc014b4db	-2.3235385
190	0x3ff68359	1.9258834
191	0xc1c6b98c	-24.8406
192	0xc08e830c	-4.453497
193	0xc1a1c417	-20.220747
194	0x41d16eb8	26.179062
195	0x3fd4d221	1.6626626
196	0x41192da1	9.57364
197	0xc0a8add4	-5.2712193
198	0xc0cecea2	-6.4627237
199	0x40747998	3.8199215
200	0x41a25a7a	20.294178
201	0xc1cd84cf	-25.689848
202	0xc21ffa55	-39.994465
203	0x4179fd15	15.624288
204	0xc10050c9	-8.019723
205	0xc1a94ea1	-21.163393
206	0xc162817c	-14.156612
207	0xbf08cc72	-0.5343696
208	0xc047173d	-3.1107934
209	0x412c8820	10.783234
210	0x405ce3b8	3.4513988
211	0x416bd12d	14.738568
212	0x410e03cb	8.875926
213	0x413294d2	11.161333
214	0xc1aad5b0	-21.35434
215	0x417575b0	15.341232
216	0xbfe23c15	-1.7674586
217	0x4003f817	2.0620172
218	0xbfeebd21	-1.8651468
219	0xc0339c05	-2.8063977
220	0x41211183	10.066775
221	0xc18c3472	-17.525608
222	0xc1ff2825	-31.894602
223	0x41351fe8	11.32029
224	0xc13e1d46	-11.882147
225	0x401244dd	2.285453
226	0x41c173a0	24.181458
227	0x40c91773	6.2841125
228	0xc0f9d9ad	-7.8078218
229	0x40069841	2.1030428
230	0xc15c80b7	-13.7814245
231	0xc1db64b2	-27.424168
232	0xc102bc98	-8.171043
233	0x4125c218	10.359886
234	0xc18d4c6e	-17.66232
235	0x421a9c31	38.65253
236	0xc0cf8942	-6.485505
237	0x41823a14	16.278358
238	0xc14c264d	-12.759351
239	0x40d07a0c	6.5148983
240	0xc0902fc8	-4.5058327
241	0x4193fa1a	18.49712
242	0x41a2809d	20.3128
243	0x4149b48c	12.606579
244	0xc13e9cd9	-11.913293
245	0xc02661fe	-2.599731
246	0xc18714f2	-16.885227
247	0xc1567abc	-13.404964
248	0xc0cb297f	-6.3488154
249	0x41ce9da0	25.826965
250	0x40eeac4e	7.4585333
251	0x4090b766	4.5223875
252	0x41f5da72	30.731663
253	0xc1551bd3	-13.319293
254	0x417fe049	15.992257
255	0x409569c4	4.669161

lstm.weight_hh_l0 f4 [32, 8]
0	0x3e9ab52b	0.30216345
1	0xbe783829	-0.24240173
2	0x3dceb81c	0.1009371
3	0x3e581692	0.2110236
4	0x3e0ada72	0.13559893
5	0xbe4254df	-0.18977688
6	0xbd3b1d18	-0.045682043
7	0xbc934fb0	-0.017982334
8	0x3df859e0	0.12126517
9	0xbe95689c	-0.29181373
10	0x3e7b5d92	0.24547413
11	0xbe257292	-0.16156986
12	0xbe9e3e9c	-0.30907142
13	0x3e50f686	0.20406541
14	0xbdd02a48	-0.101643145
15	0x3c946c00	0.018117905
16	0x3eac15fb	0.3361052
17	0xbdcd9018	-0.10037249
18	0xbc9b45f0	-0.018954247
19	0x3d83dee0	0.064389944
20	0xbd42cbc8	-0.047557622
21	0x3daf7ff8	0.0856933
22	0xbe9a36c5	-0.3011991
23	0xbbddcb40	-0.006768614
24	0x3dce4378	0.100714624
25	0x3c137600	0.009000301
26	0x3eadd58b	0.33951983
27	0x3ea135c5	0.31486335
28	0xbe2cbcb9	-0.16868867
29	0xbde98ef6	-0.11404221
30	0xbe9b98c6	-0.30389994
31	0x3e9e7381	0.30947497
32	0xbeb33ef1	-0.35008958
33	0xbe5bf5d1	-0.2148049
34	0xbe97f671	-0.29680207
35	0x3d8cbd30	0.06872022
36	0x3d02ffa8	0.031982094
37	0x3d017f90	0.031615794
38	0x3d7b69a8	0.06138006
39	0xbe9a1f82	-0.30102164
40	0xbdc29e84	-0.09502891
41	0xbd1c5f50	-0.038176835
42	0xbddf23bc	-0.10895488
43	0xbe4eb0ef	-0.20184682
44	0xbea03c63	-0.3129607
45	0x3ea09caf	0.3136954
46	0xbe0e953a	-0.13924113
47	0xbe7ab062	-0.24481347
48	0xbe73b21c	-0.23798412
49	0xbd1ec9a0	-0.038766503
50	0xbea99162	-0.3311873
51	0xbea1faef	-0.3163676
52	0x3ea1d401	0.3160706
53	0x3eb078cf	0.3446717
54	0x3e906b2d	0.2820677
55	0x3c2fd260	0.01073131
56	0xbe2e0f5c	-0.16998047
57	0xbe284da9	-0.16435875
58	0xbe5a51bb	-0.2132024
59	0xbe88c8d2	-0.26715714
60	0x3c0951a0	0.008381277
61	0xbe1030e5	-0.14081152
62	0xbe894c39	-0.26815966
63	0xbe0cf414	-0.13764983
64	0x3e4c4d36	0.19951329
65	0xbd271b00	-0.040797234
66	0x3d823c04	0.06359103
67	0x3e540556	0.2070516
68	0x3e30b43e	0.17256257
69	0xbdcc1a8c	-0.09966001
70	0x3e978f45	0.29601493
71	0xbe079437	-0.13240133
72	0x3e93cb45	0.2886602
73	0x3e9dd007	0.30822775
74	0xbe6dd95c	-0.23227447
75	0xbd9d2048	-0.07672173
76	0xbca3e730	-0.0200077
77	0x3e74351a	0.23848382
78	0xbd1396f8	-0.036032647
79	0xbe4b0d0b	-0.19829194
80	0x3d8608ac	0.06544623
81	0xbe960f41	-0.29308513
82	0xbe62c240	-0.22144413
83	0xbe0408c1	-0.12893964
84	0xbd9dcec0	-0.0770545
85	0x3e9355e5	0.2877647
86	0x3e833335	0.25625005
87	0x3e9155fd	0.28385916
88	0xbd1790d8	-0.03700337
89	0x3e4f5d5a	0.20250455
90	0x3d972b28	0.07381278
91	0x3e80c859	0.25152853
92	0xbe8b9e90	-0.2726941
93	0x3e0d6aaa	0.1381022
94	0xbe945778	-0.28972983
95	0x3df8e694	0.12153354
96	0x3d8de484	0.069283515
97	0xbeaa64be	-0.33279985
98	0xbd56ff78	-0.052489728
99	0xbead6e8b	-0.338734
100	0xbe817999	-0.25288084
101	0xbd839380	-0.06424618
102	0xbe79f0cc	-0.24408263
103	0xbd6cf530	-0.057851017
104	0x3e6a06fa	0.22854224
105	0xbe7f14d8	-0.24910295
106	0xbe15edcd	-0.14641495
107	0xbe9e075d	-0.30864993
108	0x3eb13d1d	0.34616938
109	0x3de568dc	0.11201641
110	0xbe8c5d22	-0.27414805
111	0xbe5f9e26	-0.21837673
112	0x3db22af8	0.08699602
113	0xbeb3c40b	-0.35110506
114	0x3d936d80	0.0719862
115	0xbeb2091d	-0.34772578
116	0x3eae1d53	0.34006748
117	0x3e9a3975	0.3012196
118	0x3c5ca620	0.013467342
119	0x3e916127	0.28394434
120	0xbeaa1217	-0.33216926
121	0xbe8b4d1a	-0.2720726
122	0x3c6228e0	0.013803691
123	0x3e7bc83e	0.24588105
124	0xbe6a09e6	-0.22855338
125	0xbe9f0415	-0.31057802
126	0xbea26a9a	-0.31721956
127	0xbdc12164	-0.09430197
128	0xbeaec77b	-0.34136567
129	0xbe425dbf	-0.18981074
130	0x3d0883c0	0.03332877
131	0xbd5ded10	-0.05418116
132	0x3e4834a2	0.19551328
133	0xbea4574e	-0.32097858
134	0x3e926f85	0.28600708
135	0xbd8b6bc8	-0.06807667
136	0xbe7a9024	-0.24469048
137	0xbdb097f8	-0.08622736
138	0x3e877763	0.26458272
139	0x3eb4c3ab	0.35305533
140	0xbeb3bd5f	-0.35105416
141	0x3eb0404d	0.34424058
142	0x3e817a35	0.2528855
143	0x3ea9359f	0.33048722
144	0xbe32d075	-0.17462333
145	0xbe0522d0	-0.13001561
146	0x3e980323	0.29689893
147	0x3e963f11	0.2934499
148	0xbd45c9a8	-0.048288018
149	0x3d8fb018	0.07016009
150	0x3e5c2ade	0.21500728
151	0x3c54d200	0.012989521
152	0x3e917cb7	0.28415462
153	0x3cddd610	0.027079612
154	0xbe965e1a	-0.2936867
155	0xbe5e84e6	-0.21730384
156	0x3dd4c904	0.10389903
157	0x3e83a2ff	0.25710294
158	0xbd856f2c	-0.06515345
159	0x3eac476b	0.33648238
160	0xbcff3da0	-0.031157315
161	0xbd96b380	-0.07358456
162	0xbeab01e7	-0.3339989
163	0xbe69bbfc	-0.22825617
164	0x3eaee403	0.34158334
165	0x3e32691e	0.17422912
166	0xbd80a0c0	-0.06280661
167	0x3eaccf8f	0.33752105
168	0x3ded96f0	0.11601055
169	0xbd7c7f98	-0.06164512
170	0xbea3e862	-0.32013232
171	0x3e962029	0.2932141
172	0x3eb4e081	0.35327533
173	0xbe50bc07	-0.20384227
174	0xbe7d1b3e	-0.24717423
175	0xbd67fa88	-0.05663541
176	0xbe68fc01	-0.22752382
177	0x3c801110	0.015633136
178	0x3e6d1f82	0.2315655
179	0x3e9c3ce5	0.3051521
180	0x3c822a50	0.015889317
181	0xbd5295b0	-0.051412284
182	0xbe9f2d10	-0.31089067
183	0x3e225bc6	0.15855321
184	0xbe977d5d	-0.29587832
185	0xbcb810e0	-0.022468984
186	0xbeac529b	-0.33656773
187	0xbd2676d0	-0.040640652
188	0x3d1ab158	0.037766784
189	0xbe64db85	-0.22349365
190	0x3d837dec	0.06420502
191	0x3d836c64	0.06417158
192	0xbe279ceb	-0.16368453
193	0xbe38c873	-0.18045215
194	0xbeb45b4d	-0.35225907
195	0xbde9b2ac	-0.11411032
196	0x3e5c235a	0.2149786
197	0xbd3e2400	-0.04642105
198	0xbe5f7bcc	-0.21824569
199	0xbdb158f0	-0.086595416
200	0xbe94c7f1	-0.29058793
201	0x3e804f69	0.25060585
202	0x3e80016d	0.25001088
203	0xbba12cc0	-0.0049186647
204	0x3ea6fc23	0.3261424
205	0xbe0d9262	-0.13825372
206	0xbe53a135	-0.20666964
207	0xbc960f50	-0.018317848
208	0x3e3ed02e	0.18634102
209	0x3dfe3660	0.12412715
210	0xba880d00	-0.0010379851
211	0x3e7ee726	0.24892864
212	0xbc9330d0	-0.017967612
213	0x3e1a5e8a	0.15075126
214	0xbe891c96	-0.26779622
215	0xbcedeb30	-0.02904281
216	0xbe5fdc96	-0.2186149
217	0xbd5233b8	-0.051318854
218	0xbe87ae96	-0.26500386
219	0x3e5e06e6	0.21682319
220	0xbeaa14bc	-0.33218944
221	0xbd3e6470	-0.046482503
222	0xbe822153	-0.2541605
223	0xbb036480	-0.0020048916
224	0x3e9e856f	0.30961177
225	0xbd9b888c	-0.075944036
226	0xbe805ada	-0.25069314
227	0xbe096c54	-0.1342023
228	0xbd8b292c	-0.06794962
229	0x3d259c68	0.040432364
230	0x3ea57a73	0.32319984
231	0xbe6db13e	-0.23212144
232	0xbe6d27fd	-0.23159786
233	0xbea69951	-0.32538846
234	0xbe29a3fd	-0.16566463
235	0xbe10434b	-0.1408817
236	0xbd04a708	-0.032385856
237	0x3e6315ba	0.22176257
238	0x3e8a3b0f	0.26998183
239	0x3e12a002	0.1431885
240	0x3c4a6120	0.012352258
241	0x3df9f634	0.12205163
242	0xbe8c197c	-0.27363193
243	0xbeb251cc	-0.3482803
244	0xbdb6b604	-0.089214355
245	0xbdaa1818	-0.08305377
246	0x3ea65237	0.324846
247	0xbc063820	-0.008192092
248	0x3e13455e	0.1438193
249	0xbe0ef721	-0.1396146
250	0xbeb1b6b0	-0.34709692
251	0xbd48ba68	-0.049005896
252	0xbe078730	-0.13235164
253	0x3ead0f53	0.33800754
254	0x3d45ee00	0.048322678
255	0xbe25c347	-0.16187774

lstm.bias_ih_l0 f4 [32]
0	0x3ff02afb	1.8763117
1	0xc1887333	-17.05625
2	0xc149e02b	-12.6172285
3	0xc227cfac	-41.952805
4	0xc1951635	-18.635843
5	0xc185d274	-16.72776
6	0xc1e7efb3	-28.99204
7	0xc0e10e32	-7.032983
8	0xbe284de5	-0.16435964
9	0x3ea3683f	0.3191547
10	0x3b9e26c0	0.0048263967
11	0xbea058a0	-0.31317616
12	0xbd9166ec	-0.07099709
13	0xbe3bbb84	-0.1833325
14	0xbe956442	-0.29178053
15	0xbd85ad40	-0.065271854
16	0x403852f0	2.880062
17	0xc001f9ab	-2.0308635
18	0xc15f7fc7	-13.968696
19	0xc14f3ef8	-12.952873
20	0xc1442f9a	-12.261621
21	0x40c5a673	6.1765685
22	0x3e8e5bd7	0.27804443
23	0x3d9b301b	0.07577535
24	0xc149c5d6	-12.6108
25	0xc13fff24	-11.99979
26	0xc1d9ee39	-27.24132
27	0xc101beee	-8.109114
28	0x40641b4f	3.5641668
29	0xc1d989d7	-27.192305
30	0xc20c32ad	-35.049488
31	0xc1c3b14d	-24.461573

lstm.bias_hh_l0 f4 [32]
0	0x3fdf01ae	1.7422388
1	0xc18bc1be	-17.4696
2	0xc14ea671	-12.915635
3	0xc2288eac	-42.139328
4	0xc1990352	-19.126621
5	0xc185a0b6	-16.703472
6	0xc1ea5f21	-29.29645
7	0xc0e08e72	-7.0173883
8	0x3d809734	0.0627884
9	0xbdad9c5c	-0.08477089
10	0x3e896e73	0.2684208
11	0xbe1e79f4	-0.15476209
12	0xbdda9518	-0.106729686
13	0xbe8b7cb3	-0.27243575
14	0xbe2099f6	-0.15683731
15	0x3df17f50	0.11791861
16	0x402911a5	2.641702
17	0xbfbef4f3	-1.4918503
18	0xc16371d7	-14.215293
19	0xc15227ef	-13.134749
20	0xc1459ed0	-12.351273
21	0x40ba55b4	5.822962
22	0x3e9b4057	0.30322525
23	0xbe5347a4	-0.20632797
24	0xc149164c	-12.567944
25	0xc13f1ce4	-11.944553
26	0xc1db7369	-27.431353
27	0xc100b5b3	-8.04436
28	0x408393f0	4.111809
29	0xc1dcc268	-27.594925
30	0xc20c7d9b	-35.12266
31	0xc1c22ee1	-24.27289

lstm.weight_ih_l0_reverse f4 [32, 8]
0	0x41a7b073	20.961157
1	0x40ca2982	6.317567
2	0x4041ce01	3.0281985
3	0x41f9123f	31.13391
4	0x406f8c0e	3.7429233
5	0x40b4f3ae	5.654746
6	0x402a8e59	2.6649382
7	0x4189470b	17.159689
8	0xc01dbd50	-2.4646797
9	0x4187bbf6	16.966778
10	0x40c4852c	6.1412563
11	0xc0854999	-4.165234
12	0x3f17f50a	0.59358275
13	0xc1d2a2dc	-26.329521
14	0x415e9f35	13.913869
15	0x418cc5a5	17.596506
16	0xc10d300b	-8.824229
17	0x41138204	9.219242
18	0x41067c10	8.405289
19	0x41ff3665	31.90156
20	0xc0f21e13	-7.566171
21	0xc076b3bd	-3.8547204
22	0xc08c97c8	-4.393528
23	0x3fd34606	1.6505744
24	0x41d0cb7b	26.099356
25	0xc12ba19f	-10.726958
26	0x41a13830	20.152435
27	0x41c8fb40	25.12268
28	0xc12ec244	-10.922428
29	0x3f9410a8	1.1567583
30	0xc15406e7	-13.251685
31	0x41672a83	14.447879
32	0xc000b68e	-2.0111423
33	0x41f24053	30.281408
34	0x41653934	14.326466
35	0xc0610a64	-3.5162592
36	0x4060af41	3.5106966
37	0x41c806ab	25.003256
38	0xc0333be7	-2.8005311
39	0x3ff14125	1.8848006
40	0x3f5ba121	0.8579274
41	0x41188ecd	9.534863
42	0xc11505f9	-9.313958
43	0xc140c270	-12.04747
44	0xc1194a08	-9.580574
45	0x412bb90a	10.732676
46	0x420cc740	35.19458
47	0x3fedc3ae	1.8575342
48	0xc044afd2	-3.0732312
49	0xc200734b	-32.11259
50	0xc1a357ef	-20.417936
51	0xc055acd1	-3.3386729
52	0xc10d2da2	-8.823641
53	0xc0835b8b	-4.1049247
54	0x41267996	10.404684
55	0x40085f69	2.1308234
56	0x4157b364	13.481297
57	0x40fb5d23	7.855119
58	0x40e7d1b8	7.2443504
59	0x41f1a0fc	30.203606
60	0x3e884bf1	0.2662044
61	0x41ab4d91	21.412874
62	0xc14eddc6	-12.929144
63	0x410edc4f	8.928786
64	0x3c61e060	0.013786405
65	0xbeab6f77	-0.33483478
66	0x3e73b03e	0.237977
67	0x3d82f300	0.06394005
68	0x3e2caab6	0.16861996
69	0x3d589728	0.05287853
70	0xbd7cd4d8	-0.06172642
71	0x3e9827dd	0.29717913
72	0x3c3ca140	0.011513054
73	0x3e4883d2	0.19581535
74	0xbe11a944	-0.14224726
75	0x3d198c20	0.03748715
76	0xbea72631	-0.32646325
77	0xbdfaf956	-0.12254588
78	0xbe909e51	-0.28245786
79	0xbda38ed0	-0.07986224
80	0x3e155210	0.14582086
81	0xbca90230	-0.020630926
82	0xbc793000	-0.015209198
83	0xbd11a780	-0.03556013
84	0x3dbdb2a8	0.092625916
85	0x3d083bc8	0.033260137
86	0xbe836d13	-0.25669155
87	0x3e91ea87	0.28499243
88	0xbda3524c	-0.07974681
89	0x3d722010	0.05911261
90	0xbe073979	-0.13205518
91	0xbd2188b8	-0.039437026
92	0x3ea06973	0.3133045
93	0x3e506476	0.20350823
94	0xbe4ab938	-0.19797218
95	0x3ea3ea5f	0.32014748
96	0xbe20b44d	-0.1569378
97	0xbe4f3e93	-0.20238714
98	0x3e0863fe	0.13319394
99	0xbdda2236	-0.106510565
100	0xbe659169	-0.22418751
101	0x3e9a0f33	0.3008972
102	0xbd92a10c	-0.071596235
103	0xbe5583c0	-0.2085104
104	0x3e80cfe9	0.25158623
105	0xbde930b8	-0.113862455
106	0x3d92e2ac	0.071721405
107	0xbce25110	-0.027626544
108	0x3e5a7dee	0.21337101
109	0xbe78873a	-0.24270335
110	0x3ea879cb	0.3290542
111	0xba4e4600	-0.0007868707
112	0x3e9d1515	0.30680147
113	0x3e6a1556	0.22859702
114	0xbe936409	-0.28787258
115	0xbacf2200	-0.001580298
116	0xbd3f12c8	-0.04664877
117	0xbe69a599	-0.22817077
118	0xbd918f4c	-0.0710741
119	0x3e01809a	0.12646714
120	0x3eaf2387	0.34206793
121	0x3e92d335	0.28676763
122	0x3ea3261d	0.31865016
123	0x3e2ebbf6	0.17063889
124	0xbdb85334	-0.09000245
125	0xbe320e6f	-0.17388318
126	0xbd3cb5d0	-0.046071827
127	0xbe28aed3	-0.1647294
128	0x40f73387	7.72504
129	0xc077ad33	-3.8699462
130	0xc13f072d	-11.939252
131	0xc102aafd	-8.166745
132	0xbf4d7e8d	-0.80271226
133	0xc1293ff3	-10.578113
134	0xc12d9230	-10.84819
135	0x418374f3	16.432104
136	0xc18666a7	-16.800123
137	0x417db8b0	15.85759
138	0xc04ee6eb	-3.232844
139	0x3f99702b	1.1987356
140	0xc1665e0a	-14.397959
141	0xc0725aec	-3.7867994
142	0xc18ab2ee	-17.337368
143	0xbfd32687	-1.6496133
144	0x40b98291	5.7971883
145	0x4147ec48	12.495186
146	0x41d8cf29	27.101152
147	0x40534b85	3.3014843
148	0x403fa7e3	2.994622
149	0xc0d0a834	-6.5205326
150	0xc14d1d70	-12.819687
151	0xbf2e6649	-0.68124825
152	0xc06ab5f1	-3.6673548
153	0x41c3918e	24.446072
154	0x41975d99	18.920702
155	0x414548ae	12.330244
156	0xc0e44623	-7.1335616
157	0x406c8ecc	3.6962156
158	0x3f3d44c9	0.7393308
159	0xc1163a88	-9.38929
160	0x3d0c9028	0.034317166
161	0x4204e2d4	33.22151
162	0xc102e800	-8.181641
163	0x40ffb1a3	7.990434
164	0x3fb5d4b2	1.4205534
165	0x402de632	2.717175
166	0x417ce484	15.80579
167	0x41380371	11.50084
168	0x41ae29dc	21.77044
169	0x40b18168	5.5470467
170	0xbfd1d99c	-1.6394534
171	0x406a04a3	3.656533
172	0xc0fbf095	-7.873118
173	0xc1a0d562	-20.10419
174	0xc1473544	-12.450504
175	0xc0b07b53	-5.515054
176	0x410e9a2e	8.912642
177	0xbfea1d98	-1.8290281
178	0x40986335	4.76211
179	0x40a18341	5.047272
180	0x4102383a	8.138727
181	0x412b3316	10.699972
182	0x415653ed	13.39549
183	0x40505ecd	3.2557862
184	0xc0d108db	-6.532331
185	0xc1926a12	-18.301792
186	0xc1c40e6f	-24.507048
187	0xc19b22b4	-19.391945
188	0xc164ad0f	-14.292251
189	0x3eab0938	0.3340547
190	0xbe9b323b	-0.3031176
191	0x415b577d	13.708859
192	0xc1ffef6a	-31.991901
193	0xc1149f8c	-9.288952
194	0x41ab49d4	21.411049
195	0x411b7650	9.716385
196	0xc168d69f	-14.552398
197	0xc155a3b0	-13.352463
198	0xc1969695	-18.823526
199	0xbdef868e	-0.11695586
200	0x41b6f5e8	22.870071
201	0x414d6afb	12.838618
202	0x40975c5a	4.7300234
203	0x41a73c36	20.9044
204	0xc0eaf498	-7.3423576
205	0xbff41881	-1.9069978
206	0x411e2797	9.8846655
207	0x40b889d0	5.766823
208	0x40c502c3	6.156587
209	0xc116bf68	-9.42173
210	0xc01a1f48	-2.4081593
211	0x418da030	17.703217
212	0xc0ac870b	-5.3914847
213	0xc0980086	-4.750064
214	0xc1c7b723	-24.964422
215	0x41bedd2e	23.857998
216	0x40d81340	6.75235
217	0xc13280a2	-11.1564045
218	0xc0886b00	-4.2630615
219	0xc0cf5717	-6.479381
220	0xc14bec05	-12.745122
221	0xc1fe9f56	-31.8278
222	0x413367cb	11.21284
223	0x40940e3f	4.626739
224	0xc11264b7	-9.149589
225	0xbec66ab3	-0.3875328
226	0x413199fb	11.100093
227	0x41edecf8	29.740707
228	0x414c9b31	12.787889
229	0x3f6976f4	0.91197133
230	0x41078097	8.468894
231	0x4205e427	33.472805
232	0xbe8f7e7d	-0.2802619
233	0xc11f67d9	-9.962853
234	0xc1b2224a	-22.266743
235	0x42336ef8	44.858368
236	0x402a9ab6	2.6656928
237	0x413009cd	11.002393
238	0x3f86a036	1.0517642
239	0xc1810989	-16.129656
240	0xc0b45bc6	-5.636203
241	0x41af4378	21.907944
242	0x40a7890a	5.2354784
243	0x4133fc07	11.24903
244	0x40feabcf	7.9584727
245	0x40946d05	4.638308
246	0xc18596ee	-16.698696
247	0x4120fae4	10.061253
248	0xc1ff9b76	-31.950909
249	0x41a9992f	21.199797
250	0x419a5b87	19.294691
251	0x407b0a62	3.9225087
252	0x40fdfb03	7.936891
253	0x41a5712a	20.680256
254	0xc0a18cc4	-5.0484333
255	0xc1dde778	-27.738022

lstm.weight_hh_l0_reverse f4 [32, 8]
0	0x3defb654	0.11704698
1	0x3d498980	0.049203396
2	0xbeaa75d8	-0.33293033
3	0x3d71c440	0.05902505
4	0x3e21f342	0.15815452
5	0xbd9280b4	-0.071534544
6	0xbe8922a4	-0.2678424
7	0x3e95032f	0.2910399
8	0x3e6d2446	0.23158368
9	0x3d212bd8	0.039348453
10	0xbe868dfc	-0.262802
11	0x3dfe5a80	0.12419605
12	0x3eaff12f	0.34363696
13	0xbc986590	-0.018603116
14	0x3e5cebca	0.21574321
15	0xbe3d251a	-0.18471184
16	0x3df6a378	0.12042898
17	0x3d0f98b8	0.035057753
18	0x3e146d12	0.14494732
19	0xbd359cc0	-0.04433894
20	0xbd8b2860	-0.0679481
21	0xbe77005c	-0.24121231
22	0xbdcd3d3c	-0.10021445
23	0x3e8cd559	0.2750652
24	0xbe2059c2	-0.1565924
25	0xbeabf2ef	-0.3358378
26	0xbbd187c0	-0.0063943565
27	0x3df338c0	0.118760586
28	0xbda96c50	-0.08272612
29	0xbe6f8181	-0.23389246
30	0x3b75ab80	0.0037486255
31	0xbdcc6254	-0.09979692
32	0x3e7123b6	0.23548779
33	0xbdc5860c	-0.09644708
34	0x3e79127e	0.2432346
35	0x3e3ad606	0.18245706
36	0xbe5eb0c8	-0.21747124
37	0xbe3c1f5d	-0.18371339
38	0x3cd373b0	0.025812
39	0xbda0f0d4	-0.07858434
40	0xbe3b7bcd	-0.18308945
41	0x3e0cef84	0.13763243
42	0x3ddb2d04	0.107019454
43	0xbd538180	-0.051637173
44	0x3e20d00a	0.1570436
45	0x3d9f2b4c	0.0777193
46	0x3dc87328	0.09787589
47	0x3d050ba8	0.03248182
48	0xbda6b568	-0.08140069
49	0x3e301262	0.17194512
50	0x3c64b420	0.013958961
51	0x3e837df5	0.25682035
52	0xbd9b1fb8	-0.07574409
53	0x3eb4c3e9	0.35305718
54	0x3de416e4	0.111371785
55	0xbd10f9b0	-0.03539437
56	0x3e4342c6	0.19068441
57	0xbcb2cce0	-0.021826208
58	0x3d830300	0.063970566
59	0xbdd9f352	-0.10642113
60	0x3dbd1448	0.09232384
61	0x3e13d2dc	0.14435905
62	0xbe92ce62	-0.28673083
63	0x3cb98570	0.022646636
64	0xbeae7810	-0.34075975
65	0xbbafb640	-0.005362302
66	0x3e28499a	0.16434327
67	0x3de588c0	0.112077236
68	0x3da0eefc	0.07858083
69	0x3e4b0112	0.19824627
70	0x3d5e9d20	0.054349065
71	0x3e9669d1	0.29377607
72	0xbdd34f30	-0.10317838
73	0xbe07f85c	-0.13278335
74	0xbe589d3c	-0.2115373
75	0xbc0c4720	-0.008561879
76	0x3e1aeb1a	0.15128747
77	0xbc8b0dd0	-0.01697436
78	0xbc556220	-0.013023883
79	0xbdef2b9a	-0.11678238
80	0xbeb29720	-0.34880924
81	0xbea6bb35	-0.32564703
82	0x3e07571a	0.1321682
83	0x3e96bd69	0.29441383
84	0xbe883453	-0.2660242
85	0xbe8a0927	-0.26960108
86	0xbe43d84a	-0.19125476
87	0xbe0b1375	-0.13581641
88	0xbe0f624f	-0.14002346
89	0x3eae3d7f	0.34031293
90	0xbe91c4a4	-0.28470337
91	0xbea360f1	-0.31909898
92	0x3e5bfbc2	0.21482757
93	0xbe14814c	-0.14502448
94	0x3e0eaf48	0.13934052
95	0xbd180ce8	-0.037121683
96	0xbe1ee555	-0.1551717
97	0xbe243664	-0.16036373
98	0x3e3ee372	0.18641451
99	0x3dcdcc58	0.10048741
100	0x3d6a2268	0.05716172
101	0x3c65aa60	0.014017671
102	0xbe9b24c4	-0.30301487
103	0x3e74b452	0.23896912
104	0x3e24e1ee	0.1610181
105	0x3d535b80	0.051600933
106	0xbd51c630	-0.051214397
107	0xbe9812e5	-0.29701915
108	0x3e02a626	0.12758693
109	0xbc0d4480	-0.008622289
110	0xbe193e79	-0.14965238
111	0x3dd1d81c	0.10246298
112	0xbe9fff77	-0.31249592
113	0x3eaf41e9	0.34229973
114	0xbdc4ec28	-0.09615356
115	0x3ea99ddd	0.33128253
116	0x3e92dd65	0.28684536
117	0x3e12cf1a	0.14336815
118	0xbd279470	-0.040913045
119	0x3ccc8c40	0.02496922
120	0xbe922e98	-0.28551173
121	0x3dfa8fbc	0.122344464
122	0xbe0e8e11	-0.13921382
123	0x3dda7074	0.1066598
124	0x3e02a462	0.1275802
125	0x3ea0f9a3	0.31440458
126	0xbe827a0a	-0.25483733
127	0xbdb59d94	-0.08867946
128	0x3d3a4c80	0.045483112
129	0xbdc2eb48	-0.095175326
130	0xbe42fec7	-0.19042502
131	0xbe552059	-0.20813121
132	0xbe209692	-0.15682438
133	0xbdedf228	-0.11618453
134	0xbe80185d	-0.25018588
135	0x3e9f3741	0.31096843
136	0x3d9c8844	0.07643178
137	0x3e8f5215	0.2799231
138	0xbdf8f48c	-0.121560186
139	0xbd92224c	-0.07135448
140	0x3e788946	0.24271116
141	0xbddd8a6e	-0.10817419
142	0xbe59c7a5	-0.21267565
143	0x3e1a854e	0.15089914
144	0x3da9692c	0.08272013
145	0x3e3f2d6e	0.18669674
146	0x3df269d4	0.11836591
147	0xbcf1ce30	-0.029517263
148	0x3e0ca1c2	0.1373358
149	0xbdfb3df8	-0.12267679
150	0xbdc6ac70	-0.097008586
151	0x3d759318	0.059954733
152	0x3c8dd360	0.017312706
153	0x3d339000	0.0438385
154	0x3de527e4	0.11189249
155	0x3eb0cc57	0.345309
156	0xbbd99980	-0.006640613
157	0xbe8a0d05	-0.26963058
158	0xbe924b14	-0.28572905
159	0xbe67e184	-0.22644621
160	0xbd7b1d08	-0.061306983
161	0x3e235796	0.1595138
162	0xbe56beca	-0.20971218
163	0x3e4cd9da	0.20004979
164	0x3e1412d0	0.14460301
165	0x3e33dd5e	0.17564914
166	0x3e932201	0.2873688
167	0xbeac175b	-0.3361157
168	0x3e1c0972	0.15237978
169	0xbcf5bfa0	-0.0299986
170	0xbce0da90	-0.027447969
171	0x3bf9bcc0	0.0076213777
172	0xbe98e270	-0.29860258
173	0x3e3c0b9a	0.183638
174	0x3e8e7db7	0.27830288
175	0xbeb4a6ca	-0.352835
176	0xbe8adfdd	-0.2712392
177	0x3e1c42ba	0.15259829
178	0xbe05e63d	-0.1307611
179	0xbcf33dc0	-0.02969253
180	0xbdaa7bcc	-0.08324394
181	0xbb080900	-0.0020757318
182	0xbe910173	-0.28321418
183	0x3df1c0b8	0.11804336
184	0xbe634292	-0.22193363
185	0xbd74dc30	-0.0597803
186	0xbe5a1636	-0.21297535
187	0xbea0c94e	-0.31403583
188	0x3cf9d830	0.030498594
189	0xbe6c3404	-0.23066717
190	0xbd0945f0	-0.033513963
191	0xbe289d93	-0.1646636
192	0x3e29a9f2	0.16568735
193	0xbe9fd8ce	-0.31220096
194	0xbe23e864	-0.16006619
195	0x3e8c65b7	0.27421352
196	0xbe9ac03a	-0.30224782
197	0x3e40e356	0.18836722
198	0x3cc00310	0.02343896
199	0x3e8db0ed	0.27674046
200	0x3ea0c1a7	0.31397745
201	0x3d358c10	0.044323027
202	0x3eb0da7f	0.345417
203	0xbd8a5224	-0.06753948
204	0x3e691686	0.22762498
205	0xbe8e9529	-0.27848175
206	0x3d1c84e8	0.038212687
207	0xbdd53286	-0.10410027
208	0xbe95225a	-0.2912777
209	0xbe73c7ee	-0.23806736
210	0x3e393e8a	0.18090263
211	0x3dde3004	0.10849002
212	0x3ce42f00	0.027854443
213	0xbc27fc20	-0.010252982
214	0xbe7e9cfe	-0.24864575
215	0xbdadd2f0	-0.08487499
216	0x3e84812f	0.2587981
217	0xbeaa1c8d	-0.33224908
218	0x3de4ea30	0.1117748
219	0xbe57656c	-0.21034783
220	0x3e1a5f7e	0.1507549
221	0x3d9bb378	0.0760259
222	0x3b02d580	0.0019963682
223	0xbe6e2e67	-0.23259889
224	0xbe9a570b	-0.30144534
225	0x3dd40ca8	0.103539765
226	0xbe98d48c	-0.2984966
227	0xbeaf3f16	-0.34227818
228	0x3d016fa8	0.031600624
229	0x3e5e4256	0.21704993
230	0x3df77a60	0.12083888
231	0x3e9993a1	0.29995444
232	0xbe169157	-0.1470388
233	0x3eaf0f99	0.34191588
234	0x3ea8e5b7	0.3298776
235	0xbe30198c	-0.17197245
236	0x3dc4737c	0.095923394
237	0xbddc5fe0	-0.10760474
238	0xbe98625b	-0.2976254
239	0x3eb4a737	0.35283825
240	0xbd6d5448	-0.057941705
241	0x3e2c41d6	0.1682199
242	0x3ea82a93	0.32844982
243	0x3de9dc98	0.11419028
244	0x3eb4a8ed	0.3528513
245	0xbdbcfd9c	-0.0922806
246	0xbe2ca933	-0.1686142
247	0x3ca05f80	0.019576788
248	0x3e20c286	0.15699205
249	0xbe1b6ef1	-0.1517904
250	0x3d208778	0.039191693
251	0x3c9609f0	0.018315285
252	0x3df56198	0.11981505
253	0xbe9ce084	-0.30640042
254	0x3e92b2a1	0.28651908
255	0xbe6e2cd0	-0.23259282

lstm.bias_ih_l0_reverse f4 [32]
0	0xc191aae0	-18.208435
1	0xc15fe9f1	-13.994615
2	0x3f4a3810	0.78991795
3	0xc172f713	-15.185321
4	0xc11a76f6	-9.654043
5	0xc179eaa2	-15.619783
6	0xc2199c94	-38.40291
7	0xc0d685a9	-6.703816
8	0xbe218255	-0.15772374
9	0xbe7acb40	-0.24491596
10	0xbe4bc070	-0.19897628
11	0xbe48db04	-0.19614798
12	0x3d956da8	0.07296306
13	0xbea10557	-0.31449386
14	0xbe047b15	-0.12937577
15	0xbd86b6b8	-0.065778196
16	0xbe8b1d65	-0.27170864
17	0xc04b9c15	-3.1814015
18	0x40ed9082	7.42389
19	0xc00cbf4e	-2.1991763
20	0x406ff327	3.7492158
21	0xc0e6814f	-7.2032847
22	0x3fd940e6	1.697293
23	0xc144544b	-12.270579
24	0xc18a4295	-17.28251
25	0xc0b386d8	-5.6102104
26	0xc20e61b2	-35.595406
27	0xc1837f5d	-16.43719
28	0xc19694ae	-18.822598
29	0xc1f03b28	-30.028885
30	0xc215e494	-37.47322
31	0xc0de1271	-6.939751

lstm.bias_hh_l0_reverse f4 [32]
0	0xc193e382	-18.486088
1	0xc1672051	-14.44539
2	0x3f355600	0.7083435
3	0xc1760a8f	-15.377578
4	0xc1228b2d	-10.158978
5	0xc173a8d2	-15.228716
6	0xc21b506c	-38.828537
7	0xc0dda479	-6.926327
8	0x3e1c8d32	0.15288237
9	0x3e567876	0.2094439
10	0x3ea7af05	0.32750717
11	0x3dbcc09c	0.09216425
12	0x3dae05d4	0.084972054
13	0xbe69df73	-0.22839145
14	0xbe25ec6f	-0.16203474
15	0x3e414b96	0.1887649
16	0xbf02aa9a	-0.5104157
17	0xc0277c6a	-2.6169686
18	0x40f0185c	7.5029736
19	0xc02d2c3e	-2.7058253
20	0x4064c9ef	3.574825
21	0xc0e948cf	-7.290138
22	0x3fc33a09	1.5252086
23	0xc149c9d6	-12.611776
24	0xc1881db6	-17.014507
25	0xc0bcbd43	-5.898103
26	0xc20e9436	-35.644737
27	0xc18722a5	-16.891916
28	0xc19984c2	-19.189823
29	0xc1f2159d	-30.260553
30	0xc2148778	-37.132294
31	0xc0e18234	-7.047144

hidden2tag.weight f4 [878, 16]
0	0xc02db201	-2.7139895
1	0x4093b9ac	4.616415
2	0x3fddac63	1.7318233
3	0x410c3cd5	8.764852
4	0xbf5b5c56	-0.8568777
5	0xc085f8d0	-4.1866226
6	0x402f0770	2.734829
7	0xbe63afbd	-0.22235008
8	0xc008f7ba	-2.14012
9	0x3e239e4c	0.15978354
10	0x408c222b	4.379171
11	0x414df065	12.87119
12	0xc00d7aaf	-2.210613
13	0xbeaad7d7	-0.33367798
14	0x40b678f8	5.7022667
15	0x404087c1	3.0082858
16	0xc03c331d	-2.9406197
17	0x41cc3ffa	25.531239
18	0x3fa23621	1.2672769
19	0x4199657d	19.174555
20	0xc142ad6f	-12.167342
21	0x4164bb9a	14.295801
22	0xbf44d52f	-0.7688779
23	0xc1597914	-13.59206
24	0x416520c6	14.320501
25	0x3f0b6378	0.5444865
26	0x4044eb2b	3.0768535
27	0x41afbee3	21.968206
28	0xc08cffa4	-4.406206
29	0x41392f63	11.574069
30	0x40c9dbb5	6.3080697
31	0xc13e432d	-11.8914
32	0xc1432edd	-12.198941
33	0x41233453	10.200274
34	0x4095425c	4.6643505
35	0x418aad26	17.334545
36	0xc0579199	-3.3682616
37	0xbfd4311a	-1.6577485
38	0xc10c05df	-8.751433
39	0xc0b23078	-5.5684166
40	0x407bfa0a	3.9371362
41	0x4083727a	4.107724
42	0x3e98e64f	0.29863212
43	0x42007a0f	32.119198
44	0xc11b8c1d	-9.721707
45	0x412f6be0	10.963837
46	0x417daf5e	15.855314
47	0x41a13cbe	20.15466
48	0xc151c7cb	-13.111278
49	0x413ec1bb	11.9222975
50	0x418028a8	16.019852
51	0x41b2d6f6	22.354961
52	0x412c60f6	10.773672
53	0xbf2522c2	-0.6450616
54	0xbffe4579	-1.9864951
55	0x3eee2dfb	0.46519455
56	0x406c5b2b	3.6930645
57	0x40909ff9	4.519528
58	0x4037172f	2.86079
59	0x420233d1	32.550602
60	0xc017b920	-2.3706741
61	0x4053495b	3.3013523
62	0x41928f32	18.31992
63	0x41f1665f	30.174986
64	0xc137c9a4	-11.486729
65	0x40a68333	5.2035155
66	0x4137d1e0	11.488739
67	0x417f1f89	15.945199
68	0xc07efa6a	-3.984034
69	0x40f18b0f	7.548225
70	0x3ea5c97a	0.32380277
71	0xc0e675e2	-7.20189
72	0x40588ea8	3.383707
73	0x404ca2b6	3.197431
74	0x40f42dc2	7.6305857
75	0x41f91838	31.136826
76	0xc0d1c1f8	-6.554928
77	0x419d7eac	19.686852
78	0x421c5d4d	39.091114
79	0xc0a5cebd	-5.1814866
80	0xc17d45ea	-15.829569
81	0x411e1483	9.880008
82	0x3f771455	0.965154
83	0x41a53833	20.652441
84	0xc191c6ed	-18.222132
85	0x41515660	13.083588
86	0xc10cdf34	-8.804493
87	0xc0eeb25a	-7.4592714
88	0xc0ac07e8	-5.375965
89	0x40ac56c5	5.385592
90	0x40b2de79	5.5896573
91	0x41e60c3d	28.755976
92	0x4019cc8b	2.4031093
93	0xbfaa1bf0	-1.3289776
94	0x412a85b7	10.657645
95	0x415d4aed	13.830792
96	0xc148dc55	-12.553792
97	0x412c3c7d	10.764768
98	0x40d18b0a	6.5482225
99	0x4196114b	18.758444
100	0xbc73bb70	-0.014876232
101	0x3fca906e	1.5825326
102	0xc0dae598	-6.8405266
103	0xc0b41d9e	-5.6286154
104	0x3ddbb26e	0.10727392
105	0x4070766f	3.7572286
106	0xbfe2fffc	-1.773437
107	0x42052451	33.285465
108	0xc11861bf	-9.523864
109	0x415a5527	13.645789
110	0x417e9865	15.912206
111	0x41b509e7	22.629835
112	0xc1346bf9	-11.2763605
113	0x40ea1755	7.315348
114	0x409e12e3	4.9398055
115	0x41ab1fb1	21.390474
116	0x3fc451d6	1.5337474
117	0x40771cd9	3.8611357
118	0x4092c74d	4.5868287
119	0xc0ab64e3	-5.3560653
120	0x3fe22777	1.7668294
121	0x4080f0e3	4.029405
122	0x411f930b	9.973399
123	0x41d90db3	27.13169
124	0xc10654a0	-8.39566
125	0x41443786	12.263556
126	0x4196fb1b	18.87261
127	0x41c056f7	24.042463
128	0xc14b6b8c	-12.713757
129	0x412bb69b	10.732081
130	0x40d95a68	6.792286
131	0x4194402e	18.531338
132	0x3e0bfe09	0.13671125
133	0x3fa96cc3	1.3236316
134	0xc0f497ea	-7.643544
135	0xc0b2b305	-5.584353
136	0xbf81b8c4	-1.0134511
137	0x406eb3fe	3.7297359
138	0xc02c7a7e	-2.6949763
139	0x420f291d	35.79015
140	0xc114aaaf	-9.291671
141	0x415cd236	13.801321
142	0x41820662	16.253117
143	0x41b53a2f	22.65341
144	0xc13cc66f	-11.798446
145	0x41074279	8.453729
146	0x40ba1609	5.81519
147	0x41949aa3	18.575506
148	0x3f2b2a2c	0.66861224
149	0x402e74b5	2.7258732
150	0xc0851e96	-4.1599836
151	0xc0b0d1ee	-5.525626
152	0xbfc88f99	-1.5668823
153	0x408079bc	4.01486
154	0x3fadce86	1.3578651
155	0x42043a04	33.056656
156	0xc11fe8e1	-9.994355
157	0x419d3457	19.650557
158	0x4193d8ac	18.480797
159	0x41e01907	28.01222
160	0xc1329b63	-11.162936
161	0x4114a3b2	9.289965
162	0x419c8421	19.564516
163	0x41545ba5	13.272374
164	0x41220a9d	10.127591
165	0x4090d1a0	4.525589
166	0xc116a674	-9.415638
167	0xbf5fe3a8	-0.8745675
168	0x415ca5d0	13.790482
169	0x40a66b25	5.200579
170	0xc10d1aae	-8.819014
171	0x420d6e0a	35.35746
172	0x40baecb5	5.841395
173	0x419195ec	18.198204
174	0x41627249	14.152902
175	0x3fcae4eb	1.585111
176	0xc14b2d18	-12.698509
177	0x412bd3fe	10.739256
178	0x40f9dedd	7.808455
179	0x4193a97b	18.457754
180	0x3fabffa2	1.3437388
181	0x3ffb752f	1.9645137
182	0x3c1168cb	0.008875082
183	0xc0af2526	-5.4732847
184	0x3e6263ed	0.22108431
185	0x4086e3ae	4.215293
186	0xbf7223e9	-0.94586045
187	0x4201e947	32.47781
188	0xc1122e9b	-9.136378
189	0x41500a33	13.00249
190	0x41782046	15.507879
191	0x41aab49f	21.338194
192	0xc0d1aca0	-6.5523224
193	0x40b13342	5.537507
194	0x40fdd341	7.932038
195	0x40dbe150	6.871254
196	0xc0084fd6	-2.1298728
197	0x40f48ddd	7.6423173
198	0x410fff61	8.999848
199	0xc11e8b81	-9.909059
200	0x411f94ab	9.973796
201	0x41197fb7	9.59368
202	0x41013966	8.076513
203	0x41adf7f9	21.74608
204	0xc090a4f7	-4.5201373
205	0x419bfb4e	19.497707
206	0x4201061c	32.255966
207	0x40a62579	5.1920743
208	0xc0d79cda	-6.737897
209	0x4101f179	8.121453
210	0x40e854a9	7.2603345
211	0x412c592d	10.771771
212	0xc0bad0e3	-5.837999
213	0x4148a896	12.541159
214	0x40bdcc10	5.93116
215	0xc1097bc6	-8.592718
216	0x407b06d1	3.922291
217	0x40f79235	7.7365975
218	0x4145e729	12.368936
219	0x41cca1a7	25.578932
220	0xc12b77a9	-10.716714
221	0x41a3bdb9	20.467638
222	0x422444f7	41.06735
223	0x40c8e25d	6.277632
224	0xc12ae060	-10.679779
225	0x414a739d	12.653226
226	0x402a1dc0	2.6580658
227	0x41d70018	26.875046
228	0x3fa37734	1.2770753
229	0x4013137d	2.2980645
230	0x411a132c	9.629681
231	0xc0a4da30	-5.151634
232	0x418ea57d	17.830805
233	0x40e1f0d8	7.06065
234	0x40c456df	6.1356044
235	0x41ced718	25.855026
236	0xc1507813	-13.029315
237	0x40f8f1eb	7.779531
238	0x4097f709	4.7489057
239	0x41f0fba1	30.122866
240	0xc111ca72	-9.111925
241	0x4124eb7d	10.307492
242	0x40cb64bf	6.356048
243	0x419e4445	19.783335
244	0x3fb6a333	1.4268554
245	0x404209d1	3.0318491
246	0xc0276ecc	-2.6161375
247	0xc0b45a08	-5.63599
248	0xbe214179	-0.15747632
249	0x409000b7	4.5000873
250	0x403dbf60	2.9648056
251	0x41c63d2b	24.779867
252	0xc1121cfa	-9.132074
253	0x415afe96	13.687155
254	0x41908d62	18.069035
255	0x41b09721	22.073793

hidden2tag.bias f4 [878]
0	0xc21a7516	-38.61434
1	0xc14bc87b	-12.736445
2	0xc0eb2c67	-7.34917
3	0xc1411205	-12.066899
4	0xc0d12b95	-6.53657
5	0xc17c77b4	-15.779224
6	0xc0f72e3b	-7.7243934
7	0xc0d5ea6b	-6.6848655
8	0xc0daeb81	-6.841248
9	0xc0ed5c94	-7.417551
10	0xc12ef61d	-10.935086
11	0xc0e76f2a	-7.23232
12	0xc0d5b46b	-6.6782737
13	0xc101dd87	-8.116584
14	0xc0d273e1	-6.5766454
15	0xc0f90a8b	-7.782537
16	0xc0ce3eee	-6.445182
17	0xc14f7f67	-12.968604
18	0xc15816a3	-13.505527
19	0xc14cc2ac	-12.797527
20	0xc112a68c	-9.165661
21	0xc0f21c96	-7.5659895
22	0xc10877ef	-8.529281
23	0xc0dbc8fb	-6.8682837
24	0xc161c32b	-14.110148
25	0xc0ed3af8	-7.4134483
26	0xc10b9e10	-8.7260895
27	0xc0d07274	-6.5139713
28	0xc1287965	-10.529637
29	0xc0d0ecbf	-6.5288997
30	0xc100eaf2	-8.05736
31	0xc107def1	-8.491929
32	0xc11a12d8	-9.629601
33	0xc0da73e4	-6.826647
34	0xc11bad15	-9.729756
35	0xc117cdba	-9.487726
36	0xc0c7eb55	-6.247477
37	0xc12fc60e	-10.985853
38	0xc27fb325	-63.924946
39	0xc0fd4474	-7.914606
40	0xc1683fe7	-14.515601
41	0xc147f388	-12.496956
42	0xc15ff1e2	-13.996553
43	0xc0eedb3c	-7.464262
44	0xc13f310e	-11.949476
45	0xc16f537b	-14.957881
46	0xc15fb9a2	-13.9828205
47	0xc19692f7	-18.82176
48	0xc0f52ff5	-7.662104
49	0xc1389a38	-11.537651
50	0xc0d1e3b5	-6.5590463
51	0xc15c5655	-13.771077
52	0xc12df404	-10.872074
53	0xc16dbe4f	-14.858962
54	0xc163817b	-14.219111
55	0xc13789d3	-11.4711485
56	0xc14ee090	-12.929825
57	0xc1460f57	-12.378745
58	0xc142f89a	-12.185694
59	0xc19eb603	-19.838873
60	0xc1307b81	-11.030152
61	0xc18ae825	-17.363352
62	0xc1839ac2	-16.450565
63	0xc115b171	-9.355821
64	0xc0cebc80	-6.4605103
65	0xc15774f9	-13.466058
66	0xc0fd9164	-7.923998
67	0xc0c2fba4	-6.093218
68	0xc10ad9fe	-8.678221
69	0xc10fb095	-8.980611
70	0xc12f8e5e	-10.972258
71	0xc13a4092	-11.640764
72	0xc10ca07f	-8.789184
73	0xc1b927cd	-23.144434
74	0xc174216e	-15.258162
75	0xc0e02357	-7.004314
76	0xc177e5cf	-15.493606
77	0xc0d1e53c	-6.5592327
78	0xc1010d6d	-8.065778
79	0xc233f2b0	-44.987
80	0xc176e99e	-15.432035
81	0xc113b4ce	-9.231642
82	0xc17d2aaa	-15.822916
83	0xc1125e8b	-9.148082
84	0xc1364f3b	-11.394343
85	0xc11223d0	-9.133743
86	0xc14670bc	-12.402523
87	0xc1717b92	-15.092669
88	0xc0ffc6e0	-7.9930267
89	0xc19da363	-19.704779
90	0xc15cdc9c	-13.80386
91	0xc17e9924	-15.912388
92	0xc1317ace	-11.092482
93	0xc1490b06	-12.565191
94	0xc0e6168d	-7.190253
95	0xc1d5680d	-26.675806
96	0xc122399c	-10.139065
97	0xc160ed5b	-14.057948
98	0xc183306d	-16.398645
99	0xc1a54069	-20.65645
100	0xc103803b	-8.218806
101	0xc125398c	-10.32655
102	0xc123a1ea	-10.22703
103	0xc12b0e7c	-10.691036
104	0xc107b7e8	-8.482399
105	0xc1728425	-15.157262
106	0xc138330d	-11.512464
107	0xc187b86c	-16.96505
108	0xc1117bfb	-9.092769
109	0xc1729a93	-15.162738
110	0xc174a701	-15.290772
111	0xc15186f7	-13.09545
112	0xc1105087	-9.01966
113	0xc0fa5123	-7.8224044
114	0xc1698d2c	-14.596966
115	0xc18b573d	-17.417597
116	0xc13654c2	-11.395693
117	0xc129383a	-10.576227
118	0xc14bf16e	-12.746443
119	0xc1162827	-9.384803
120	0xc11e4343	-9.891421
121	0xc126dd48	-10.429024
122	0xc17df717	-15.872825
123	0xc11dc382	-9.860231
124	0xc19204a7	-18.252272
125	0xc12b8058	-10.718834
126	0xc101a539	-8.102838
127	0xc1494fc5	-12.581975
128	0xc128b463	-10.54404
129	0xc13f3e0a	-11.952646
130	0xc0fa98ee	-7.831168
131	0xc15524ba	-13.321466
132	0xc1b2abd2	-22.333897
133	0xc1617e9e	-14.093412
134	0xc111b632	-9.106981
135	0xc10c93c6	-8.7860775
136	0xc15a8f3d	-13.65997
137	0xc14ef3f1	-12.934556
138	0xc1071f35	-8.445119
139	0xc16ad814	-14.677753
140	0xc1395502	-11.583254
141	0xc19b23fd	-19.392572
142	0xc13f7b6e	-11.967634
143	0xc17ab0aa	-15.668131
144	0xc1048086	-8.281378
145	0xc0f8e0f7	-7.7774615
146	0xc17df60d	-15.872571
147	0xc153a4b5	-13.227712
148	0xc1191f08	-9.570076
149	0xc194a9c8	-18.582901
150	0xc136a25b	-11.414638
151	0xc1836bc7	-16.427626
152	0xc136c29b	-11.422511
153	0xc0c76b5e	-6.2318563
154	0xc11bee09	-9.745614
155	0xc1731fe0	-15.195282
156	0xc10a0503	-8.626224
157	0xc17af863	-15.685641
158	0xc14c447d	-12.766721
159	0xc1274037	-10.453177
160	0xc163e285	-14.242803
161	0xc10d407b	-8.828242
162	0xc10bf761	-8.747895
163	0xc10dc3ea	-8.860331
164	0xc11165bf	-9.08734
165	0xc1aafe6e	-21.374233
166	0xc11d70b9	-9.84002
167	0xc125a0f4	-10.351795
168	0xc1201467	-10.004981
169	0xc13b8822	-11.720736
170	0xc1452356	-12.321127
171	0xc13e3ac6	-11.889349
172	0xc122bb9a	-10.170801
173	0xc16ccb7f	-14.799682
174	0xc1370efb	-11.441157
175	0xc141b258	-12.106041
176	0xc1209842	-10.037172
177	0xc1809708	-16.073746
178	0xc18fd020	-17.976624
179	0xc11af88c	-9.68568
180	0xc11c4304	-9.766361
181	0xc16cba22	-14.795443
182	0xc12b8a08	-10.721199
183	0xc11cc0da	-9.797083
184	0xc166da6e	-14.428328
185	0xc11a6138	-9.648735
186	0xc1248b3d	-10.283994
187	0xc180ab46	-16.08363
188	0xc1710e48	-15.065987
189	0xc112a29b	-9.164699
190	0xc11faed2	-9.980181
191	0xc161f5bf	-14.122497
192	0xc19193f2	-18.197239
193	0xc13bcb34	-11.73711
194	0xc178f67e	-15.560179
195	0xc12f7c99	-10.967919
196	0xc12c2682	-10.759401
197	0xc14cc955	-12.799153
198	0xc17080ff	-15.031493
199	0xc1609f9a	-14.038965
200	0xc13a128a	-11.629526
201	0xc106119a	-8.379297
202	0xc11f3a7e	-9.95178
203	0xc0eb58ed	-7.354605
204	0xc1627101	-14.152589
205	0xc1626147	-14.148749
206	0xc1453486	-12.325323
207	0xc1e7239e	-28.892391
208	0xc132b50a	-11.169199
209	0xc1181ccd	-9.507031
210	0xc132fe11	-11.187028
211	0xc14421fa	-12.258295
212	0xc11ac5c0	-9.673279
213	0xc1a59130	-20.695892
214	0xc1cf6799	-25.925585
215	0xc1626a2d	-14.150922
216	0xc15763a0	-13.4618225
217	0xc168f975	-14.560903
218	0xc149c8f9	-12.611566
219	0xc153c578	-13.23571
220	0xc17c94ca	-15.786325
221	0xc1e0d008	-28.101578
222	0xc209ebf2	-34.480415
223	0xc13f135f	-11.942229
224	0xc1442296	-12.258444
225	0xc18e51e4	-17.789986
226	0xc172d1a1	-15.176179
227	0xc1095287	-8.582648
228	0xc1568b6c	-13.409039
229	0xc17a55f5	-15.645986
230	0xc1bfb7c3	-23.964727
231	0xc1522584	-13.134159
232	0xc119f61a	-9.622583
233	0xc13a7097	-11.652488
234	0xc1bc93a9	-23.5721
235	0xc12dba7b	-10.858027
236	0xc137ec8a	-11.495249
237	0xc14988f4	-12.595936
238	0xc13a3eaf	-11.640304
239	0xc155af9b	-13.355372
240	0xc11fa024	-9.976597
241	0xc129fb86	-10.623907
242	0xc12be4d3	-10.743365
243	0xc106a1f2	-8.414537
244	0xc12d28b6	-10.822439
245	0xc1440ad9	-12.252648
246	0xc1813905	-16.152842
247	0xc1ba9020	-23.320374
248	0xc111fa8c	-9.123669
249	0xc136e3ac	-11.430584
250	0xc18b76f1	-17.433077
251	0xc1601958	-14.006187
252	0xc149ed84	-12.620487
253	0xc152030f	-13.125747
254	0xc15c6e78	-13.77697
255	0xc14168e1	-12.088105
