model/rnn_model/model19.pth (torch, 76996 bytes, 11 tensors)

word_embeddings.weight f4 [301, 8]
00000000: 2a72 85bf dac3 6dc0 2ab6 8ebf 90fd 1cc1
00000010: 2159 81be 8eb7 eebe 6f00 bb40 cfa1 71c0
00000020: c6a6 4941 ceff 5f3f 7766 7b3e fd88 b740
00000030: eba6 fe40 e2c7 ecc1 3128 4341 4a96 bc41
00000040: acb8 a2c0 2fbd 7bc1 e6bf 03c1 9352 db41
00000050: 2638 8a41 20a0 75c0 1d4c edc0 b5ce 4941
00000060: 3cc2 8f41 2ee6 3340 d54b 4f41 685a a6c0
00000070: 37ae a941 9f06 3a41 6f9c 5ac0 6016 bd41
00000080: 4519 4440 be79 6141 f2c8 01c1 6e29 8941
00000090: 2163 883e 44ee 9941 119f a4c1 1908 0c41
000000a0: 8844 2541 ecc5 86c1 6039 adc1 77e6 9441
000000b0: d770 e8c1 d537 8d40 3a26 e840 33aa dbbf
000000c0: 6e8c 9840 1203 8041 4525 a0c0 a432 23c1
000000d0: 1c50 9341 ff3d cdc0 8907 a9c0 4e3a 14c1
000000e0: 6963 bc40 6807 c241 2242 463e 0820 2241
000000f0: 6700 3541 492b 3941 4256 64c1 b301 7fc1
00000100: 7fc0 4641 adbc a13f 7dc8 b1bf c30b c040
00000110: 1cd4 0140 9e40 b740 4bff 2b3e dca4 dac1
00000120: 09db 1fc0 7982 2341 f82a 5fc1 eed9 c640
00000130: 6606 9141 a737 bc41 fedb 0941 a331 5bc1
00000140: e453 84c0 88e3 9541 3440 f93f 1926 bbc0
00000150: e6a9 bdbf b6bb 23c2 9b75 b141 472d 6541
00000160: c008 cf40 7453 c23f 843f 8dc1 90c0 8741
00000170: d4a9 7c41 2aeb 80c1 ecd9 0740 d3d2 ac41
00000180: cc58 57c1 63a6 17c1 71fc a640 e4e8 2dc1
00000190: 7323 2f41 f83b d5c1 cfb7 e440 3e52 8840
000001a0: eb39 e73f 2b20 8041 7342 36c0 ad4c 2f41
000001b0: 1324 87bf c05c f041 571c ec40 4641 b7bc
000001c0: a376 6ac0 e62d 73c0 9b41 96c1 e24c 7040
000001d0: 0afd 07c1 d5ac d740 9d17 fc40 c705 e9c0
000001e0: fb63 2441 b249 b141 50f0 fc40 0147 2541
000001f0: 734d 8440 1c97 643f 9eb9 99c0 66c3 bcbf
00000200: 0856 b540 bfbf af41 07ed 0641 326f 8f41
00000210: b830 42c0 5a03 a8c1 ed90 a8c1 ba66 0f41
00000220: fc9a 0e41 fac2 0940 6993 f3c0 7338 94c0
00000230: 582a cd41 bc86 28c1 b5e9 72c0 e7af 4041
00000240: 443d 9ec1 321c c6c1 34fc 6fc1 4f86 64c1
00000250: 5863 7840 7c59 1540 704f 69c0 0845 8a41
00000260: 3ba3 8f41 af3f 9141 fad8 63c0 7588 ec41
00000270: 0335 c841 8dac 4040 924b 8abe 008a 3741
00000280: b4a2 7ac0 1bb2 8441 bf34 4e41 98b0 c140
00000290: a444 223f 19f1 8dbf 2f24 9bc0 ceef a641
000002a0: 6009 2fc1 b877 45c1 e6db a0c0 02b7 71c1
000002b0: c4bf 72c0 d551 18bd d6a3 4d40 8686 7240
000002c0: d777 4fc1 5d9e c540 4eaf c1c0 b099 5841
000002d0: 24bc bcc0 1855 9c41 f334 4ec1 8965 5341
000002e0: eef1 05c2 99b0 6641 1546 b941 a34f 3141
000002f0: 6b0d a0c0 0c79 2940 079d 41c1 996b 8d41
00000300: 64a2 8640 067d edc0 6bb7 a441 e7c4 8f41
00000310: 8a25 8c41 69b7 a6c0 71be 62c1 dc2c 6ac1
00000320: 68ed 3bc0 7351 4d41 d075 a641 2d6f 9740
00000330: a6a8 df41 62bb a640 c70b 1241 d70d bb40
00000340: 9f4f 6341 9ebf 02c1 28ab 00c1 7782 923f
00000350: 10f6 fa41 52e3 5040 1efe 1dc1 847f 00c1
00000360: f319 96c0 f657 20c1 4e3b d5c0 b43d 5dc1
00000370: 4622 df3f 4685 21c1 e650 41c1 13e6 a13e
00000380: d4f5 ba41 7e1b cc41 8e58 8fc1 c739 9240
00000390: d4af b9c0 28ef d740 6953 2ac0 2802 a0c0
000003a0: a080 c841 ab44 3440 fc49 5841 720c 073f
000003b0: a68d f840 2588 a0be 5fa2 6ac1 78eb 31c0
000003c0: 7137 5041 04c6 a5bf aa60 ef40 31f7 f4bf
000003d0: 2d5e ee40 3d44 30c1 0728 9040 591e a241
000003e0: cca2 2141 d510 6741 8757 2c40 dbec 6441
000003f0: 95ca 72c1 850e 4e41 8cc1 a9c0 17db 4241
-1.0425465 -3.7150788 -1.1149342 -9.811905 -0.25263312 -0.46624416 5.843803 -3.775501
12.603216 0.874997 0.24550806 5.735472 7.9578757 -29.597599 12.197312 23.573383
-5.085043 -15.733687 -8.23435 27.41532 17.277416 -3.8378983 -7.415541 12.612966
17.969841 2.810924 12.956014 -5.198536 21.210066 11.6266165 -3.415798 23.635925
3.0640423 14.092222 -8.111559 17.14523 0.2663813 19.24134 -20.57767 8.751977
10.329231 -16.846642 -21.653015 18.612532 -29.055098 4.4130654 7.2546663 -1.7161316
4.7671423 16.0015 -5.0045495 -10.199863 18.414116 -6.413818 -5.28217 -9.264235
5.887135 24.253616 0.19361165 10.13282 11.312598 11.573068 -14.271059 -15.937915
12.421996 1.2635704 -1.3889309 6.0014358 2.0285711 5.726638 0.16796605 -27.330498
-2.4977438 10.219354 -13.94799 6.2141027 18.128124 23.527174 8.616209 -13.699618
-4.1352406 18.7361 1.9472718 -5.8484006 -1.4817474 -40.93331 22.182425 14.323554
6.469818 1.5181718 -17.656013 16.969025 15.791462 -16.114826 2.122676 21.602942
-13.459179 -9.478122 5.2183156 -10.869358 10.946155 -26.654282 7.1474376 4.2600393
1.806455 16.015707 -2.8478057 10.95622 -1.0557884 30.045288 7.3784595 -0.022369992
-3.663491 -3.7996764 -18.782034 3.7546926 -8.499277 6.7398477 7.8778825 -7.2819552
10.274409 22.160984 7.904335 10.329835 4.1344543 0.89293075 -4.8039083 -1.4747131
5.666752 21.968626 8.432868 17.929295 -3.0342236 -21.001637 -21.070765 8.96258
8.912838 2.1525254 -7.6117444 -4.631891 25.645676 -10.532894 -3.7955143 12.042945
-19.779915 -24.763767 -14.999073 -14.28279 3.8810635 2.3335867 -3.6454735 17.283707
17.954702 18.156096 -3.5601182 29.56663 25.025885 3.0105317 -0.2701078 11.471191
-3.9161806 16.586966 12.887877 6.052807 0.6338599 -1.1089202 -4.848167 20.867092
-10.939789 -12.341728 -5.026843 -15.10718 -3.7929544 -0.037187416 3.2131248 3.7894607
-12.966758 6.1755815 -6.0526495 13.537521 -5.8979664 19.54155 -12.887927 13.212289
-33.48626 14.418115 23.15922 11.081943 -5.001638 2.648013 -12.100837 17.677538
4.207323 -7.4215117 20.58956 17.971144 17.51833 -5.209889 -14.1714945 -14.635952
-2.9363651 12.832385 20.807526 4.7323213 27.957348 5.210374 9.127875 5.8454394
14.206939 -8.171782 -8.041786 1.1446065 31.370148 3.2638745 -9.87454 -8.031132
-4.6906676 -10.021475 -6.6634893 -13.827564 1.7432334 -10.095037 -12.082251 0.31620845
23.370033 25.513424 -17.91824 4.569553 -5.8027134 6.747944 -2.661341 -5.000263
25.062805 2.8166912 13.518063 0.52753365 7.767291 -0.3135387 -14.664641 -2.7799969
13.0135355 -1.2951055 7.48055 -1.9137937 7.448996 -11.01666 4.504886 20.264818
10.102245 14.441609 2.6928422 14.307826 -15.1744585 12.878545 -5.3048763 12.178489

lstm.weight_ih_l0 f4 [32, 8]
00000000: 130d 4840 0c76 3bc0 3c06 b940 0138 c841
00000010: aada 3e41 77f7 d140 6542 d7c1 d0c8 b541
00000020: 9798 1f41 03c0 f841 2fe1 b740 9364 3940
00000030: 18de 1642 9c1c b1c0 0872 afc0 f00d c441
00000040: 1060 5441 669c cec1 bd74 6641 8d00 6b41
00000050: c618 4b41 34cf 8dc1 bc27 df41 1adf 72bf
00000060: 5a5f fc41 6665 6440 39e3 42c1 5f63 a041
00000070: cb7a 7e41 5ab3 ddc0 25d4 9dc0 14f2 f23f
00000080: 0a9e 7241 8584 8bc1 9cc0 5ec1 64d9 d241
00000090: ffcb 2441 e953 8c41 5bd1 d5c1 1133 7ac1
000000a0: bf82 2dc1 064c 30c1 a729 f640 7a83 2ac1
000000b0: b9b3 0941 350e a8c1 9fdc 7141 764e f641
000000c0: c245 4941 4c6a a1c0 f5f0 e7c1 1a2a fd40
000000d0: 4b14 40c1 13e7 5841 1b58 9641 39ae ca40
000000e0: 038d 0cc2 4247 bdc0 a62f 49c1 9323 5341
000000f0: 4685 06c1 edda 42c1 c158 5ec1 75be 1742
00000100: a791 57be 2467 ddbd 5ece 9fbe 7415 a5be
00000110: bf5c b13e 17a9 2cbe e91c aa3e 79eb 9e3e
00000120: 08d1 453d ef15 81be de37 6a3e 1ca1 b53d
00000130: 66f7 6d3e d483 f1bd a03e 6f3d 4059 be3d
00000140: 86e7 553e ae3a 363e 6042 c53c 505c a3bc
00000150: 0a48 493e 6add 213e e0ee 91bd fcd6 54be
00000160: 1e8c 073e 935d 69be 6edb 1f3e c086 c93d
00000170: 17b4 22be 9820 143d 255c 37be 9585 983e
00000180: 9008 17bd 8dfa a7be a90b 953e ecef be3d
00000190: 86d3 203e a80b 1dbd 6d72 983e ea02 9fbe
000001a0: 00ea 103c 1c45 abbe 4776 11be 9aab 793e
000001b0: 9611 f1bd 3a90 693e e861 553d 889f 95be
000001c0: 77b4 aebe b011 843c 0054 8bbb 73bb 9b3e
000001d0: d0a4 343d 8ef3 4c3e e306 8d3e 18ca 3f3d
000001e0: d82c fbbd 7128 19be d7bd 833e daba 753e
000001f0: a387 933e 2d77 893e 6aac 623e 9887 5c3d
00000200: f649 bfc0 b492 c0c0 d0c6 02c1 38c8 7dc1
00000210: c4fa 08c1 1fbe 6ec0 d6d9 5dc1 82b6 b1c1
00000220: af96 a6c0 dba2 24bf 0f4e a8bf 48ac ba40
00000230: 781f 4d41 8ed8 1a41 77a8 7641 61e6 4fc1
00000240: d1fd 3e41 e9c3 3240 b152 f7c0 3bc6 58c1
00000250: 77c8 99c1 a30e 02c0 31ce 9bc1 1250 1ac1
00000260: fae0 b23f 540c 6fc1 5b63 b041 ba8b d6bf
00000270: 9ff5 9cbf af54 1240 7537 b740 95c9 2c40
00000280: 607b 0cc2 444e 0041 5e77 9bc0 5b4e 89bf
00000290: 07b5 4b41 6c16 7e41 2283 3ec0 5496 adc0
000002a0: 868f 3141 1323 3fbc c3c5 3dc1 58ad 9241
000002b0: 2965 af40 4582 b9c0 89ee d240 5923 fdc0
000002c0: a517 ae40 ef81 15c1 5de2 a0c0 d461 27c1
000002d0: 1575 3dc1 6e8d 0341 257f af41 4e82 b4c1
000002e0: 9edb 06c1 3c03 8840 1a86 0dbe a12f 1241
000002f0: 2355 8bc1 dbb4 14c0 5983 f63f 8cb9 c6c1
00000300: 567d ecc0 385c a6c1 ae19 cb41 93a8 803f
00000310: 9cca 6d41 d2f5 c1c0 22ef 0ec0 5156 0441
00000320: 5f04 c041 09eb fac1 310e 07c2 33af ad41
00000330: 8940 25c0 289d 69c1 7362 a5c1 5e41 d5c0
00000340: 1440 abc0 4da2 7741 20e3 2c3f 72f4 6a41
00000350: 9b0d 4941 9b0b 9841 0754 b0c1 081a 7b41
00000360: a44b 2540 23bf d13e 3e6e 40c0 f472 0c40
00000370: a094 713f d78c 66c1 f1dd 06c2 71c1 4341
00000380: 01a3 3dc1 4965 5440 4f57 fc41 ef88 f83e
00000390: 88c9 c4c0 a4af ca3f f316 1bc1 920c eac1
000003a0: b24f 03c1 ce50 2541 66ac c1c1 c81c 0142
000003b0: e7e9 ba40 ac20 e841 7d16 77c1 3ca0 b1bd
000003c0: 1d7a e140 8855 a441 a2f1 9a41 2eeb 9641
000003d0: ceeb fec0 8d6e a040 a2cf 20c1 0268 d43e
000003e0: 0bd9 a7be 98dd d141 0d81 5e41 619c 1cc0
000003f0: 7166 c241 2189 f5c0 c1f5 b341 b4b1 8b40
3.125798 -2.92908 5.782011 25.027346 11.928385 6.561458 -26.90742 22.723053
9.974753 31.093756 5.746238 2.8967636 37.71689 -5.5347424 -5.48267 24.506805
13.273453 -25.826366 14.403501 14.687634 12.693548 -17.726173 27.894402 -0.94871676
31.546558 3.5686889 -12.180474 20.048521 15.904979 -6.9281435 -4.9321465 1.8980126
15.163584 -17.439707 -13.922024 26.356148 10.299804 17.540972 -26.727224 -15.637467
-10.84442 -11.01856 7.6925845 -10.657099 8.606378 -21.006937 15.116363 30.788311
12.579531 -5.0442257 -28.992655 7.9113894 -12.004954 13.556415 18.79302 6.3337674
-35.137707 -5.9149485 -12.574133 13.196185 -8.407537 -12.178449 -13.896668 37.935993
-0.21051656 -0.10810688 -0.31212133 -0.3224293 0.34641072 -0.16861378 0.33225182 0.31039026
0.04829505 -0.25212047 0.22872874 0.0886862 0.23238906 -0.11792722 0.058409333 0.09294367
0.208891 0.17795822 0.024079502 -0.019941479 0.19656387 0.15807119 -0.0712564 -0.20785135
0.13237044 -0.22789602 0.1561105 0.09840155 -0.15889011 0.036163896 -0.17906244 0.29789415
-0.0368734 -0.32808343 0.29110458 0.09323105 0.1570569 -0.038341194 0.297748 -0.3105691
0.008844852 -0.33451164 -0.14205275 0.24381867 -0.117709324 0.22808924 0.052095324 -0.29223275
-0.3412206 0.016121715 -0.004251957 0.3041645 0.04410249 0.20014784 0.27544317 0.04682359
-0.12264413 -0.14956833 0.25730774 0.2399706 0.2881442 0.26848736 0.22136083 0.05384025
-5.9777784 -6.017908 -8.173538 -15.861382 -8.561222 -3.730354 -13.865683 -22.214115
-5.205894 -0.64311 -1.3148822 5.8335304 12.820183 9.67787 15.416129 -12.993745
11.936967 2.7932074 -7.728844 -13.548396 -19.222883 -2.0321434 -19.47568 -9.644548
1.3974907 -14.94051 22.048513 -1.6761391 -1.2262458 2.2864187 5.7255197 2.6998036
-35.120483 8.019108 -4.858321 -1.0727037 12.731696 15.880474 -2.9767537 -5.4246006
11.09754 -0.011666077 -11.860782 18.33464 5.4810987 -5.797152 6.591618 -7.910565
5.4403863 -9.344222 -5.027632 -10.461384 -11.8410845 8.222029 21.937082 -22.563625
-8.4286175 4.250395 -0.13820687 9.136628 -17.41657 -2.3235385 1.9258834 -24.8406
-7.3903 -20.795029 25.387539 1.0051445 14.861965 -6.0612574 -2.2333455 8.271073
24.002134 -31.364763 -33.76386 21.710546 -2.582064 -14.600868 -20.67307 -6.6642294
-5.351572 15.477124 0.67534065 14.684679 12.565822 19.005667 -22.041029 15.693855
2.5827417 0.40966138 -3.0067286 2.1945162 0.9436741 -14.409385 -33.71674 12.234727
-11.852296 3.318682 31.542631 0.48541972 -6.149601 1.5834851 -9.693103 -29.256138
-8.206957 10.332228 -24.209179 32.278107 5.8410525 29.015953 -15.44299 -0.086731404
7.0461564 20.541763 19.367985 18.864834 -7.9662848 5.013495 -10.050692 0.41485602
-0.32782778 26.2332 13.906507 -2.4470446 24.30002 -7.6729894 22.494997 4.3654423

lstm.weight_hh_l0 f4 [32, 8]
00000000: 2bb5 9a3e 2938 78be 1cb8 ce3d 9216 583e
00000010: 72da 0a3e df54 42be 181d 3bbd b04f 93bc
00000020: e059 f83d 9c68 95be 925d 7b3e 9272 25be
00000030: 9c3e 9ebe 86f6 503e 482a d0bd 006c 943c
00000040: fb15 ac3e 1890 cdbd f045 9bbc e0de 833d
00000050: c8cb 42bd f87f af3d c536 9abe 40cb ddbb
00000060: 7843 ce3d 0076 133c 8bd5 ad3e c535 a13e
00000070: b9bc 2cbe f68e e9bd c698 9bbe 8173 9e3e
00000080: f13e b3be d1f5 5bbe 71f6 97be 30bd 8c3d
00000090: a8ff 023d 907f 013d a869 7b3d 821f 9abe
000000a0: 849e c2bd 505f 1cbd bc23 dfbd efb0 4ebe
000000b0: 633c a0be af9c a03e 3a95 0ebe 62b0 7abe
000000c0: 1cb2 73be a0c9 1ebd 6291 a9be effa a1be
000000d0: 01d4 a13e cf78 b03e 2d6b 903e 60d2 2f3c
000000e0: 5c0f 2ebe a94d 28be bb51 5abe d2c8 88be
000000f0: a051 093c e530 10be 394c 89be 14f4 0cbe
00000100: 364d 4c3e 001b 27bd 043c 823d 5605 543e
00000110: 3eb4 303e 8c1a ccbd 458f 973e 3794 07be
00000120: 45cb 933e 07d0 9d3e 5cd9 6dbe 4820 9dbd
00000130: 30e7 a3bc 1a35 743e f896 13bd 0b0d 4bbe
00000140: ac08 863d 410f 96be 40c2 62be c108 04be
00000150: c0ce 9dbd e555 933e 3533 833e fd55 913e
00000160: d890 17bd 5a5d 4f3e 282b 973d 59c8 803e
00000170: 909e 8bbe aa6a 0d3e 7857 94be 94e6 f83d
00000180: 84e4 8d3d be64 aabe 78ff 56bd 8b6e adbe
00000190: 9979 81be 8093 83bd ccf0 79be 30f5 6cbd
000001a0: fa06 6a3e d814 7fbe cded 15be 5d07 9ebe
000001b0: 1d3d b13e dc68 e53d 225d 8cbe 269e 5fbe
000001c0: f82a b23d 0bc4 b3be 806d 933d 1d09 b2be
000001d0: 531d ae3e 7539 9a3e 20a6 5c3c 2761 913e
000001e0: 1712 aabe 1a4d 8bbe e028 623c 3ec8 7b3e
000001f0: e609 6abe 1504 9fbe 9a6a a2be 6421 c1bd
00000200: 7bc7 aebe bf5d 42be c083 083d 10ed 5dbd
00000210: a234 483e 4e57 a4be 856f 923e c86b 8bbd
00000220: 2490 7abe f897 b0bd 6377 873e abc3 b43e
00000230: 5fbd b3be 4d40 b03e 357a 813e 9f35 a93e
00000240: 75d0 32be d022 05be 2303 983e 113f 963e
00000250: a8c9 45bd 18b0 8f3d de2a 5c3e 00d2 543c
00000260: b77c 913e 10d6 dd3c 1a5e 96be e684 5ebe
00000270: 04c9 d43d ffa2 833e 2c6f 85bd 6b47 ac3e
00000280: a03d ffbc 80b3 96bd e701 abbe fcbb 69be
00000290: 03e4 ae3e 1e69 323e c0a0 80bd 8fcf ac3e
000002a0: f096 ed3d 987f 7cbd 62e8 a3be 2920 963e
000002b0: 81e0 b43e 07bc 50be 3e1b 7dbe 88fa 67bd
000002c0: 01fc 68be 1011 803c 821f 6d3e e53c 9c3e
000002d0: 502a 823c b095 52bd 102d 9fbe c65b 223e
000002e0: 5d7d 97be e010 b8bc 9b52 acbe d076 26bd
000002f0: 58b1 1a3d 85db 64be ec7d 833d 646c 833d
00000300: eb9c 27be 73c8 38be 4d5b b4be acb2 e9bd
00000310: 5a23 5c3e 0024 3ebd cc7b 5fbe f058 b1bd
00000320: f1c7 94be 694f 803e 6d01 803e c02c a1bb
00000330: 23fc a63e 6292 0dbe 35a1 53be 500f 96bc
00000340: 2ed0 3e3e 6036 fe3d 000d 88ba 26e7 7e3e
00000350: d030 93bc 8a5e 1a3e 961c 89be 30eb edbc
00000360: 96dc 5fbe b833 52bd 96ae 87be e606 5e3e
00000370: bc14 aabe 7064 3ebd 5321 82be 8064 03bb
00000380: 6f85 9e3e 8c88 9bbd da5a 80be 546c 09be
00000390: 2c29 8bbd 689c 253d 737a a53e 3eb1 6dbe
000003a0: fd27 6dbe 5199 a6be fda3 29be 4b43 10be
000003b0: 08a7 04bd ba15 633e 0f3b 8a3e 02a0 123e
000003c0: 2061 4a3c 34f6 f93d 7c19 8cbe cc51 b2be
000003d0: 04b6 b6bd 1818 aabd 3752 a63e 2038 06bc
000003e0: 5e45 133e 21f7 0ebe b0b6 b1be 68ba 48bd
000003f0: 3087 07be 530f ad3e 00ee 453d 47c3 25be
0.30216345 -0.24240173 0.1009371 0.2110236 0.13559893 -0.18977688 -0.045682043 -0.017982334
0.12126517 -0.29181373 0.24547413 -0.16156986 -0.30907142 0.20406541 -0.101643145 0.018117905
0.3361052 -0.10037249 -0.018954247 0.064389944 -0.047557622 0.0856933 -0.3011991 -0.006768614
0.100714624 0.009000301 0.33951983 0.31486335 -0.16868867 -0.11404221 -0.30389994 0.30947497
-0.35008958 -0.2148049 -0.29680207 0.06872022 0.031982094 0.031615794 0.06138006 -0.30102164
-0.09502891 -0.038176835 -0.10895488 -0.20184682 -0.3129607 0.3136954 -0.13924113 -0.24481347
-0.23798412 -0.038766503 -0.3311873 -0.3163676 0.3160706 0.3446717 0.2820677 0.01073131
-0.16998047 -0.16435875 -0.2132024 -0.26715714 0.008381277 -0.14081152 -0.26815966 -0.13764983
0.19951329 -0.040797234 0.06359103 0.2070516 0.17256257 -0.09966001 0.29601493 -0.13240133
0.2886602 0.30822775 -0.23227447 -0.07672173 -0.0200077 0.23848382 -0.036032647 -0.19829194
0.06544623 -0.29308513 -0.22144413 -0.12893964 -0.0770545 0.2877647 0.25625005 0.28385916
-0.03700337 0.20250455 0.07381278 0.25152853 -0.2726941 0.1381022 -0.28972983 0.12153354
0.069283515 -0.33279985 -0.052489728 -0.338734 -0.25288084 -0.06424618 -0.24408263 -0.057851017
0.22854224 -0.24910295 -0.14641495 -0.30864993 0.34616938 0.11201641 -0.27414805 -0.21837673
0.08699602 -0.35110506 0.0719862 -0.34772578 0.34006748 0.3012196 0.013467342 0.28394434
-0.33216926 -0.2720726 0.013803691 0.24588105 -0.22855338 -0.31057802 -0.31721956 -0.09430197
-0.34136567 -0.18981074 0.03332877 -0.05418116 0.19551328 -0.32097858 0.28600708 -0.06807667
-0.24469048 -0.08622736 0.26458272 0.35305533 -0.35105416 0.34424058 0.2528855 0.33048722
-0.17462333 -0.13001561 0.29689893 0.2934499 -0.048288018 0.07016009 0.21500728 0.012989521
0.28415462 0.027079612 -0.2936867 -0.21730384 0.10389903 0.25710294 -0.06515345 0.33648238
-0.031157315 -0.07358456 -0.3339989 -0.22825617 0.34158334 0.17422912 -0.06280661 0.33752105
0.11601055 -0.06164512 -0.32013232 0.2932141 0.35327533 -0.20384227 -0.24717423 -0.05663541
-0.22752382 0.015633136 0.2315655 0.3051521 0.015889317 -0.051412284 -0.31089067 0.15855321
-0.29587832 -0.022468984 -0.33656773 -0.040640652 0.037766784 -0.22349365 0.06420502 0.06417158
-0.16368453 -0.18045215 -0.35225907 -0.11411032 0.2149786 -0.04642105 -0.21824569 -0.086595416
-0.29058793 0.25060585 0.25001088 -0.0049186647 0.3261424 -0.13825372 -0.20666964 -0.018317848
0.18634102 0.12412715 -0.0010379851 0.24892864 -0.017967612 0.15075126 -0.26779622 -0.02904281
-0.2186149 -0.051318854 -0.26500386 0.21682319 -0.33218944 -0.046482503 -0.2541605 -0.0020048916
0.30961177 -0.075944036 -0.25069314 -0.1342023 -0.06794962 0.040432364 0.32319984 -0.23212144
-0.23159786 -0.32538846 -0.16566463 -0.1408817 -0.032385856 0.22176257 0.26998183 0.1431885
0.012352258 0.12205163 -0.27363193 -0.3482803 -0.089214355 -0.08305377 0.324846 -0.008192092
0.1438193 -0.1396146 -0.34709692 -0.049005896 -0.13235164 0.33800754 0.048322678 -0.16187774

lstm.bias_ih_l0 f4 [32]
00000000: 43f4 9440 22c4 4ac1 c7dd 49c1 962c 05c2
00000010: 774c 92c1 f685 88c1 33f9 0cc2 9396 dfc0
00000020: e54d 28be 3f68 a33e c026 9e3b a058 a0be
00000030: ec66 91bd 84bb 3bbe 4264 95be 40ad 85bd
00000040: 6400 9740 41a3 a6c0 8629 89c1 6f41 67c1
00000050: 9a2f 44c1 73a6 c540 addb 72bf 1b30 9b3d
00000060: 6e42 43c1 3b95 43c1 da11 d6c1 02db 1b3f
00000070: dd00 13c0 3539 04c2 36b9 10c2 143f eec1
4.654817 -12.672884 -12.616645 -33.29354 -18.287336 -17.06541 -35.24336 -6.9871306
-0.16435964 0.3191547 0.0048263967 -0.31317616 -0.07099709 -0.1833325 -0.29178053 -0.065271854
4.7187977 -5.2074285 -17.145275 -14.453475 -12.261621 6.1765685 -0.9486645 0.07577535
-12.203718 -12.223933 -26.758717 0.60881054 -2.2969277 -33.055866 -36.18087 -29.7808

lstm.bias_hh_l0 f4 [32]
00000000: eda9 9040 3661 51c1 0da4 4ec1 95eb 05c2
00000010: 9439 96c1 3854 88c1 e930 0ec2 d316 dfc0
00000020: 3497 803d 5c9c adbd 736e 893e f479 1ebe
00000030: 1895 dabd b37c 8bbe f699 20be 507f f13d
00000040: be5f 8f40 a863 95c0 8f22 8bc1 662a 6ac1
00000050: d09e 45c1 b455 ba40 6d69 6cbf a447 53be
00000060: e492 42c1 fbb2 42c1 0a97 d7c1 b26e 2c3f
00000070: f2e7 dfbf 7ed5 05c2 2404 11c2 a8bc ecc1
4.520743 -13.086233 -12.915051 -33.48006 -18.778114 -17.041122 -35.547764 -6.971536
0.0627884 -0.08477089 0.2684208 -0.15476209 -0.106729686 -0.27243575 -0.15683731 0.11791861
4.4804373 -4.668415 -17.391874 -14.635351 -12.351273 5.822962 -0.92348367 -0.20632797
-12.160862 -12.168696 -26.94875 0.6735641 -1.7492659 -33.45849 -36.254044 -29.592117

lstm.weight_ih_l0_reverse f4 [32, 8]
00000000: a1d3 a741 9192 ca40 f81e 1541 4b64 f941
00000010: 9274 6d40 0206 b940 4942 2c40 48a7 2b41
00000020: 1f26 d8c0 af10 bc41 4143 0341 d19d 5cc1
00000030: 82d8 d540 ea3f 6fc1 d42b 8c41 3b4c 7741
00000040: 20da c3c0 e01d ba40 4fde 5741 1e5d 0742
00000050: 57d8 1ac1 b076 3bc0 7fae 03c1 5e65 97bf
00000060: c0f8 e641 bcd6 fec0 0455 dc41 2fcc 1142
00000070: ba17 fdc0 245e 0c41 7a58 0bc1 bacb 8240
00000080: bbb6 00c0 4c40 f241 4b39 6541 760a 61c0
00000090: 29af 6040 ab06 c841 2a3c 33c0 2941 f13f
000000a0: b31e 9fc0 7103 d040 cdc1 c2c0 bf04 76c1
000000b0: 19a7 43c1 9359 e040 04f7 ef41 bfe9 aa3f
000000c0: 439c 643f cdcc fac1 80ec d1c1 349d 3bc0
000000d0: 2a17 20c1 e21c ddbf c837 2b41 570a af40
000000e0: 40e0 2441 b581 3041 8a2b 8240 7737 d841
000000f0: 1a54 5c40 76e4 9141 71d8 80c1 81af 4141
00000100: 60e0 613c 776f abbe 3eb0 733e 00f3 823d
00000110: b6aa 2c3e 2897 583d d8d4 7cbd dd27 983e
00000120: 40a1 3c3c d283 483e 44a9 11be 208c 193d
00000130: 3126 a7be 56f9 fabd 519e 90be d08e a3bd
00000140: 1052 153e 3002 a9bc 0030 79bc 80a7 11bd
00000150: a8b2 bd3d c83b 083d 136d 83be 87ea 913e
00000160: 4c52 a3bd 1020 723d 7939 07be b888 21bd
00000170: 7369 a03e 7664 503e 38b9 4abe 5fea a33e
00000180: 4db4 20be 933e 4fbe fe63 083e 3622 dabd
00000190: 6991 65be 330f 9a3e 0ca1 92bd c083 55be
000001a0: e9cf 803e b830 e9bd ace2 923d 1051 e2bc
000001b0: ee7d 5a3e 3a87 78be cb79 a83e 0046 4eba
000001c0: 1515 9d3e 5615 6a3e 0964 93be 0022 cfba
000001d0: c812 3fbd 99a5 69be 4c8f 91bd 9a80 013e
000001e0: 8723 af3e 35d3 923e 1d26 a33e f6bb 2e3e
000001f0: 3453 b8bd 6f0e 32be d0b5 3cbd d3ae 28be
00000200: 0476 b540 7dbc 70c0 b8fd 64c1 b61d 05c1
00000210: be63 0240 2a89 46c1 ca59 53c1 4b1a 5841
00000220: a766 86c1 b0b8 7d41 ebe6 4ec0 2b70 993f
00000230: 0a5e 66c1 ec5a 72c0 eeb2 8ac1 8726 d3bf
00000240: 8847 7a41 050a 1d41 adc7 0242 09f8 ba40
00000250: f22b 7fbf 393c 0cc0 d5df 15c1 f890 1440
00000260: e8cc 92c0 87d1 4741 a3d5 c341 d81c 8841
00000270: c8b4 63c1 41cb 49bf d3f5 be40 071c 7bc1
00000280: 7249 0140 74a3 f541 e666 36c1 b46a a540
00000290: 11b8 efbf 8d01 59be 8839 9241 0969 7241
000002a0: dc29 ae41 6881 b140 9cd9 d1bf a304 6a40
000002b0: 95f0 fbc0 62d5 a0c1 4435 47c1 537b b0c0
000002c0: 2e9a 0e41 981d eabf 3563 9840 4183 a140
000002d0: 3a38 0241 1633 2b41 ed53 5641 cd5e 5040
000002e0: db08 d1c0 126a 92c1 6f0e c4c1 b422 9bc1
000002f0: 0fad 64c1 3809 ab3e 3b32 9bbe 7d57 5b41
00000300: 6b64 fac1 82c3 90c1 b00a d141 d82b da40
00000310: 1d64 b5c1 4048 94c1 93ef d0c1 e496 c4c0
00000320: 326b a041 0411 9441 f85a 72c0 f6b9 be41
00000330: 95ba 4fc1 db2f ec3f efbc 9641 251b ef40
00000340: 534d 5f41 2866 9ac1 9c71 1ac1 cca0 7441
00000350: 7ccb 8bc0 41cb 4cc1 48b8 d8c1 6b3b 6b41
00000360: 454b d340 e892 06c1 829f 4dc1 231c 09c0
00000370: 19b0 a0c0 91c6 e4c1 d76e 2d41 5f0a 8741
00000380: e08d 2fc1 a8a1 a93f c6ae 4641 a3d4 e041
00000390: 6afd 6641 b96b ac3f e855 1d41 b3e1 0342
000003a0: 216f 0dc0 5167 cdc0 a4b1 9ec1 8f4a 4242
000003b0: 02e8 b63f c153 5441 0a77 a140 64b8 54c1
000003c0: 4a09 e8c0 6ad9 c241 30e4 1541 0ec4 f340
000003d0: f0e0 4d41 cdaf 9340 376f 8cc1 3062 0f41
000003e0: ce9e efc1 87ed 8b41 a107 b541 9f24 8c40
000003f0: 478e 6541 5e45 b141 c2fc 22c1 2088 04c2
20.978334 6.3303914 9.320061 31.173971 3.71024 5.7819834 2.6915457 10.72834
-6.7546535 23.508146 8.203919 -13.788529 6.682679 -14.953104 17.5214 15.456111
-6.1203766 5.816147 13.491775 33.840935 -9.677817 -2.929119 -8.230102 -1.182781
28.87146 -7.9637127 27.541512 36.449398 -7.9091463 8.772984 -8.709101 4.087369
-2.011153 30.281395 14.326488 -3.5162635 3.510691 25.003256 -2.8005471 1.884801
-4.9724975 6.50042 -6.0861573 -15.376159 -12.228295 7.0109344 29.995613 1.3352584
0.89300936 -31.35 -26.240479 -2.93147 -10.005655 -1.7274439 10.701118 5.470012
10.304749 11.031667 4.067815 27.027082 3.4426332 18.236553 -16.105684 12.105348
0.013786405 -0.33483478 0.237977 0.06394005 0.16861996 0.05287853 -0.06172642 0.29717913
0.011513054 0.19581535 -0.14224726 0.03748715 -0.32646325 -0.12254588 -0.28245786 -0.07986224
0.14582086 -0.020630926 -0.015209198 -0.03556013 0.092625916 0.033260137 -0.25669155 0.28499243
-0.07974681 0.05911261 -0.13205518 -0.039437026 0.3133045 0.20350823 -0.19797218 0.32014748
-0.1569378 -0.20238714 0.13319394 -0.106510565 -0.22418751 0.3008972 -0.071596235 -0.2085104
0.25158623 -0.113862455 0.071721405 -0.027626544 0.21337101 -0.24270335 0.3290542 -0.0007868707
0.30680147 0.22859702 -0.28787258 -0.001580298 -0.04664877 -0.22817077 -0.0710741 0.12646714
0.34206793 0.28676763 0.31865016 0.17063889 -0.09000245 -0.17388318 -0.046071827 -0.1647294
5.670656 -3.7615044 -14.311943 -8.319754 2.0373378 -12.408487 -13.209421 13.506419
-16.800123 15.85759 -3.232844 1.1987356 -14.397959 -3.7867994 -17.337368 -1.6496133
15.642464 9.814946 32.694996 5.8427777 -0.9967643 -2.1911757 -9.3671465 2.3213482
-4.587513 12.488654 24.479315 17.014084 -14.231636 -0.78825766 5.967508 -15.694343
2.0201077 30.704811 -11.400122 5.1692753 -1.8728048 -0.21191998 18.278091 15.150643
21.77044 5.5470467 -1.6394534 3.656533 -7.873118 -20.10419 -12.450504 -5.515054
8.912642 -1.8290281 4.76211 5.047272 8.138727 10.699972 13.39549 3.2557862
-6.532331 -18.301792 -24.507048 -19.391945 -14.292251 0.3340547 -0.3031176 13.708859
-31.299032 -18.095463 26.130219 6.817852 -22.673883 -18.535278 -26.11698 -6.1434193
20.052341 18.508308 -3.7868023 23.840801 -12.983052 1.8452104 18.842253 7.4720635
13.956378 -19.299881 -9.652737 15.289257 -4.3685894 -12.799623 -27.089981 14.702006
6.602938 -8.410866 -12.851442 -2.1423423 -5.0214963 -28.596956 10.8395605 16.880064
-10.972137 1.3252459 12.417669 28.103827 14.436869 1.3470374 9.833473 32.97041
-2.2099078 -6.418862 -19.836739 48.57281 1.4289553 13.270448 5.045781 -13.295017
-7.251134 24.35616 9.36821 7.6176825 12.867416 4.61521 -17.554304 8.961472
-29.952541 17.49098 22.628725 4.3794703 14.347236 22.15887 -10.186708 -33.132935

lstm.weight_hh_l0_reverse f4 [32, 8]
00000000: 54b6 ef3d 8089 493d d875 aabe 40c4 713d
00000010: 42f3 213e b480 92bd a422 89be 2f03 953e
00000020: 4624 6d3e d82b 213d fc8d 86be 805a fe3d
00000030: 2ff1 af3e 9065 98bc caeb 5c3e 1a25 3dbe
00000040: 78a3 f63d b898 0f3d 126d 143e c09c 35bd
00000050: 6028 8bbd 5c00 77be 3c3d cdbd 59d5 8c3e
00000060: c259 20be eff2 abbe c087 d1bb c038 f33d
00000070: 506c a9bd 8181 6fbe 80ab 753b 5462 ccbd
00000080: b623 713e 0c86 c5bd 7e12 793e 06d6 3a3e
00000090: c8b0 5ebe 5d1f 3cbe b073 d33c d4f0 a0bd
000000a0: cd7b 3bbe 84ef 0c3e 042d db3d 8081 53bd
000000b0: 0ad0 203e 4c2b 9f3d 2873 c83d a80b 053d
000000c0: 68b5 a6bd 6212 303e 20b4 643c f57d 833e
000000d0: b81f 9bbd e9c3 b43e e416 e43d b0f9 10bd
000000e0: c642 433e e0cc b2bc 0003 833d 52f3 d9bd
000000f0: 4814 bd3d dcd2 133e 62ce 92be 7085 b93c
00000100: 1078 aebe 40b6 afbb 9a49 283e c088 e53d
00000110: fcee a03d 1201 4b3e 209d 5e3d d169 963e
00000120: 304f d3bd 5cf8 07be 3c9d 58be 2047 0cbc
00000130: 1aeb 1a3e d00d 8bbc 2062 55bc 9a2b efbd
00000140: 2097 b2be 35bb a6be 1a57 073e 69bd 963e
00000150: 5334 88be 2709 8abe 4ad8 43be 7513 0bbe
00000160: 4f62 0fbe 7f3d ae3e a4c4 91be f160 a3be
00000170: c2fb 5b3e 4c81 14be 48af 0e3e e80c 18bd
00000180: 55e5 1ebe 6436 24be 72e3 3e3e 58cc cd3d
00000190: 6822 6a3d 60aa 653c c424 9bbe 52b4 743e
000001a0: eee1 243e 805b 533d 30c6 51bd e512 98be
000001b0: 26a6 023e 8044 0dbc 793e 19be 1cd8 d13d
000001c0: 77ff 9fbe e941 af3e 28ec c4bd dd9d a93e
000001d0: 65dd 923e 1acf 123e 7094 27bd 408c cc3c
000001e0: 982e 92be bc8f fa3d 118e 0ebe 7470 da3d
000001f0: 62a4 023e a3f9 a03e 0a7a 82be 949d b5bd
00000200: 804c 3a3d 48eb c2bd c7fe 42be 5920 55be
00000210: 9296 20be 28f2 edbd 5d18 80be 4137 9f3e
00000220: 4488 9c3d 1552 8f3e 8cf4 f8bd 4c22 92bd
00000230: 4689 783e 6e8a ddbd a5c7 59be 4e85 1a3e
00000240: 2c69 a93d 6e2d 3f3e d469 f23d 30ce f1bc
00000250: c2a1 0c3e f83d fbbd 70ac c6bd 1893 753d
00000260: 60d3 8d3c 0090 333d e427 e53d 57cc b03e
00000270: 8099 d9bb 050d 8abe 144b 92be 84e1 67be
00000280: 081d 7bbd 9657 233e cabe 56be dad9 4c3e
00000290: d012 143e 5edd 333e 0122 933e 5b17 acbe
000002a0: 7209 1c3e a0bf f5bc 90da e0bc c0bc f93b
000002b0: 70e2 98be 9a0b 3c3e b77d 8e3e caa6 b4be
000002c0: dddf 8abe ba42 1c3e 3de6 05be c03d f3bc
000002d0: cc7b aabd 0009 08bb 7301 91be b8c0 f13d
000002e0: 9242 63be 30dc 74bd 3616 5abe 4ec9 a0be
000002f0: 30d8 f93c 0434 6cbe f045 09bd 939d 28be
00000300: f2a9 293e ced8 9fbe 64e8 23be b765 8c3e
00000310: 3ac0 9abe 56e3 403e 1003 c03c edb0 8d3e
00000320: a7c1 a03e 108c 353d 7fda b03e 2452 8abd
00000330: 8616 693e 2995 8ebe e884 1c3d 8632 d5bd
00000340: 5a22 95be eec7 73be 8a3e 393e 0430 de3d
00000350: 002f e43c 20fc 27bc fe9c 7ebe f0d2 adbd
00000360: 2f81 843e 8d1c aabe 30ea e43d 6c65 57be
00000370: 7e5f 1a3e 78b3 9b3d 80d5 023b 672e 6ebe
00000380: 0b57 9abe a80c d43d 8cd4 98be 163f afbe
00000390: a86f 013d 5642 5e3e 607a f73d a193 993e
000003a0: 5791 16be 990f af3e b7e5 a83e 8c19 30be
000003b0: 7c73 c43d e05f dcbd 5b62 98be 37a7 b43e
000003c0: 4854 6dbd d641 2c3e 932a a83e 98dc e93d
000003d0: eda8 b43e 9cfd bcbd 33a9 2cbe 805f a03c
000003e0: 86c2 203e f16e 1bbe 7887 203d f009 963c
000003f0: 9861 f53d 84e0 9cbe a1b2 923e d02c 6ebe
0.11704698 0.049203396 -0.33293033 0.05902505 0.15815452 -0.071534544 -0.2678424 0.2910399
0.23158368 0.039348453 -0.262802 0.12419605 0.34363696 -0.018603116 0.21574321 -0.18471184
0.12042898 0.035057753 0.14494732 -0.04433894 -0.0679481 -0.24121231 -0.10021445 0.2750652
-0.1565924 -0.3358378 -0.0063943565 0.118760586 -0.08272612 -0.23389246 0.0037486255 -0.09979692
0.23548779 -0.09644708 0.2432346 0.18245706 -0.21747124 -0.18371339 0.025812 -0.07858434
-0.18308945 0.13763243 0.107019454 -0.051637173 0.1570436 0.0777193 0.09787589 0.03248182
-0.08140069 0.17194512 0.013958961 0.25682035 -0.07574409 0.35305718 0.111371785 -0.03539437
0.19068441 -0.021826208 0.063970566 -0.10642113 0.09232384 0.14435905 -0.28673083 0.022646636
-0.34075975 -0.005362302 0.16434327 0.112077236 0.07858083 0.19824627 0.054349065 0.29377607
-0.10317838 -0.13278335 -0.2115373 -0.008561879 0.15128747 -0.01697436 -0.013023883 -0.11678238
-0.34880924 -0.32564703 0.1321682 0.29441383 -0.2660242 -0.26960108 -0.19125476 -0.13581641
-0.14002346 0.34031293 -0.28470337 -0.31909898 0.21482757 -0.14502448 0.13934052 -0.037121683
-0.1551717 -0.16036373 0.18641451 0.10048741 0.05716172 0.014017671 -0.30301487 0.23896912
0.1610181 0.051600933 -0.051214397 -0.29701915 0.12758693 -0.008622289 -0.14965238 0.10246298
-0.31249592 0.34229973 -0.09615356 0.33128253 0.28684536 0.14336815 -0.040913045 0.02496922
-0.28551173 0.122344464 -0.13921382 0.1066598 0.1275802 0.31440458 -0.25483733 -0.08867946
0.045483112 -0.095175326 -0.19042502 -0.20813121 -0.15682438 -0.11618453 -0.25018588 0.31096843
0.07643178 0.2799231 -0.121560186 -0.07135448 0.24271116 -0.10817419 -0.21267565 0.15089914
0.08272013 0.18669674 0.11836591 -0.029517263 0.1373358 -0.12267679 -0.097008586 0.059954733
0.017312706 0.0438385 0.11189249 0.345309 -0.006640613 -0.26963058 -0.28572905 -0.22644621
-0.061306983 0.1595138 -0.20971218 0.20004979 0.14460301 0.17564914 0.2873688 -0.3361157
0.15237978 -0.0299986 -0.027447969 0.0076213777 -0.29860258 0.183638 0.27830288 -0.352835
-0.2712392 0.15259829 -0.1307611 -0.02969253 -0.08324394 -0.0020757318 -0.28321418 0.11804336
-0.22193363 -0.0597803 -0.21297535 -0.31403583 0.030498594 -0.23066717 -0.033513963 -0.1646636
0.16568735 -0.31220096 -0.16006619 0.27421352 -0.30224782 0.18836722 0.02343896 0.27674046
0.31397745 0.044323027 0.345417 -0.06753948 0.22762498 -0.27848175 0.038212687 -0.10410027
-0.2912777 -0.23806736 0.18090263 0.10849002 0.027854443 -0.010252982 -0.24864575 -0.08487499
0.2587981 -0.33224908 0.1117748 -0.21034783 0.1507549 0.0760259 0.0019963682 -0.23259889
-0.30144534 0.103539765 -0.2984966 -0.34227818 0.031600624 0.21704993 0.12083888 0.29995444
-0.1470388 0.34191588 0.3298776 -0.17197245 0.095923394 -0.10760474 -0.2976254 0.35283825
-0.057941705 0.1682199 0.32844982 0.11419028 0.3528513 -0.0922806 -0.1686142 0.019576788
0.15699205 -0.1517904 0.039191693 0.018315285 0.11981505 -0.30640042 0.28651908 -0.23259282

lstm.bias_ih_l0_reverse f4 [32]
00000000: a205 92c1 389b 95c1 1bf0 9f40 0f2b bac1
00000010: f676 1ac1 044b 9dc1 bf2f 14c2 ec14 1ec1
00000020: 5582 21be 40cb 7abe 70c0 4bbe 04db 48be
00000030: a86d 953d 5705 a1be 157b 04be b8b6 86bd
00000040: 8bab 90bf 159c 4bc0 b0e4 2541 174b 6d40
00000050: f83b 483f 4f81 e6c0 e640 d93f 4b54 44c1
00000060: 627d a9c1 ef9a bdc0 1827 21c2 2563 9bc1
00000070: c5a8 94c1 e5e2 07c2 6c42 1dc2 7e5f b5c0
-18.25275 -18.70079 4.9980597 -23.271025 -9.654043 -19.661629 -37.046627 -9.880108
-0.15772374 -0.24491596 -0.19897628 -0.19614798 0.07296306 -0.31449386 -0.12937577 -0.065778196
-1.1302351 -3.1814015 10.368332 3.7077081 0.78216505 -7.2032847 1.697293 -12.270579
-21.186222 -5.925163 -40.288177 -19.42341 -18.582407 -33.971577 -39.314865 -5.6679068

lstm.bias_hh_l0_reverse f4 [32]
00000000: 443e 94c1 6836 99c1 5353 9d40 cdb4 bbc1
00000010: 2d8b 22c1 1c2a 9ac1 97e3 15c2 55a4 21c1
00000020: 328d 1c3e 7678 563e 05af a73e 9cc0 bc3d
00000030: d405 ae3d 73df 69be 6fec 25be 964b 413e
00000040: 7e39 afbf 6a7c 27c0 9c28 2741 23de 4c40
00000050: 1897 1b3f cf48 e9c0 093a c33f d6c9 49c1
00000060: 8358 a7c1 5bd1 c6c0 9c59 21c2 6d06 9fc1
00000070: d998 97c1 1fd0 08c2 50e5 1bc2 42cf b8c0
-18.530403 -19.151566 4.9164214 -23.463282 -10.158978 -19.270561 -37.472256 -10.10262
0.15288237 0.2094439 0.32750717 0.09216425 0.084972054 -0.22839145 -0.16203474 0.1887649
-1.368942 -2.6169686 10.447414 3.2010581 0.60777426 -7.290138 1.5252086 -12.611776
-20.918219 -6.213056 -40.33751 -19.878138 -18.949633 -34.203243 -38.973938 -5.7753

hidden2tag.weight f4 [878, 16]
00000000: afb0 01c1 f53a 9440 8f8c eb3f ab9f 2141
00000010: 6e6d c4c0 5c14 b2bf 48b3 eec0 d135 33c1
00000020: 7807 08c0 f703 8f41 aac8 8940 fa8b 5041
00000030: 30cb 32c1 729e 6041 9879 b640 e5e3 d740
00000040: af67 e1c1 2eb8 e141 e65a 8441 68b6 e341
00000050: db4e a9c1 0e17 2b41 869d e1c1 cf85 09c2
00000060: b871 6bc1 917b e441 f638 b741 f799 c541
00000070: e9eb c8c0 bc2c 0242 e511 bf3e ad15 c3c1
00000080: 32a2 f3c1 777c 5441 5c89 3c41 1a26 d341
00000090: adf0 27c1 0040 02c0 864b ebc1 2242 cdc1
000000a0: 740b bbc1 cc26 1a42 2d51 ae41 f3cd cb41
000000b0: 8468 19c1 87a2 1042 5fb7 cb40 b59c 49c0
000000c0: 947d 2cc2 049c 5f41 6b63 9e41 05d6 b441
000000d0: 8813 79c1 dd69 8cc0 3d2b b4c1 2782 b1c1
000000e0: c867 95c1 9a2e 1142 d868 0541 b018 ce41
000000f0: adbc f8bd 13fe cf41 2120 62c1 84c3 e141
00000100: 6afa efc1 e912 3341 3c8f 1441 9f6f d741
00000110: 943a 2dc1 7a73 a5c0 2224 b3c1 553c d5c1
00000120: 12bf a6c1 1307 1a42 e26d 1942 e56f 9241
00000130: 6c02 72c1 13aa 1c42 0887 c542 fb13 7fc1
00000140: 009f 33c2 2e72 d441 de72 3841 7b00 c941
00000150: c4a3 eec1 1af8 aa41 78df 93c1 a664 a9c1
00000160: 005c f8c1 2022 0942 a6de 0042 1955 a741
00000170: f336 5f41 4f39 6e41 688f 03c1 7612 3741
00000180: 7fbc f0c1 69cd 5741 a986 3b41 7716 d441
00000190: 10f0 03c1 4e2a 6740 115d e7c1 52e9 cdc1
000001a0: 0256 c4c1 cf5c 1a42 e9ae c241 b899 cd41
000001b0: c090 1dc1 d05c 1642 b62f 8041 b390 95c0
000001c0: 9974 eec1 549f e440 2389 dc40 1782 cd41
000001d0: 3a52 1bc1 b4c8 0e41 d3e1 c1c1 4685 cdc1
000001e0: f48b d3c1 db67 0842 477e 0742 6923 8141
000001f0: 48a1 ecc0 5274 1242 17a9 a240 b4e4 49c0
00000200: 4616 f1c1 b3c5 5041 a67e 3f41 331e cd41
00000210: 71e3 f9c0 9f64 ff3f 6050 edc1 3366 cdc1
00000220: 9f8e bbc1 7a59 1a42 2b70 b641 8236 ca41
00000230: d8d7 15c1 0284 1642 813b e040 4680 69c0
00000240: 5b61 c6c1 dfe6 4f41 3146 b941 baee c941
00000250: 5c89 02c1 28d8 86c0 67aa 00c2 035f cdc1
00000260: b59c b3c1 882b 1a42 6afe 1441 02d4 2f41
00000270: b94e 20c1 486c 1442 9dfd 0341 b6ab e0c0
00000280: 8296 d4c1 ffb1 8541 d41d 0242 cf65 b141
00000290: 65a0 29c0 3d99 8540 c115 57c2 fd8b 80c1
000002a0: f64d 5bc1 fe23 0342 37ca 8d40 bc49 6641
000002b0: 5d5d 31c1 183c 1642 1fbf 1c41 7bd0 b3c1
000002c0: 704d f4c1 d8e1 5b41 efdd 5641 17b7 d041
000002d0: 111d 04c1 c2c0 6c40 671a e9c1 10a9 ccc1
000002e0: 38cd c1c1 6ada 0e42 a0a4 b741 959e ca41
000002f0: 9a48 19c1 e77d 1642 63f0 6841 806f 8fc0
00000300: d351 3ec2 06fb fb40 bf0b 3341 406a 4f41
00000310: bf95 61c1 fc2d 4640 5f49 ebc1 e710 f2c1
00000320: 91e9 90c1 dbce 3b42 e1b3 8d41 5e41 9041
00000330: e46e 23c1 25b4 1842 b8a7 8242 d2e4 4040
00000340: f670 0dc2 e759 6441 5feb 1f41 cc52 9041
00000350: 4a26 35c1 5820 9240 ba0f b1c1 91a2 c4c1
00000360: a867 cbc1 aa49 1d42 6169 1742 f5dc 8b41
00000370: d1e5 51c1 e11e 2342 44b3 b542 2da8 10c1
00000380: 9b93 d6c1 5ade 8d41 9358 1441 2e34 0542
00000390: 15f7 1fc1 14cc 8b40 03b1 1ec1 4a5c bfc1
000003a0: 7609 38c1 ace4 1a42 86de af41 1133 ac41
000003b0: ce48 61c1 39de 0f42 916d e540 bdff b03f
000003c0: af80 e0c1 3871 9141 5728 7741 29d5 f141
000003d0: a63d 02c1 8502 d93f b8c2 adc1 cbda cdc1
000003e0: 4797 d6c1 aa29 1c42 dcbb d441 2e63 f241
000003f0: acf2 ebc0 773f 1642 c061 4e41 3ac9 b2c0
-8.105636 4.632197 1.840227 10.101481 -6.138358 -1.3912463 -7.459385 -11.200639
-2.1254559 17.876936 4.305745 13.034174 -11.174606 14.038683 5.702343 6.746569
-28.175627 28.214931 16.544384 28.464066 -21.163504 10.693129 -28.201916 -34.380672
-14.715263 28.560335 22.902813 24.700178 -6.2787976 32.543686 0.3731834 -24.385584
-30.454197 13.280387 11.783535 26.393604 -10.496259 -2.0351562 -29.411877 -25.657291
-23.380592 38.537888 21.789637 25.475561 -9.5880165 36.15872 6.366134 -3.1501896
-43.122635 13.97559 19.798544 22.604502 -15.567268 -4.387923 -22.521112 -22.18855
-18.675674 36.29551 8.338097 25.762054 -0.12145362 25.99906 -14.132844 28.220467
-29.997272 11.192117 9.284969 26.929502 -10.826801 -5.1703463 -22.392643 -26.654459
-20.843296 38.50691 38.357307 18.304636 -15.125591 39.16609 98.76373 -15.942378
-44.905273 26.555752 11.528044 25.125235 -29.829964 21.371143 -18.484116 -21.174145
-31.044922 34.283325 32.21743 20.916552 13.950915 14.888991 -8.222511 11.442007
-30.09204 13.487649 11.720376 26.51097 -8.246109 3.611957 -28.920443 -25.738926
-24.541996 38.590633 24.335405 25.700058 -9.847839 37.590637 16.023296 -4.6739135
-29.806932 7.144449 6.8917403 25.68852 -9.707575 8.924 -24.235266 -25.690075
-26.443336 34.10142 33.873318 16.14229 -7.3946877 36.613594 5.083141 -3.154584
-30.135876 13.048266 11.96842 25.639746 -7.809014 1.9952582 -29.664246 -25.674902
-23.44464 38.58738 22.80477 25.276615 -9.365196 37.628914 7.0072637 -3.6484542
-24.797537 12.993865 23.159273 25.241566 -8.158535 -4.2138863 -32.16641 -25.671392
-22.451517 38.54251 9.312113 10.98926 -10.019219 37.105743 8.249417 -7.020961
-26.57349 16.711912 32.52913 22.174711 -2.6504147 4.174956 -53.771244 -16.068354
-13.706533 32.78515 4.4309344 14.393002 -11.085294 37.558685 9.79666 -22.476797
-30.537811 13.742638 13.429183 26.0894 -8.257096 3.699265 -29.137892 -25.58255
-24.225204 35.713295 22.955383 25.327433 -9.580225 37.62295 14.558688 -4.482361
-47.579906 7.8743925 11.190368 12.96344 -14.099059 3.0965567 -29.410826 -30.258253
-18.114046 46.952007 17.712831 18.031918 -10.214573 38.175922 65.327576 3.013966
-35.360313 14.271949 9.994964 18.040428 -11.321848 4.566448 -22.132679 -24.579378
-25.425613 39.321938 37.85291 17.48289 -13.1186075 40.780155 90.85013 -9.041059
-26.822073 17.73357 9.271625 33.300957 -9.997823 4.368662 -9.918216 -23.920063
-11.50231 38.723312 21.983654 21.524935 -14.080275 35.967014 7.169625 1.3828045
-28.062834 18.180283 15.447349 30.229082 -8.140051 1.6953894 -21.720078 -25.731833
-26.823866 39.040688 26.591728 30.298428 -7.373373 37.561977 12.898865 -5.587064

hidden2tag.bias f4 [878]
00000000: 8453 9ac2 c639 38c2 75de 23c2 8fa8 36c2
00000010: 3aa1 20c2 2dd3 61c2 5a65 25c2 304a 21c2
00000020: 81d6 21c2 b331 24c2 cd22 3dc2 4163 23c2
00000030: 7ed6 21c2 f192 26c2 62bc 20c2 43a6 25c2
00000040: bc52 20c2 0525 3dc2 27d0 3cc2 9996 37c2
00000050: 222f 2bc2 2dfe 24c2 629b 28c2 1cf0 21c2
00000060: 45bf 40c2 3bac 24c2 b060 29c2 7e8f 20c2
00000070: d1da 32c2 16be 21c2 ac92 27c2 5d54 28c2
00000080: d608 2dc2 ddc0 21c2 3fa0 2cc2 664d 2cc2
00000090: 9783 1fc2 651d 32c2 636f f0c2 1ed2 25c2
000000a0: d7e5 38c2 b72a 39c2 d89f 3ec2 0960 24c2
000000b0: c7e1 30c2 d76d 35c2 4a6d 3ec2 2984 42c2
000000c0: 3236 25c2 619f 36c2 eef4 20c2 9c36 3ec2
000000d0: f407 32c2 bd44 46c2 1f2d 40c2 7364 34c2
000000e0: 082b 3ac2 3fff 34c2 20c5 46c2 14d7 48c2
000000f0: 01a3 32c2 3fc3 3dc2 cfa1 4ac2 22f2 2bc2
00000100: 47e3 1fc2 8d95 3dc2 2b2a 26c2 a6c3 1ec2
00000110: a1f0 28c2 936e 2ac2 c535 33c2 50fc 35c2
00000120: 7ca8 29c2 2640 47c2 2a65 35c2 4e93 22c2
00000130: 129b 45c2 b5b3 20c2 44b3 27c2 02ed 7ac2
00000140: 64df 40c2 e272 2bc2 d48f 49c2 561c 2bc2
00000150: c0db 32c2 49de 2ac2 0fa2 37c2 37c4 36c2
00000160: 0c6f 26c2 f679 54c2 d8b7 3dc2 ba22 46c2
00000170: 0c5d 31c2 cafb 38c2 234e 23c2 d8eb 50c2
00000180: 8fa5 2bc2 7ef5 3ac2 f033 4dc2 f73c 59c2
00000190: 0060 27c2 878e 2fc2 c748 2fc2 f753 31c2
000001a0: cf6e 28c2 3882 43c2 ee72 33c2 6b95 49c2
000001b0: 51f7 2ac2 b81e 43c2 742a 42c2 fce5 3ac2
000001c0: 1c5b 32c2 b2c2 25c2 4aaa 45c2 d227 4cc2
000001d0: ab21 34c2 3f53 33c2 d5a9 3bc2 a019 2cc2
000001e0: 9213 2ec2 20a2 30c2 8ebc 4cc2 15fb 2dc2
000001f0: 3223 41c2 a268 31c2 ef5e 27c2 9273 3cc2
00000200: eb0a 34c2 6f53 36c2 c2d3 25c2 8ee7 3bc2
00000210: 3b04 66c2 8ad4 3dc2 0eee 2ac2 109c 29c2
00000220: 406c 3cc2 244e 3ac2 a04a 28c2 ed32 41c2
00000230: 68f9 34c2 050e 54c2 1569 36c2 1332 45c2
00000240: aa70 27c2 3334 26c2 2fa7 51c2 1870 3bc2
00000250: eecb 2cc2 3acc 50c2 ab09 3ac2 1699 4ac2
00000260: 4035 34c2 3774 1fc2 aa7a 2dc2 2419 4ac2
00000270: c908 29c2 b8c5 40c2 e198 39c2 845d 30c2
00000280: 3c52 40c2 9aec 2fc2 e07b 29c2 f610 2ac2
00000290: 87db 2ac2 f8b7 63c2 2dd6 2dc2 f7ee 2fc2
000002a0: ae8d 2ec2 d45f 35c2 ded1 37c2 0b16 36c2
000002b0: 1288 2ec2 d0af 41c2 f24a 34c2 46f7 36c2
000002c0: fec0 2ec2 9611 47c2 6ac6 4fc2 6bac 2dc2
000002d0: 94e5 2dc2 53e0 40c2 0876 31c2 edd4 2dc2
000002e0: 9d3a 40c2 ed73 2ec2 aaab 2fc2 a5b4 46c2
000002f0: cc1b 42c2 9437 2bc2 efe6 2ec2 69d2 3fc2
00000300: 0e46 4fc2 467c 35c2 a7c6 44c2 7eeb 30c2
00000310: 7ea3 31c2 e1b3 39c2 199b 41c2 72af 3dc2
00000320: 074d 3ac2 a940 26c2 6b50 2ec2 6714 24c2
00000330: 9d5a 3fc2 1757 40c2 53d3 37c2 cf05 77c2
00000340: 4337 33c2 c95d 2cc2 c73d 33c2 3f95 37c2
00000350: 3d2d 2dc2 c4f6 5fc2 b8f4 70c2 f415 3fc2
00000360: d34b 3dc2 21bc 40c2 c196 38c2 7e77 3bc2
00000370: f25f 46c2 c337 78c2 deee 7ec2 0341 36c2
00000380: 1d4a 37c2 81a4 4dc2 6332 43c2 cbd7 28c2
00000390: f4e3 3bc2 a6fa 45c2 a869 39c2 4228 3bc2
000003a0: 7d01 2dc2 d226 35c2 4ca1 6dc2 1bf3 31c2
000003b0: 0789 34c2 a1e9 38c2 7944 36c2 a4b3 3dc2
000003c0: 1669 2ec2 e5b8 32c2 9e7b 31c2 6820 28c2
000003d0: 49f2 30c2 6090 37c2 3eb8 38c2 4d62 8bc2
000003e0: abfd 2ac2 5942 34c2 0732 4cc2 bc89 48c2
000003f0: 8015 39c2 b00b 3bc2 cb9e 3dc2 55e7 36c2
-77.16312 -46.05642 -40.967243 -45.664608 -40.157448 -56.456226 -41.348976 -40.32245
-40.459476 -41.048534 -47.283985 -40.846928 -40.459465 -41.643497 -40.183968 -41.412365
-40.080795 -47.28615 -47.203274 -45.897068 -42.79603 -41.24822 -42.15174 -40.48448
-48.186787 -41.168194 -42.34442 -40.14013 -44.713688 -40.43563 -41.893234 -42.082386
-43.25863 -40.438343 -43.15649 -43.075584 -39.878506 -44.528706 -120.21755 -41.455193
-46.224453 -46.291714 -47.656097 -41.093784 -44.220486 -45.357265 -47.606728 -48.629063
-41.302925 -45.655643 -40.23919 -47.55333 -44.507767 -49.567127 -48.044064 -45.098095
-46.542023 -45.249264 -49.692505 -50.210037 -44.659184 -47.44067 -50.658016 -42.986458
-39.97195 -47.396046 -41.54118 -39.691063 -42.23499 -42.607983 -44.80251 -45.4964
-42.414536 -49.812645 -45.348793 -40.643852 -49.401436 -40.175495 -41.925064 -62.731453
-48.218155 -42.86219 -50.390457 -42.77767 -44.7146 -42.717075 -45.90826 -45.691616
-41.608444 -53.119102 -47.429535 -49.533913 -44.340866 -46.245888 -40.826305 -52.230316
-42.91168 -46.73974 -51.30072 -54.309536 -41.84375 -43.889187 -43.82107 -44.331997
-42.10821 -48.877167 -44.862236 -50.395916 -42.74152 -48.78 -48.54146 -46.724594
-44.588974 -41.440132 -49.416298 -51.038887 -45.03288 -44.831295 -46.91585 -43.025024
-43.51911 -44.158325 -51.184135 -43.495197 -48.28437 -44.35218 -41.84271 -47.11286
-45.010662 -45.58148 -41.456795 -46.976128 -57.50413 -47.457558 -42.732475 -42.402405
-47.105713 -46.57631 -42.072876 -48.299732 -45.24356 -53.01369 -45.60262 -49.2989
-41.860023 -41.550976 -52.413265 -46.859467 -43.19915 -52.19944 -46.50944 -50.649498
-45.052002 -39.86349 -43.36979 -50.52455 -42.25858 -48.193085 -46.399296 -44.091324
-48.080307 -43.981056 -42.37097 -42.516563 -42.714382 -56.929657 -43.459156 -43.983364
-43.63836 -45.343582 -45.95495 -45.521526 -43.63288 -48.42169 -45.07319 -45.741478
-43.68847 -49.767174 -51.943764 -43.418377 -43.474197 -48.219067 -44.365265 -43.457935
-48.05724 -43.61321 -43.91764 -49.67641 -48.527145 -42.804276 -43.72552 -47.95548
-51.818413 -45.37136 -49.193996 -44.229973 -44.40966 -46.425663 -48.401463 -47.421333
-46.575222 -41.563145 -43.578533 -41.019924 -47.83849 -48.08505 -45.95637 -61.755672
-44.803967 -43.091587 -44.81033 -45.89575 -43.294178 -55.990982 -60.238983 -47.77144
-47.324047 -48.18372 -46.14722 -46.86669 -49.593697 -62.054455 -63.73327 -45.563488
-45.822376 -51.41065 -48.799206 -42.210735 -46.97261 -49.494774 -46.35318 -46.789314
-43.251453 -45.28791 -59.407516 -44.487408 -45.133816 -46.228153 -45.566868 -47.42543
-43.602623 -44.68056 -44.37072 -42.031647 -44.236607 -45.89099 -46.179924 -69.69199
-42.747723 -45.064793 -51.048855 -50.134506 -46.270996 -46.761414 -47.40507 -45.72591
