model/rnn_model/model12.pth (torch, 76996 bytes, 11 tensors)

word_embeddings.weight f4 [301, 8]
-1.0425465 -3.7150788 -1.1149342 -9.811905 -0.25263312 -0.46624416 5.843803 -3.775501
12.603216 0.874997 0.24550806 5.735472 7.9578757 -29.597599 12.197312 23.573383
-5.085043 -15.733687 -8.23435 27.41532 17.277416 -3.8378983 -7.415541 12.612966
17.969841 2.810924 12.956014 -5.198536 21.210066 11.6266165 -3.415798 23.635925
3.0640423 14.092222 -8.111559 17.14523 0.2663813 19.24134 -20.57767 8.751977
10.329231 -16.846642 -21.653015 18.612532 -29.055098 4.4130654 7.2546663 -1.7161316
4.7671423 16.0015 -5.0045495 -10.199863 18.414116 -6.413818 -5.28217 -9.264235
5.887135 24.253616 0.19361165 10.13282 11.312598 11.573068 -14.271059 -15.937915
12.421996 1.2635704 -1.3889309 6.0014358 2.0285711 5.726638 0.16796605 -27.330498
-2.4977438 10.219354 -13.94799 6.2141027 18.128124 23.527174 8.616209 -13.699618
-4.1352406 18.7361 1.9472718 -5.8484006 -1.4817474 -40.93331 22.182425 14.323554
6.470243 1.5164758 -17.658377 16.968622 15.790637 -16.11204 2.1231322 21.598145
-13.459179 -9.478122 5.2183156 -10.869358 10.946155 -26.654282 7.1474376 4.2600393
1.806455 16.015707 -2.8478057 10.95622 -1.0557884 30.045288 7.3784595 -0.022369992
-3.663491 -3.7996764 -18.782034 3.7546926 -8.499277 6.7398477 7.8778825 -7.2819552
10.274409 22.160984 7.904335 10.329835 4.1344543 0.89293075 -4.8039083 -1.4747131
5.666752 21.968626 8.432868 17.929295 -3.0342236 -21.001637 -21.070765 8.96258
8.912838 2.1525254 -7.6117444 -4.631891 25.645676 -10.532894 -3.7955143 12.042945
-19.779915 -24.763767 -14.999073 -14.28279 3.8810635 2.3335867 -3.6454735 17.283707
17.954702 18.156096 -3.5601182 29.56663 25.025885 3.0105317 -0.2701078 11.471191
-3.9161806 16.586966 12.887877 6.052807 0.6338599 -1.1089202 -4.848167 20.867092
-10.939789 -12.341728 -5.026843 -15.10718 -3.7929544 -0.037187416 3.2131248 3.7894607
-12.966758 6.1755815 -6.0526495 13.537521 -5.8979664 19.54155 -12.887927 13.212289
-33.48626 14.418115 23.15922 11.081943 -5.001638 2.648013 -12.100837 17.677538
4.207323 -7.4215117 20.58956 17.971144 17.51833 -5.209889 -14.1714945 -14.635952
-2.9363651 12.832385 20.807526 4.7323213 27.957348 5.210374 9.127875 5.8454394
14.206939 -8.171782 -8.041786 1.1446065 31.370148 3.2638745 -9.87454 -8.031132
-4.6906676 -10.021475 -6.6634893 -13.827564 1.7432334 -10.095037 -12.082251 0.31620845
23.370033 25.513424 -17.91824 4.569553 -5.8027134 6.747944 -2.661341 -5.000263
25.062805 2.8166912 13.518063 0.52753365 7.767291 -0.3135387 -14.664641 -2.7799969
13.0135355 -1.2951055 7.48055 -1.9137937 7.448996 -11.01666 4.504886 20.264818
10.102245 14.441609 2.6928422 14.307826 -15.1744585 12.878545 -5.3048763 12.178489
00000000: 2a72 85bf dac3 6dc0 2ab6 8ebf 90fd 1cc1
00000010: 2159 81be 8eb7 eebe 6f00 bb40 cfa1 71c0
00000020: c6a6 4941 ceff 5f3f 7766 7b3e fd88 b740
00000030: eba6 fe40 e2c7 ecc1 3128 4341 4a96 bc41
00000040: acb8 a2c0 2fbd 7bc1 e6bf 03c1 9352 db41
00000050: 2638 8a41 20a0 75c0 1d4c edc0 b5ce 4941
00000060: 3cc2 8f41 2ee6 3340 d54b 4f41 685a a6c0
00000070: 37ae a941 9f06 3a41 6f9c 5ac0 6016 bd41
00000080: 4519 4440 be79 6141 f2c8 01c1 6e29 8941
00000090: 2163 883e 44ee 9941 119f a4c1 1908 0c41
000000a0: 8844 2541 ecc5 86c1 6039 adc1 77e6 9441
000000b0: d770 e8c1 d537 8d40 3a26 e840 33aa dbbf
000000c0: 6e8c 9840 1203 8041 4525 a0c0 a432 23c1
000000d0: 1c50 9341 ff3d cdc0 8907 a9c0 4e3a 14c1
000000e0: 6963 bc40 6807 c241 2242 463e 0820 2241
000000f0: 6700 3541 492b 3941 4256 64c1 b301 7fc1
00000100: 7fc0 4641 adbc a13f 7dc8 b1bf c30b c040
00000110: 1cd4 0140 9e40 b740 4bff 2b3e dca4 dac1
00000120: 09db 1fc0 7982 2341 f82a 5fc1 eed9 c640
00000130: 6606 9141 a737 bc41 fedb 0941 a331 5bc1
00000140: e453 84c0 88e3 9541 3440 f93f 1926 bbc0
00000150: e6a9 bdbf b6bb 23c2 9b75 b141 472d 6541
00000160: 3b0c cf40 e11b c23f 5b44 8dc1 bdbf 8741
00000170: 73a6 7c41 75e5 80c1 66e1 0740 00c9 ac41
00000180: cc58 57c1 63a6 17c1 71fc a640 e4e8 2dc1
00000190: 7323 2f41 f83b d5c1 cfb7 e440 3e52 8840
000001a0: eb39 e73f 2b20 8041 7342 36c0 ad4c 2f41
000001b0: 1324 87bf c05c f041 571c ec40 4641 b7bc
000001c0: a376 6ac0 e62d 73c0 9b41 96c1 e24c 7040
000001d0: 0afd 07c1 d5ac d740 9d17 fc40 c705 e9c0
000001e0: fb63 2441 b249 b141 50f0 fc40 0147 2541
000001f0: 734d 8440 1c97 643f 9eb9 99c0 66c3 bcbf
00000200: 0856 b540 bfbf af41 07ed 0641 326f 8f41
00000210: b830 42c0 5a03 a8c1 ed90 a8c1 ba66 0f41
00000220: fc9a 0e41 fac2 0940 6993 f3c0 7338 94c0
00000230: 582a cd41 bc86 28c1 b5e9 72c0 e7af 4041
00000240: 443d 9ec1 321c c6c1 34fc 6fc1 4f86 64c1
00000250: 5863 7840 7c59 1540 704f 69c0 0845 8a41
00000260: 3ba3 8f41 af3f 9141 fad8 63c0 7588 ec41
00000270: 0335 c841 8dac 4040 924b 8abe 008a 3741
00000280: b4a2 7ac0 1bb2 8441 bf34 4e41 98b0 c140
00000290: a444 223f 19f1 8dbf 2f24 9bc0 ceef a641
000002a0: 6009 2fc1 b877 45c1 e6db a0c0 02b7 71c1
000002b0: c4bf 72c0 d551 18bd d6a3 4d40 8686 7240
000002c0: d777 4fc1 5d9e c540 4eaf c1c0 b099 5841
000002d0: 24bc bcc0 1855 9c41 f334 4ec1 8965 5341
000002e0: eef1 05c2 99b0 6641 1546 b941 a34f 3141
000002f0: 6b0d a0c0 0c79 2940 079d 41c1 996b 8d41
00000300: 64a2 8640 067d edc0 6bb7 a441 e7c4 8f41
00000310: 8a25 8c41 69b7 a6c0 71be 62c1 dc2c 6ac1
00000320: 68ed 3bc0 7351 4d41 d075 a641 2d6f 9740
00000330: a6a8 df41 62bb a640 c70b 1241 d70d bb40
00000340: 9f4f 6341 9ebf 02c1 28ab 00c1 7782 923f
00000350: 10f6 fa41 52e3 5040 1efe 1dc1 847f 00c1
00000360: f319 96c0 f657 20c1 4e3b d5c0 b43d 5dc1
00000370: 4622 df3f 4685 21c1 e650 41c1 13e6 a13e
00000380: d4f5 ba41 7e1b cc41 8e58 8fc1 c739 9240
00000390: d4af b9c0 28ef d740 6953 2ac0 2802 a0c0
000003a0: a080 c841 ab44 3440 fc49 5841 720c 073f
000003b0: a68d f840 2588 a0be 5fa2 6ac1 78eb 31c0
000003c0: 7137 5041 04c6 a5bf aa60 ef40 31f7 f4bf
000003d0: 2d5e ee40 3d44 30c1 0728 9040 591e a241
000003e0: cca2 2141 d510 6741 8757 2c40 dbec 6441
000003f0: 95ca 72c1 850e 4e41 8cc1 a9c0 17db 4241

lstm.weight_ih_l0 f4 [32, 8]
3.125798 -2.92908 5.782011 25.027346 11.928385 6.561458 -26.90742 22.723053
9.974757 31.093756 5.746258 2.8967347 37.71689 -5.534745 -5.4826345 24.506805
13.273453 -25.826366 14.403501 14.687634 12.693548 -17.726173 27.894402 -0.94871676
31.546558 3.5686889 -12.180474 20.048521 15.904979 -6.9281435 -4.9321465 1.8980126
15.163584 -17.439707 -13.922024 26.356148 10.299804 17.540972 -26.727224 -15.637467
-10.84442 -11.01856 7.6925845 -10.657099 8.606378 -21.006937 15.116363 30.788311
12.579531 -5.0442257 -28.992655 7.9113894 -12.004954 13.556415 18.79302 6.3337674
-35.137707 -5.9149485 -12.574133 13.196185 -8.407537 -12.178449 -13.896668 37.935993
-0.21051656 -0.10810688 -0.31212133 -0.3224293 0.34641072 -0.16861378 0.33225182 0.31039026
0.04829505 -0.25212047 0.22872874 0.0886862 0.23238906 -0.11792722 0.058409333 0.09294367
0.208891 0.17795822 0.024079502 -0.019941479 0.19656387 0.15807119 -0.0712564 -0.20785135
0.13237044 -0.22789602 0.1561105 0.09840155 -0.15889011 0.036163896 -0.17906244 0.29789415
-0.0368734 -0.32808343 0.29110458 0.09323105 0.1570569 -0.038341194 0.297748 -0.3105691
0.008844852 -0.33451164 -0.14205275 0.24381867 -0.117709324 0.22808924 0.052095324 -0.29223275
-0.3412206 0.016121715 -0.004251957 0.3041645 0.04410249 0.20014784 0.27544317 0.04682359
-0.12264413 -0.14956833 0.25730774 0.2399706 0.2881442 0.26848736 0.22136083 0.05384025
-5.9777784 -6.017908 -8.173538 -15.861382 -8.561222 -3.730354 -13.865683 -22.214115
-5.205894 -0.64311 -1.3148822 5.8335304 12.820183 9.67787 15.416129 -12.993745
11.936967 2.7932074 -7.728844 -13.548396 -19.222883 -2.0321434 -19.47568 -9.644548
1.3974907 -14.94051 22.048513 -1.6761391 -1.2262458 2.2864187 5.7255197 2.6998036
-35.120483 8.019108 -4.858321 -1.0727037 12.731696 15.880474 -2.9767537 -5.4246006
11.09754 -0.011666077 -11.860782 18.33464 5.4810987 -5.797152 6.591618 -7.910565
5.4403863 -9.344222 -5.027632 -10.461384 -11.8410845 8.222029 21.937082 -22.563625
-8.4286175 4.250395 -0.13820687 9.136628 -17.41657 -2.3235385 1.9258834 -24.8406
-7.3908997 -20.795713 25.39117 1.0064657 14.861108 -6.061817 -2.2338128 8.2709255
24.002134 -31.364763 -33.76386 21.710546 -2.582064 -14.600868 -20.67307 -6.6642294
-5.351572 15.477124 0.67534065 14.684679 12.565822 19.005667 -22.041029 15.693855
2.5827417 0.40966138 -3.0067286 2.1945162 0.9436741 -14.409385 -33.71674 12.234727
-11.852296 3.3186872 31.542631 0.48540458 -6.149601 1.5834851 -9.693103 -29.256138
-8.206957 10.332228 -24.209179 32.278107 5.8410525 29.015953 -15.44299 -0.086731404
7.0461564 20.541763 19.367985 18.864834 -7.9662848 5.013495 -10.050692 0.41485602
-0.32782882 26.2332 13.906507 -2.4470446 24.30002 -7.6729894 22.494997 4.3654423
00000000: 130d 4840 0c76 3bc0 3c06 b940 0138 c841
00000010: aada 3e41 77f7 d140 6542 d7c1 d0c8 b541
00000020: 9b98 1f41 03c0 f841 58e1 b740 1a64 3940
00000030: 18de 1642 a21c b1c0 be71 afc0 f00d c441
00000040: 1060 5441 669c cec1 bd74 6641 8d00 6b41
00000050: c618 4b41 34cf 8dc1 bc27 df41 1adf 72bf
00000060: 5a5f fc41 6665 6440 39e3 42c1 5f63 a041
00000070: cb7a 7e41 5ab3 ddc0 25d4 9dc0 14f2 f23f
00000080: 0a9e 7241 8584 8bc1 9cc0 5ec1 64d9 d241
00000090: ffcb 2441 e953 8c41 5bd1 d5c1 1133 7ac1
000000a0: bf82 2dc1 064c 30c1 a729 f640 7a83 2ac1
000000b0: b9b3 0941 350e a8c1 9fdc 7141 764e f641
000000c0: c245 4941 4c6a a1c0 f5f0 e7c1 1a2a fd40
000000d0: 4b14 40c1 13e7 5841 1b58 9641 39ae ca40
000000e0: 038d 0cc2 4247 bdc0 a62f 49c1 9323 5341
000000f0: 4685 06c1 edda 42c1 c158 5ec1 75be 1742
00000100: a791 57be 2467 ddbd 5ece 9fbe 7415 a5be
00000110: bf5c b13e 17a9 2cbe e91c aa3e 79eb 9e3e
00000120: 08d1 453d ef15 81be de37 6a3e 1ca1 b53d
00000130: 66f7 6d3e d483 f1bd a03e 6f3d 4059 be3d
00000140: 86e7 553e ae3a 363e 6042 c53c 505c a3bc
00000150: 0a48 493e 6add 213e e0ee 91bd fcd6 54be
00000160: 1e8c 073e 935d 69be 6edb 1f3e c086 c93d
00000170: 17b4 22be 9820 143d 255c 37be 9585 983e
00000180: 9008 17bd 8dfa a7be a90b 953e ecef be3d
00000190: 86d3 203e a80b 1dbd 6d72 983e ea02 9fbe
000001a0: 00ea 103c 1c45 abbe 4776 11be 9aab 793e
000001b0: 9611 f1bd 3a90 693e e861 553d 889f 95be
000001c0: 77b4 aebe b011 843c 0054 8bbb 73bb 9b3e
000001d0: d0a4 343d 8ef3 4c3e e306 8d3e 18ca 3f3d
000001e0: d82c fbbd 7128 19be d7bd 833e daba 753e
000001f0: a387 933e 2d77 893e 6aac 623e 9887 5c3d
00000200: f649 bfc0 b492 c0c0 d0c6 02c1 38c8 7dc1
00000210: c4fa 08c1 1fbe 6ec0 d6d9 5dc1 82b6 b1c1
00000220: af96 a6c0 dba2 24bf 0f4e a8bf 48ac ba40
00000230: 781f 4d41 8ed8 1a41 77a8 7641 61e6 4fc1
00000240: d1fd 3e41 e9c3 3240 b152 f7c0 3bc6 58c1
00000250: 77c8 99c1 a30e 02c0 31ce 9bc1 1250 1ac1
00000260: fae0 b23f 540c 6fc1 5b63 b041 ba8b d6bf
00000270: 9ff5 9cbf af54 1240 7537 b740 95c9 2c40
00000280: 607b 0cc2 444e 0041 5e77 9bc0 5b4e 89bf
00000290: 07b5 4b41 6c16 7e41 2283 3ec0 5496 adc0
000002a0: 868f 3141 1323 3fbc c3c5 3dc1 58ad 9241
000002b0: 2965 af40 4582 b9c0 89ee d240 5923 fdc0
000002c0: a517 ae40 ef81 15c1 5de2 a0c0 d461 27c1
000002d0: 1575 3dc1 6e8d 0341 257f af41 4e82 b4c1
000002e0: 9edb 06c1 3c03 8840 1a86 0dbe a12f 1241
000002f0: 2355 8bc1 dbb4 14c0 5983 f63f 8cb9 c6c1
00000300: 4082 ecc0 9f5d a6c1 1e21 cb41 ded3 803f
00000310: 19c7 6d41 68fa c1c0 caf6 0ec0 b655 0441
00000320: 5f04 c041 09eb fac1 310e 07c2 33af ad41
00000330: 8940 25c0 289d 69c1 7362 a5c1 5e41 d5c0
00000340: 1440 abc0 4da2 7741 20e3 2c3f 72f4 6a41
00000350: 9b0d 4941 9b0b 9841 0754 b0c1 081a 7b41
00000360: a44b 2540 23bf d13e 3e6e 40c0 f472 0c40
00000370: a094 713f d78c 66c1 f1dd 06c2 71c1 4341
00000380: 01a3 3dc1 5f65 5440 4f57 fc41 f386 f83e
00000390: 88c9 c4c0 a4af ca3f f316 1bc1 920c eac1
000003a0: b24f 03c1 ce50 2541 66ac c1c1 c81c 0142
000003b0: e7e9 ba40 ac20 e841 7d16 77c1 3ca0 b1bd
000003c0: 1d7a e140 8855 a441 a2f1 9a41 2eeb 9641
000003d0: ceeb fec0 8d6e a040 a2cf 20c1 0268 d43e
000003e0: 2ed9 a7be 98dd d141 0d81 5e41 619c 1cc0
000003f0: 7166 c241 2189 f5c0 c1f5 b341 b4b1 8b40

lstm.weight_hh_l0 f4 [32, 8]
0.30216345 -0.24240173 0.1009371 0.2110236 0.13559893 -0.18977688 -0.045682043 -0.017982334
0.12126517 -0.29181373 0.24547413 -0.16156986 -0.30907142 0.20406541 -0.101643145 0.018117905
0.3361052 -0.10037249 -0.018954247 0.064389944 -0.047557622 0.0856933 -0.3011991 -0.006768614
0.100714624 0.009000301 0.33951983 0.31486335 -0.16868867 -0.11404221 -0.30389994 0.30947497
-0.35008958 -0.2148049 -0.29680207 0.06872022 0.031982094 0.031615794 0.06138006 -0.30102164
-0.09502891 -0.038176835 -0.10895488 -0.20184682 -0.3129607 0.3136954 -0.13924113 -0.24481347
-0.23798412 -0.038766503 -0.3311873 -0.3163676 0.3160706 0.3446717 0.2820677 0.01073131
-0.16998047 -0.16435875 -0.2132024 -0.26715714 0.008381277 -0.14081152 -0.26815966 -0.13764983
0.19951329 -0.040797234 0.06359103 0.2070516 0.17256257 -0.09966001 0.29601493 -0.13240133
0.2886602 0.30822775 -0.23227447 -0.07672173 -0.0200077 0.23848382 -0.036032647 -0.19829194
0.06544623 -0.29308513 -0.22144413 -0.12893964 -0.0770545 0.2877647 0.25625005 0.28385916
-0.03700337 0.20250455 0.07381278 0.25152853 -0.2726941 0.1381022 -0.28972983 0.12153354
0.069283515 -0.33279985 -0.052489728 -0.338734 -0.25288084 -0.06424618 -0.24408263 -0.057851017
0.22854224 -0.24910295 -0.14641495 -0.30864993 0.34616938 0.11201641 -0.27414805 -0.21837673
0.08699602 -0.35110506 0.0719862 -0.34772578 0.34006748 0.3012196 0.013467342 0.28394434
-0.33216926 -0.2720726 0.013803691 0.24588105 -0.22855338 -0.31057802 -0.31721956 -0.09430197
-0.34136567 -0.18981074 0.03332877 -0.05418116 0.19551328 -0.32097858 0.28600708 -0.06807667
-0.24469048 -0.08622736 0.26458272 0.35305533 -0.35105416 0.34424058 0.2528855 0.33048722
-0.17462333 -0.13001561 0.29689893 0.2934499 -0.048288018 0.07016009 0.21500728 0.012989521
0.28415462 0.027079612 -0.2936867 -0.21730384 0.10389903 0.25710294 -0.06515345 0.33648238
-0.031157315 -0.07358456 -0.3339989 -0.22825617 0.34158334 0.17422912 -0.06280661 0.33752105
0.11601055 -0.06164512 -0.32013232 0.2932141 0.35327533 -0.20384227 -0.24717423 -0.05663541
-0.22752382 0.015633136 0.2315655 0.3051521 0.015889317 -0.051412284 -0.31089067 0.15855321
-0.29587832 -0.022468984 -0.33656773 -0.040640652 0.037766784 -0.22349365 0.06420502 0.06417158
-0.16368453 -0.18045215 -0.35225907 -0.11411032 0.2149786 -0.04642105 -0.21824569 -0.086595416
-0.29058793 0.25060585 0.25001088 -0.0049186647 0.3261424 -0.13825372 -0.20666964 -0.018317848
0.18634102 0.12412715 -0.0010379851 0.24892864 -0.017967612 0.15075126 -0.26779622 -0.02904281
-0.2186149 -0.051318854 -0.26500386 0.21682319 -0.33218944 -0.046482503 -0.2541605 -0.0020048916
0.30961177 -0.075944036 -0.25069314 -0.1342023 -0.06794962 0.040432364 0.32319984 -0.23212144
-0.23159786 -0.32538846 -0.16566463 -0.1408817 -0.032385856 0.22176257 0.26998183 0.1431885
0.012352258 0.12205163 -0.27363193 -0.3482803 -0.089214355 -0.08305377 0.324846 -0.008192092
0.1438193 -0.1396146 -0.34709692 -0.049005896 -0.13235164 0.33800754 0.048322678 -0.16187774
00000000: 2bb5 9a3e 2938 78be 1cb8 ce3d 9216 583e
00000010: 72da 0a3e df54 42be 181d 3bbd b04f 93bc
00000020: e059 f83d 9c68 95be 925d 7b3e 9272 25be
00000030: 9c3e 9ebe 86f6 503e 482a d0bd 006c 943c
00000040: fb15 ac3e 1890 cdbd f045 9bbc e0de 833d
00000050: c8cb 42bd f87f af3d c536 9abe 40cb ddbb
00000060: 7843 ce3d 0076 133c 8bd5 ad3e c535 a13e
00000070: b9bc 2cbe f68e e9bd c698 9bbe 8173 9e3e
00000080: f13e b3be d1f5 5bbe 71f6 97be 30bd 8c3d
00000090: a8ff 023d 907f 013d a869 7b3d 821f 9abe
000000a0: 849e c2bd 505f 1cbd bc23 dfbd efb0 4ebe
000000b0: 633c a0be af9c a03e 3a95 0ebe 62b0 7abe
000000c0: 1cb2 73be a0c9 1ebd 6291 a9be effa a1be
000000d0: 01d4 a13e cf78 b03e 2d6b 903e 60d2 2f3c
000000e0: 5c0f 2ebe a94d 28be bb51 5abe d2c8 88be
000000f0: a051 093c e530 10be 394c 89be 14f4 0cbe
00000100: 364d 4c3e 001b 27bd 043c 823d 5605 543e
00000110: 3eb4 303e 8c1a ccbd 458f 973e 3794 07be
00000120: 45cb 933e 07d0 9d3e 5cd9 6dbe 4820 9dbd
00000130: 30e7 a3bc 1a35 743e f896 13bd 0b0d 4bbe
00000140: ac08 863d 410f 96be 40c2 62be c108 04be
00000150: c0ce 9dbd e555 933e 3533 833e fd55 913e
00000160: d890 17bd 5a5d 4f3e 282b 973d 59c8 803e
00000170: 909e 8bbe aa6a 0d3e 7857 94be 94e6 f83d
00000180: 84e4 8d3d be64 aabe 78ff 56bd 8b6e adbe
00000190: 9979 81be 8093 83bd ccf0 79be 30f5 6cbd
000001a0: fa06 6a3e d814 7fbe cded 15be 5d07 9ebe
000001b0: 1d3d b13e dc68 e53d 225d 8cbe 269e 5fbe
000001c0: f82a b23d 0bc4 b3be 806d 933d 1d09 b2be
000001d0: 531d ae3e 7539 9a3e 20a6 5c3c 2761 913e
000001e0: 1712 aabe 1a4d 8bbe e028 623c 3ec8 7b3e
000001f0: e609 6abe 1504 9fbe 9a6a a2be 6421 c1bd
00000200: 7bc7 aebe bf5d 42be c083 083d 10ed 5dbd
00000210: a234 483e 4e57 a4be 856f 923e c86b 8bbd
00000220: 2490 7abe f897 b0bd 6377 873e abc3 b43e
00000230: 5fbd b3be 4d40 b03e 357a 813e 9f35 a93e
00000240: 75d0 32be d022 05be 2303 983e 113f 963e
00000250: a8c9 45bd 18b0 8f3d de2a 5c3e 00d2 543c
00000260: b77c 913e 10d6 dd3c 1a5e 96be e684 5ebe
00000270: 04c9 d43d ffa2 833e 2c6f 85bd 6b47 ac3e
00000280: a03d ffbc 80b3 96bd e701 abbe fcbb 69be
00000290: 03e4 ae3e 1e69 323e c0a0 80bd 8fcf ac3e
000002a0: f096 ed3d 987f 7cbd 62e8 a3be 2920 963e
000002b0: 81e0 b43e 07bc 50be 3e1b 7dbe 88fa 67bd
000002c0: 01fc 68be 1011 803c 821f 6d3e e53c 9c3e
000002d0: 502a 823c b095 52bd 102d 9fbe c65b 223e
000002e0: 5d7d 97be e010 b8bc 9b52 acbe d076 26bd
000002f0: 58b1 1a3d 85db 64be ec7d 833d 646c 833d
00000300: eb9c 27be 73c8 38be 4d5b b4be acb2 e9bd
00000310: 5a23 5c3e 0024 3ebd cc7b 5fbe f058 b1bd
00000320: f1c7 94be 694f 803e 6d01 803e c02c a1bb
00000330: 23fc a63e 6292 0dbe 35a1 53be 500f 96bc
00000340: 2ed0 3e3e 6036 fe3d 000d 88ba 26e7 7e3e
00000350: d030 93bc 8a5e 1a3e 961c 89be 30eb edbc
00000360: 96dc 5fbe b833 52bd 96ae 87be e606 5e3e
00000370: bc14 aabe 7064 3ebd 5321 82be 8064 03bb
00000380: 6f85 9e3e 8c88 9bbd da5a 80be 546c 09be
00000390: 2c29 8bbd 689c 253d 737a a53e 3eb1 6dbe
000003a0: fd27 6dbe 5199 a6be fda3 29be 4b43 10be
000003b0: 08a7 04bd ba15 633e 0f3b 8a3e 02a0 123e
000003c0: 2061 4a3c 34f6 f93d 7c19 8cbe cc51 b2be
000003d0: 04b6 b6bd 1818 aabd 3752 a63e 2038 06bc
000003e0: 5e45 133e 21f7 0ebe b0b6 b1be 68ba 48bd
000003f0: 3087 07be 530f ad3e 00ee 453d 47c3 25be

lstm.bias_ih_l0 f4 [32]
4.654817 -12.672884 -12.616645 -33.29354 -18.287336 -17.06541 -35.24336 -6.9871306
-0.16435964 0.3191547 0.0048263967 -0.31317616 -0.07099709 -0.1833325 -0.29178053 -0.065271854
4.7187977 -5.2074285 -17.145275 -14.453475 -12.261621 6.1765685 -0.9486645 0.07577535
-12.2041235 -12.223933 -26.758717 0.60881054 -2.2969277 -33.055866 -36.18087 -29.7808
00000000: 43f4 9440 22c4 4ac1 c7dd 49c1 962c 05c2
00000010: 774c 92c1 f685 88c1 33f9 0cc2 9396 dfc0
00000020: e54d 28be 3f68 a33e c026 9e3b a058 a0be
00000030: ec66 91bd 84bb 3bbe 4264 95be 40ad 85bd
00000040: 6400 9740 41a3 a6c0 8629 89c1 6f41 67c1
00000050: 9a2f 44c1 73a6 c540 addb 72bf 1b30 9b3d
00000060: 1744 43c1 3b95 43c1 da11 d6c1 02db 1b3f
00000070: dd00 13c0 3539 04c2 36b9 10c2 143f eec1

lstm.bias_hh_l0 f4 [32]
4.520743 -13.086233 -12.915051 -33.48006 -18.778114 -17.041122 -35.547764 -6.971536
0.0627884 -0.08477089 0.2684208 -0.15476209 -0.106729686 -0.27243575 -0.15683731 0.11791861
4.4804373 -4.668415 -17.391874 -14.635351 -12.351273 5.822962 -0.92348367 -0.20632797
-12.161267 -12.168696 -26.94875 0.6735641 -1.7492659 -33.45849 -36.254044 -29.592117
00000000: eda9 9040 3661 51c1 0da4 4ec1 95eb 05c2
00000010: 9439 96c1 3854 88c1 e930 0ec2 d316 dfc0
00000020: 3497 803d 5c9c adbd 736e 893e f479 1ebe
00000030: 1895 dabd b37c 8bbe f699 20be 507f f13d
00000040: be5f 8f40 a863 95c0 8f22 8bc1 662a 6ac1
00000050: d09e 45c1 b455 ba40 6d69 6cbf a447 53be
00000060: 8d94 42c1 fbb2 42c1 0a97 d7c1 b26e 2c3f
00000070: f2e7 dfbf 7ed5 05c2 2404 11c2 a8bc ecc1

lstm.weight_ih_l0_reverse f4 [32, 8]
20.978334 6.3303914 9.320061 31.173971 3.71024 5.7819834 2.6915457 10.72834
-6.752234 23.508173 8.203919 -13.786811 6.6881866 -14.952154 17.522013 15.456111
-6.1203766 5.816147 13.491775 33.840935 -9.677817 -2.929119 -8.230102 -1.182781
28.87146 -7.9637127 27.541512 36.449398 -7.9091463 8.772984 -8.709101 4.087369
-2.011153 30.281395 14.326488 -3.5162635 3.510691 25.003256 -2.8005471 1.884801
-4.9724975 6.50042 -6.0861573 -15.376159 -12.228295 7.0109344 29.995613 1.3352584
0.89300936 -31.35 -26.240479 -2.93147 -10.005655 -1.7274439 10.701118 5.470012
10.304749 11.031667 4.067815 27.027082 3.4426332 18.236553 -16.105684 12.105348
0.013786405 -0.33483478 0.237977 0.06394005 0.16861996 0.05287853 -0.06172642 0.29717913
0.011513054 0.19581535 -0.14224726 0.03748715 -0.32646325 -0.12254588 -0.28245786 -0.07986224
0.14582086 -0.020630926 -0.015209198 -0.03556013 0.092625916 0.033260137 -0.25669155 0.28499243
-0.07974681 0.05911261 -0.13205518 -0.039437026 0.3133045 0.20350823 -0.19797218 0.32014748
-0.1569378 -0.20238714 0.13319394 -0.106510565 -0.22418751 0.3008972 -0.071596235 -0.2085104
0.25158623 -0.113862455 0.071721405 -0.027626544 0.21337101 -0.24270335 0.3290542 -0.0007868707
0.30680147 0.22859702 -0.28787258 -0.001580298 -0.04664877 -0.22817077 -0.0710741 0.12646714
0.34206793 0.28676763 0.31865016 0.17063889 -0.09000245 -0.17388318 -0.046071827 -0.1647294
5.670656 -3.7615044 -14.311943 -8.319754 2.0373378 -12.408487 -13.209421 13.506419
-16.800123 15.85759 -3.232844 1.1987356 -14.397959 -3.7867994 -17.337368 -1.6496133
15.642464 9.814946 32.694996 5.8427777 -0.9967643 -2.1911757 -9.3671465 2.3213482
-4.587513 12.488654 24.479315 17.014084 -14.231636 -0.78825766 5.967508 -15.694343
2.0201077 30.704811 -11.400122 5.1692753 -1.8728048 -0.21191998 18.278091 15.150643
21.77044 5.5470467 -1.6394534 3.656533 -7.873118 -20.10419 -12.450504 -5.515054
8.912642 -1.8290281 4.76211 5.047272 8.138727 10.699972 13.39549 3.2557862
-6.532331 -18.301792 -24.507048 -19.391945 -14.292251 0.3340547 -0.3031176 13.708859
-31.299032 -18.095463 26.130219 6.817852 -22.673883 -18.535278 -26.11698 -6.1434193
20.052341 18.508308 -3.7868023 23.840801 -12.983052 1.8452104 18.842253 7.4720635
13.956378 -19.299881 -9.652737 15.289257 -4.3674417 -12.799694 -27.09021 14.699437
6.6037736 -8.410848 -12.851442 -2.1395 -5.0214863 -28.596895 10.8395605 16.88021
-9.152379 -0.37274754 11.100604 29.740332 12.789491 0.9129106 8.469493 33.472805
-2.2099078 -6.418862 -19.836739 48.57281 1.4289553 13.270448 5.045781 -13.295017
-7.251134 24.35616 9.36821 7.6176825 12.867416 4.61521 -17.554304 8.961472
-29.952541 17.49098 22.628725 4.3793764 14.347236 22.15887 -10.186604 -33.132935
00000000: a1d3 a741 9192 ca40 f81e 1541 4b64 f941
00000010: 9274 6d40 0206 b940 4942 2c40 48a7 2b41
00000020: 4d12 d8c0 bd10 bc41 4143 0341 c796 5cc1
00000030: a005 d640 063c 6fc1 152d 8c41 3b4c 7741
00000040: 20da c3c0 e01d ba40 4fde 5741 1e5d 0742
00000050: 57d8 1ac1 b076 3bc0 7fae 03c1 5e65 97bf
00000060: c0f8 e641 bcd6 fec0 0455 dc41 2fcc 1142
00000070: ba17 fdc0 245e 0c41 7a58 0bc1 bacb 8240
00000080: bbb6 00c0 4c40 f241 4b39 6541 760a 61c0
00000090: 29af 6040 ab06 c841 2a3c 33c0 2941 f13f
000000a0: b31e 9fc0 7103 d040 cdc1 c2c0 bf04 76c1
000000b0: 19a7 43c1 9359 e040 04f7 ef41 bfe9 aa3f
000000c0: 439c 643f cdcc fac1 80ec d1c1 349d 3bc0
000000d0: 2a17 20c1 e21c ddbf c837 2b41 570a af40
000000e0: 40e0 2441 b581 3041 8a2b 8240 7737 d841
000000f0: 1a54 5c40 76e4 9141 71d8 80c1 81af 4141
00000100: 60e0 613c 776f abbe 3eb0 733e 00f3 823d
00000110: b6aa 2c3e 2897 583d d8d4 7cbd dd27 983e
00000120: 40a1 3c3c d283 483e 44a9 11be 208c 193d
00000130: 3126 a7be 56f9 fabd 519e 90be d08e a3bd
00000140: 1052 153e 3002 a9bc 0030 79bc 80a7 11bd
00000150: a8b2 bd3d c83b 083d 136d 83be 87ea 913e
00000160: 4c52 a3bd 1020 723d 7939 07be b888 21bd
00000170: 7369 a03e 7664 503e 38b9 4abe 5fea a33e
00000180: 4db4 20be 933e 4fbe fe63 083e 3622 dabd
00000190: 6991 65be 330f 9a3e 0ca1 92bd c083 55be
000001a0: e9cf 803e b830 e9bd ace2 923d 1051 e2bc
000001b0: ee7d 5a3e 3a87 78be cb79 a83e 0046 4eba
000001c0: 1515 9d3e 5615 6a3e 0964 93be 0022 cfba
000001d0: c812 3fbd 99a5 69be 4c8f 91bd 9a80 013e
000001e0: 8723 af3e 35d3 923e 1d26 a33e f6bb 2e3e
000001f0: 3453 b8bd 6f0e 32be d0b5 3cbd d3ae 28be
00000200: 0476 b540 7dbc 70c0 b8fd 64c1 b61d 05c1
00000210: be63 0240 2a89 46c1 ca59 53c1 4b1a 5841
00000220: a766 86c1 b0b8 7d41 ebe6 4ec0 2b70 993f
00000230: 0a5e 66c1 ec5a 72c0 eeb2 8ac1 8726 d3bf
00000240: 8847 7a41 050a 1d41 adc7 0242 09f8 ba40
00000250: f22b 7fbf 393c 0cc0 d5df 15c1 f890 1440
00000260: e8cc 92c0 87d1 4741 a3d5 c341 d81c 8841
00000270: c8b4 63c1 41cb 49bf d3f5 be40 071c 7bc1
00000280: 7249 0140 74a3 f541 e666 36c1 b46a a540
00000290: 11b8 efbf 8d01 59be 8839 9241 0969 7241
000002a0: dc29 ae41 6881 b140 9cd9 d1bf a304 6a40
000002b0: 95f0 fbc0 62d5 a0c1 4435 47c1 537b b0c0
000002c0: 2e9a 0e41 981d eabf 3563 9840 4183 a140
000002d0: 3a38 0241 1633 2b41 ed53 5641 cd5e 5040
000002e0: db08 d1c0 126a 92c1 6f0e c4c1 b422 9bc1
000002f0: 0fad 64c1 3809 ab3e 3b32 9bbe 7d57 5b41
00000300: 6b64 fac1 82c3 90c1 b00a d141 d82b da40
00000310: 1d64 b5c1 4048 94c1 93ef d0c1 e496 c4c0
00000320: 326b a041 0411 9441 f85a 72c0 f6b9 be41
00000330: 95ba 4fc1 db2f ec3f efbc 9641 251b ef40
00000340: 534d 5f41 2866 9ac1 9c71 1ac1 cca0 7441
00000350: 15c2 8bc0 8ccb 4cc1 c0b8 d8c1 e530 6b41
00000360: 1d52 d340 d592 06c1 829f 4dc1 91ed 08c0
00000370: 04b0 a0c0 71c6 e4c1 d76e 2d41 ac0a 8741
00000380: 2570 12c1 c4d8 bebe 139c 3141 33ec ed41
00000390: c1a1 4c41 82b4 693f 0b83 0741 27e4 0542
000003a0: 216f 0dc0 5167 cdc0 a4b1 9ec1 8f4a 4242
000003b0: 02e8 b63f c153 5441 0a77 a140 64b8 54c1
000003c0: 4a09 e8c0 6ad9 c241 30e4 1541 0ec4 f340
000003d0: f0e0 4d41 cdaf 9340 376f 8cc1 3062 0f41
000003e0: ce9e efc1 87ed 8b41 a107 b541 da23 8c40
000003f0: 478e 6541 5e45 b141 54fc 22c1 2088 04c2

lstm.weight_hh_l0_reverse f4 [32, 8]
0.11704698 0.049203396 -0.33293033 0.05902505 0.15815452 -0.071534544 -0.2678424 0.2910399
0.23158368 0.039348453 -0.262802 0.12419605 0.34363696 -0.018603116 0.21574321 -0.18471184
0.12042898 0.035057753 0.14494732 -0.04433894 -0.0679481 -0.24121231 -0.10021445 0.2750652
-0.1565924 -0.3358378 -0.0063943565 0.118760586 -0.08272612 -0.23389246 0.0037486255 -0.09979692
0.23548779 -0.09644708 0.2432346 0.18245706 -0.21747124 -0.18371339 0.025812 -0.07858434
-0.18308945 0.13763243 0.107019454 -0.051637173 0.1570436 0.0777193 0.09787589 0.03248182
-0.08140069 0.17194512 0.013958961 0.25682035 -0.07574409 0.35305718 0.111371785 -0.03539437
0.19068441 -0.021826208 0.063970566 -0.10642113 0.09232384 0.14435905 -0.28673083 0.022646636
-0.34075975 -0.005362302 0.16434327 0.112077236 0.07858083 0.19824627 0.054349065 0.29377607
-0.10317838 -0.13278335 -0.2115373 -0.008561879 0.15128747 -0.01697436 -0.013023883 -0.11678238
-0.34880924 -0.32564703 0.1321682 0.29441383 -0.2660242 -0.26960108 -0.19125476 -0.13581641
-0.14002346 0.34031293 -0.28470337 -0.31909898 0.21482757 -0.14502448 0.13934052 -0.037121683
-0.1551717 -0.16036373 0.18641451 0.10048741 0.05716172 0.014017671 -0.30301487 0.23896912
0.1610181 0.051600933 -0.051214397 -0.29701915 0.12758693 -0.008622289 -0.14965238 0.10246298
-0.31249592 0.34229973 -0.09615356 0.33128253 0.28684536 0.14336815 -0.040913045 0.02496922
-0.28551173 0.122344464 -0.13921382 0.1066598 0.1275802 0.31440458 -0.25483733 -0.08867946
0.045483112 -0.095175326 -0.19042502 -0.20813121 -0.15682438 -0.11618453 -0.25018588 0.31096843
0.07643178 0.2799231 -0.121560186 -0.07135448 0.24271116 -0.10817419 -0.21267565 0.15089914
0.08272013 0.18669674 0.11836591 -0.029517263 0.1373358 -0.12267679 -0.097008586 0.059954733
0.017312706 0.0438385 0.11189249 0.345309 -0.006640613 -0.26963058 -0.28572905 -0.22644621
-0.061306983 0.1595138 -0.20971218 0.20004979 0.14460301 0.17564914 0.2873688 -0.3361157
0.15237978 -0.0299986 -0.027447969 0.0076213777 -0.29860258 0.183638 0.27830288 -0.352835
-0.2712392 0.15259829 -0.1307611 -0.02969253 -0.08324394 -0.0020757318 -0.28321418 0.11804336
-0.22193363 -0.0597803 -0.21297535 -0.31403583 0.030498594 -0.23066717 -0.033513963 -0.1646636
0.16568735 -0.31220096 -0.16006619 0.27421352 -0.30224782 0.18836722 0.02343896 0.27674046
0.31397745 0.044323027 0.345417 -0.06753948 0.22762498 -0.27848175 0.038212687 -0.10410027
-0.2912777 -0.23806736 0.18090263 0.10849002 0.027854443 -0.010252982 -0.24864575 -0.08487499
0.2587981 -0.33224908 0.1117748 -0.21034783 0.1507549 0.0760259 0.0019963682 -0.23259889
-0.30144534 0.103539765 -0.2984966 -0.34227818 0.031600624 0.21704993 0.12083888 0.29995444
-0.1470388 0.34191588 0.3298776 -0.17197245 0.095923394 -0.10760474 -0.2976254 0.35283825
-0.057941705 0.1682199 0.32844982 0.11419028 0.3528513 -0.0922806 -0.1686142 0.019576788
0.15699205 -0.1517904 0.039191693 0.018315285 0.11981505 -0.30640042 0.28651908 -0.23259282
00000000: 54b6 ef3d 8089 493d d875 aabe 40c4 713d
00000010: 42f3 213e b480 92bd a422 89be 2f03 953e
00000020: 4624 6d3e d82b 213d fc8d 86be 805a fe3d
00000030: 2ff1 af3e 9065 98bc caeb 5c3e 1a25 3dbe
00000040: 78a3 f63d b898 0f3d 126d 143e c09c 35bd
00000050: 6028 8bbd 5c00 77be 3c3d cdbd 59d5 8c3e
00000060: c259 20be eff2 abbe c087 d1bb c038 f33d
00000070: 506c a9bd 8181 6fbe 80ab 753b 5462 ccbd
00000080: b623 713e 0c86 c5bd 7e12 793e 06d6 3a3e
00000090: c8b0 5ebe 5d1f 3cbe b073 d33c d4f0 a0bd
000000a0: cd7b 3bbe 84ef 0c3e 042d db3d 8081 53bd
000000b0: 0ad0 203e 4c2b 9f3d 2873 c83d a80b 053d
000000c0: 68b5 a6bd 6212 303e 20b4 643c f57d 833e
000000d0: b81f 9bbd e9c3 b43e e416 e43d b0f9 10bd
000000e0: c642 433e e0cc b2bc 0003 833d 52f3 d9bd
000000f0: 4814 bd3d dcd2 133e 62ce 92be 7085 b93c
00000100: 1078 aebe 40b6 afbb 9a49 283e c088 e53d
00000110: fcee a03d 1201 4b3e 209d 5e3d d169 963e
00000120: 304f d3bd 5cf8 07be 3c9d 58be 2047 0cbc
00000130: 1aeb 1a3e d00d 8bbc 2062 55bc 9a2b efbd
00000140: 2097 b2be 35bb a6be 1a57 073e 69bd 963e
00000150: 5334 88be 2709 8abe 4ad8 43be 7513 0bbe
00000160: 4f62 0fbe 7f3d ae3e a4c4 91be f160 a3be
00000170: c2fb 5b3e 4c81 14be 48af 0e3e e80c 18bd
00000180: 55e5 1ebe 6436 24be 72e3 3e3e 58cc cd3d
00000190: 6822 6a3d 60aa 653c c424 9bbe 52b4 743e
000001a0: eee1 243e 805b 533d 30c6 51bd e512 98be
000001b0: 26a6 023e 8044 0dbc 793e 19be 1cd8 d13d
000001c0: 77ff 9fbe e941 af3e 28ec c4bd dd9d a93e
000001d0: 65dd 923e 1acf 123e 7094 27bd 408c cc3c
000001e0: 982e 92be bc8f fa3d 118e 0ebe 7470 da3d
000001f0: 62a4 023e a3f9 a03e 0a7a 82be 949d b5bd
00000200: 804c 3a3d 48eb c2bd c7fe 42be 5920 55be
00000210: 9296 20be 28f2 edbd 5d18 80be 4137 9f3e
00000220: 4488 9c3d 1552 8f3e 8cf4 f8bd 4c22 92bd
00000230: 4689 783e 6e8a ddbd a5c7 59be 4e85 1a3e
00000240: 2c69 a93d 6e2d 3f3e d469 f23d 30ce f1bc
00000250: c2a1 0c3e f83d fbbd 70ac c6bd 1893 753d
00000260: 60d3 8d3c 0090 333d e427 e53d 57cc b03e
00000270: 8099 d9bb 050d 8abe 144b 92be 84e1 67be
00000280: 081d 7bbd 9657 233e cabe 56be dad9 4c3e
00000290: d012 143e 5edd 333e 0122 933e 5b17 acbe
000002a0: 7209 1c3e a0bf f5bc 90da e0bc c0bc f93b
000002b0: 70e2 98be 9a0b 3c3e b77d 8e3e caa6 b4be
000002c0: dddf 8abe ba42 1c3e 3de6 05be c03d f3bc
000002d0: cc7b aabd 0009 08bb 7301 91be b8c0 f13d
000002e0: 9242 63be 30dc 74bd 3616 5abe 4ec9 a0be
000002f0: 30d8 f93c 0434 6cbe f045 09bd 939d 28be
00000300: f2a9 293e ced8 9fbe 64e8 23be b765 8c3e
00000310: 3ac0 9abe 56e3 403e 1003 c03c edb0 8d3e
00000320: a7c1 a03e 108c 353d 7fda b03e 2452 8abd
00000330: 8616 693e 2995 8ebe e884 1c3d 8632 d5bd
00000340: 5a22 95be eec7 73be 8a3e 393e 0430 de3d
00000350: 002f e43c 20fc 27bc fe9c 7ebe f0d2 adbd
00000360: 2f81 843e 8d1c aabe 30ea e43d 6c65 57be
00000370: 7e5f 1a3e 78b3 9b3d 80d5 023b 672e 6ebe
00000380: 0b57 9abe a80c d43d 8cd4 98be 163f afbe
00000390: a86f 013d 5642 5e3e 607a f73d a193 993e
000003a0: 5791 16be 990f af3e b7e5 a83e 8c19 30be
000003b0: 7c73 c43d e05f dcbd 5b62 98be 37a7 b43e
000003c0: 4854 6dbd d641 2c3e 932a a83e 98dc e93d
000003d0: eda8 b43e 9cfd bcbd 33a9 2cbe 805f a03c
000003e0: 86c2 203e f16e 1bbe 7887 203d f009 963c
000003f0: 9861 f53d 84e0 9cbe a1b2 923e d02c 6ebe

lstm.bias_ih_l0_reverse f4 [32]
-18.25275 -18.70079 4.9980597 -23.271025 -9.654043 -19.661629 -37.046627 -9.880108
-0.15772374 -0.24491596 -0.19897628 -0.19614798 0.07296306 -0.31449386 -0.12937577 -0.065778196
-1.1302351 -3.1814015 10.368332 3.7077081 0.78216505 -7.2032847 1.697293 -12.270579
-21.186222 -5.925163 -40.288177 -19.42341 -18.822598 -33.971577 -39.314865 -5.6679068
00000000: a205 92c1 389b 95c1 1bf0 9f40 0f2b bac1
00000010: f676 1ac1 044b 9dc1 bf2f 14c2 ec14 1ec1
00000020: 5582 21be 40cb 7abe 70c0 4bbe 04db 48be
00000030: a86d 953d 5705 a1be 157b 04be b8b6 86bd
00000040: 8bab 90bf 159c 4bc0 b0e4 2541 174b 6d40
00000050: f83b 483f 4f81 e6c0 e640 d93f 4b54 44c1
00000060: 627d a9c1 ef9a bdc0 1827 21c2 2563 9bc1
00000070: ae94 96c1 e5e2 07c2 6c42 1dc2 7e5f b5c0

lstm.bias_hh_l0_reverse f4 [32]
-18.530403 -19.151566 4.9164214 -23.463282 -10.158978 -19.270561 -37.472256 -10.10262
0.15288237 0.2094439 0.32750717 0.09216425 0.084972054 -0.22839145 -0.16203474 0.1887649
-1.368942 -2.6169686 10.447414 3.2010581 0.60777426 -7.290138 1.5252086 -12.611776
-20.918219 -6.213056 -40.33751 -19.878138 -19.189823 -34.203243 -38.973938 -5.7753
00000000: 443e 94c1 6836 99c1 5353 9d40 cdb4 bbc1
00000010: 2d8b 22c1 1c2a 9ac1 97e3 15c2 55a4 21c1
00000020: 328d 1c3e 7678 563e 05af a73e 9cc0 bc3d
00000030: d405 ae3d 73df 69be 6fec 25be 964b 413e
00000040: 7e39 afbf 6a7c 27c0 9c28 2741 23de 4c40
00000050: 1897 1b3f cf48 e9c0 093a c33f d6c9 49c1
00000060: 8358 a7c1 5bd1 c6c0 9c59 21c2 6d06 9fc1
00000070: c284 99c1 1fd0 08c2 50e5 1bc2 42cf b8c0

hidden2tag.weight f4 [878, 16]
-3.9172757 4.6335025 1.8348114 9.174242 -1.9716234 -1.9125515 -3.0912428 -5.393705
-2.1254559 8.326322 4.3042016 13.033233 -7.731921 8.925567 5.702343 7.462773
-19.66585 27.664637 15.258996 24.606619 -18.106033 11.753556 -18.745504 -25.66729
-4.344943 14.686939 15.216638 27.456295 -5.4698596 22.094425 0.3731834 -19.061146
-21.960146 13.053447 10.917727 22.871494 -7.4507747 -1.020782 -19.891628 -16.909105
-14.382688 24.58581 14.52005 28.616783 -7.9981074 25.916016 6.366134 2.5070462
-33.281406 13.982756 20.399284 19.264187 -11.519756 -2.4549372 -14.139189 -13.5917225
-10.959021 23.851978 1.7980453 28.115692 2.49834 16.049986 -14.133411 30.161053
-21.46128 10.974463 8.199026 23.046465 -7.7949224 -4.460121 -13.025823 -17.936415
-10.707863 24.527727 30.638525 21.42788 -14.338808 28.746264 80.22552 -10.689001
-34.891903 26.757288 11.698888 21.874992 -24.273188 22.26204 -8.718018 -13.341394
-21.806019 21.592749 24.49808 24.753735 14.192188 7.1801476 -8.222511 15.640834
-21.600773 13.199422 10.1214 22.942661 -5.2283316 4.1858535 -19.387438 -17.005938
-15.242331 24.634344 16.805717 28.65506 -8.1069765 27.26809 16.023296 1.1875324
-20.996548 6.688745 5.3846626 22.13225 -6.573713 9.90716 -15.023385 -16.952822
-16.637156 20.055779 26.413662 18.911695 -6.768163 26.39327 5.083141 2.300576
-21.55975 12.8304825 10.865112 22.18339 -4.8026047 2.1426852 -20.081568 -16.938215
-14.172277 24.628967 15.173499 28.348873 -7.758446 27.307573 7.0072637 1.0835569
-16.171839 12.803307 21.286266 21.786583 -5.146658 -4.778338 -22.302246 -16.939999
-11.520929 24.58138 1.720807 13.970115 -8.581152 26.83046 8.249417 -1.8053318
-17.558321 17.007715 32.462376 18.429419 0.18899676 6.549939 -43.824432 -7.2130275
-5.0130663 18.625683 -2.816077 17.387566 -9.91652 27.325048 9.79666 -17.67566
-22.005766 13.562472 12.03731 22.524317 -5.2529583 4.4971886 -19.373379 -16.831224
-14.860833 21.722395 15.652855 28.480577 -8.102074 27.307058 14.558688 1.1987029
-38.83531 7.632024 9.728937 9.451625 -11.066815 4.551307 -19.791285 -21.496841
-8.101086 33.059208 10.282518 20.8803 -9.379488 27.798399 45.998203 7.951674
-26.858881 13.846361 8.815708 14.334708 -8.300545 6.2768917 -12.775037 -15.972548
-15.289176 25.320755 30.034418 20.49099 -12.276486 30.382416 70.92337 -3.8533654
-18.206556 17.43322 7.8172193 29.869793 -6.967225 5.236288 -0.47787806 -15.215775
-1.4258814 24.683159 14.021457 24.304304 -13.228252 25.62125 7.169625 6.465398
-19.570066 17.804296 13.722237 26.720264 -5.1380663 2.162877 -11.811542 -16.996017
-17.094664 25.101274 18.961523 33.32232 -5.581177 27.241274 12.898865 0.24684435
00000000: a5b4 7ac0 a745 9440 1adb ea3f b2c9 1241
00000010: 285e fcbf 7dce f4bf ecd6 45c0 3b99 acc0
00000020: 7807 08c0 9d38 0541 05bc 8940 1f88 5041
00000030: e66b f7c0 1fcf 0e41 9879 b640 09cf ee40
00000040: a953 9dc1 2d51 dd41 d924 7441 5bda c441
00000050: 28d9 90c1 910e 3c41 cbf6 95c1 9c56 cdc1
00000060: c609 8bc0 b4fd 6a41 5977 7341 7ea6 db41
00000070: 1709 afc0 62c1 b041 e511 bf3e 3a7d 98c1
00000080: 61ae afc1 ebda 5041 03af 2e41 d2f8 b641
00000090: bf6c eec0 fca8 82bf 0e22 9fc1 d945 87c1
000000a0: 7d1f 66c1 bdaf c441 2052 6841 2cef e441
000000b0: 7ff0 ffc0 0054 cf41 5fb7 cb40 7273 2040
000000c0: 2920 05c2 5eb9 5f41 bc31 a341 0e1d 9a41
000000d0: ec50 38c1 b11d 1dc0 1e3a 62c1 b277 59c1
000000e0: 2658 2fc1 dad0 be41 5926 e63f f0ec e041
000000f0: cde4 1f40 5f66 8041 7422 62c1 d649 f141
00000100: b4b0 abc1 6797 2f41 362f 0341 295f b841
00000110: 0170 f9c0 50b9 8ec0 c569 50c1 c77d 8fc1
00000120: 6853 2bc1 c938 c441 b31b f541 4c6c ab41
00000130: c26b 65c1 59f8 e541 7773 a042 2606 2bc1
00000140: 4f91 0bc2 ed0e d641 a52e 3b41 fcff ae41
00000150: 7d2f c2c1 a818 b241 007d 0bc1 5a76 55c1
00000160: ba72 aec1 f3bd ac41 11fc c341 a607 c641
00000170: 3413 6341 c5c3 e540 688f 03c1 db40 7a41
00000180: 62ce acc1 d530 5341 41f1 2141 928a b741
00000190: 7e4e a7c0 83f2 8540 7919 9bc1 290c 88c1
000001a0: 96e0 73c1 2313 c541 1c72 8641 903d e541
000001b0: 2db6 01c1 0c25 da41 b62f 8041 1001 983f
000001c0: eef8 a7c1 330a d640 284f ac40 d90e b141
000001d0: db5b d2c0 ba83 1e41 c95f 70c1 619f 87c1
000001e0: e518 85c1 3c72 a041 2e4f d341 274b 9741
000001f0: cb94 d8c0 6b25 d341 17a9 a240 a33c 1340
00000200: 5e7a acc1 a849 4d41 80d7 2d41 9577 b141
00000210: f0ae 99c0 c121 0940 0da7 a0c1 7781 87c1
00000220: a6c1 62c1 2008 c541 a7c6 7241 7eca e241
00000230: 3145 f8c0 e975 da41 813b e040 feb1 8a3f
00000240: ed5f 81c1 58da 4c41 464a aa41 ec4a ae41
00000250: 6cb1 a4c0 25e8 98c0 006b b2c1 1e85 87c1
00000260: ba55 38c1 aba6 c441 6743 dc3f 9785 5f41
00000270: 664c 09c1 c8a4 d641 9dfd 0341 1d15 e7bf
00000280: 7177 8cc1 cd0f 8841 79d9 0142 736f 9341
00000290: 5e88 413e 1a99 d140 384c 2fc2 1fd1 e6c0
000002a0: 0a6b a0c0 6601 9541 9b3a 34c0 bc19 8b41
000002b0: 11aa 1ec1 b399 da41 1fbf 1c41 c067 8dc1
000002c0: cf0b b0c1 e3ff 5841 d298 4041 cd31 b441
000002d0: 3c18 a8c0 f8e8 8f40 aefc 9ac1 59a6 86c1
000002e0: f9c5 6dc1 77c7 ad41 1872 7a41 39d8 e341
000002f0: 18a2 01c1 db74 da41 63f0 6841 196f 993f
00000300: 5c57 1bc2 8a39 f440 baa9 1b41 db39 1741
00000310: ad11 31c1 4fa4 9140 8d54 9ec1 88f9 abc1
00000320: 0c9e 01c1 a13c 0442 3285 2441 db0a a741
00000330: 6212 16c1 1f63 de41 29fe 3742 1d74 fe40
00000340: fdde d6c1 b28a 5d41 240d 0d41 f75a 6541
00000350: 08cf 04c1 4cdc c840 8d66 4cc1 8e8f 7fc1
00000360: 77a0 74c1 e890 ca41 7d46 f041 8ced a341
00000370: 7d6c 44c1 300f f341 c4d8 8d42 8a9d 76c0
00000380: 07a7 91c1 3c77 8b41 a926 fa40 56f5 ee41
00000390: 82f3 dec0 ac8f a740 6fac f4be d073 73c1
000003a0: 4883 b6bf 1c77 c541 e357 6041 376f c241
000003b0: eca6 53c1 52f8 cc41 916d e540 8ae4 ce40
000003c0: 7f8f 9cc1 336f 8e41 488e 5b41 1ac3 d541
000003d0: 0a6b a4c0 946c 0a40 13fc 3cc1 d8f7 87c1
000003e0: dfc1 88c1 69cf c841 33b1 9741 0e4a 0542
000003f0: 0199 b2c0 21ee d941 c061 4e41 c4c4 7c3e

hidden2tag.bias f4 [878]
-56.822308 -31.444057 -26.36246 -30.88075 -25.556503 -40.043087 -26.74344 -25.718483
-25.854277 -26.443783 -32.783737 -26.243717 -25.851046 -27.039259 -25.578154 -26.809221
-25.475756 -32.844116 -32.57466 -31.232666 -28.19058 -26.643684 -27.546211 -25.880539
-33.709576 -26.56325 -27.741526 -25.535158 -30.185322 -25.830017 -27.289276 -27.476387
-28.654055 -25.833843 -28.675875 -28.461967 -25.273727 -29.981985 -103.33987 -26.849539
-31.632776 -31.696085 -33.06544 -26.488352 -29.615398 -30.788528 -33.005184 -33.898594
-26.697216 -31.12216 -25.634481 -32.617153 -29.902107 -34.190887 -33.473732 -30.493158
-31.875301 -30.648586 -35.13712 -35.458187 -30.05556 -32.70238 -35.949425 -28.381128
-25.365286 -32.81509 -26.93692 -25.085749 -27.62972 -28.002989 -30.139566 -30.863651
-27.80997 -34.83471 -30.798035 -26.038797 -34.515965 -25.571167 -27.174847 -50.933167
-33.61601 -28.256504 -34.949596 -28.172327 -30.49321 -28.109001 -31.305147 -31.098642
-27.00537 -38.850346 -32.8279 -34.932213 -29.733187 -31.640778 -26.221518 -37.26052
-27.894398 -32.14439 -36.022667 -39.70792 -27.238705 -29.28823 -29.216986 -29.72583
-27.502754 -33.98712 -30.256014 -35.85713 -28.135374 -34.046974 -34.001904 -32.123005
-29.98848 -26.835983 -34.25819 -36.43721 -30.42843 -29.704695 -32.29634 -28.420614
-28.913452 -29.33493 -35.42703 -28.889671 -33.681393 -29.747768 -27.2366 -32.51349
-30.414375 -30.97807 -26.851097 -32.378128 -43.648632 -33.010494 -28.127111 -27.799372
-32.5099 -31.950579 -27.470566 -33.698265 -30.705221 -38.412117 -30.99753 -34.705364
-27.25342 -26.946436 -36.179276 -32.257366 -28.593355 -37.597492 -31.894423 -36.056667
-30.448362 -25.257944 -28.765148 -34.921013 -27.653173 -33.537624 -31.79733 -29.486052
-33.468636 -29.359415 -27.766403 -27.91045 -28.10873 -42.27345 -28.854254 -29.378094
-29.03291 -30.738903 -31.351892 -30.918314 -29.027266 -33.8202 -30.468359 -31.138693
-29.083744 -35.172005 -37.23888 -28.810898 -28.87035 -33.474285 -29.76098 -28.851627
-33.47029 -29.010187 -29.312613 -34.751728 -33.82221 -28.199108 -29.122162 -33.37629
-37.21673 -30.767551 -34.35895 -29.628576 -29.806519 -31.824076 -33.781567 -33.067646
-31.99898 -26.971052 -28.973238 -26.415686 -33.220745 -33.473953 -31.352835 -47.136826
-30.198977 -28.502539 -30.204626 -31.292072 -28.689623 -41.381325 -45.52383 -33.169933
-32.71092 -33.58213 -31.545012 -32.26333 -34.99777 -47.38102 -48.26656 -30.96164
-31.223629 -36.809586 -34.197334 -27.60496 -32.36737 -34.712986 -31.759743 -32.196804
-28.64689 -30.685467 -44.624233 -29.883678 -30.527653 -31.626125 -31.143454 -32.79093
-28.997265 -30.076649 -29.767 -27.425888 -29.621574 -31.292316 -31.54765 -55.302906
-28.141993 -30.460398 -36.447853 -35.5676 -31.658634 -32.15903 -32.803497 -31.12603
00000000: 0b4a 63c2 6e8d fbc1 51e6 d2c1 c70b f7c1
00000010: b873 ccc1 1f2c 20c2 91f2 d5c1 74bf cdc1
00000020: 8fd5 cec1 de8c d3c1 8c22 03c2 22f3 d1c1
00000030: f1ce cec1 6750 d8c1 0fa0 ccc1 4979 d6c1
00000040: 59ce cbc1 6060 03c2 744c 02c2 80dc f9c1
00000050: 4f86 e1c1 4426 d5c1 a45e dcc1 580b cfc1
00000060: 9bd6 06c2 8981 d4c1 a5ee ddc1 0148 ccc1
00000070: 8a7b f1c1 e0a3 cec1 7050 dac1 a4cf dbc1
00000080: 813b e5c1 b6ab cec1 3168 e5c1 1cb2 e3c1
00000090: 9830 cac1 1bdb efc1 03ae cec2 dbcb d6c1
000000a0: ed0f fdc1 9591 fdc1 0343 04c2 25e8 d3c1
000000b0: 56ec ecc1 e84e f6c1 4f05 04c2 2998 07c2
000000c0: e693 d5c1 2ffa f8c1 6b13 cdc1 f777 02c2
000000d0: 8437 efc1 78c3 08c2 1ae5 05c2 fdf1 f3c1
000000e0: 9e00 ffc1 4e30 f5c1 698c 0cc2 2fd5 0dc2
000000f0: c971 f0c1 3dcf 02c2 36cc 0fc2 8d0c e3c1
00000100: 1bec cac1 a742 03c2 d07e d7c1 9daf c8c1
00000110: ab09 ddc1 1f06 e0c1 d51d f1c1 c2e8 f6c1
00000120: d27a dec1 be56 0bc2 6062 f6c1 754f d0c1
00000130: 5910 0ac2 c091 ccc1 1666 d9c1 90bb 4bc2
00000140: cb76 06c2 520d e2c1 63cc 0bc2 ed60 e1c1
00000150: 18f2 f3c1 3cdf e0c1 f170 fac1 05ca f8c1
00000160: ff0a d8c1 c166 1bc2 c54f 03c2 96ba 0bc2
00000170: 91dd edc1 5020 fdc1 abc5 d1c1 c60a 15c2
00000180: ba27 dfc1 db93 00c2 3617 10c2 e9d4 1ec2
00000190: dee8 d9c1 4c4e eac1 63bc e9c1 80ce edc1
000001a0: a405 dcc1 d0f2 07c2 510c f2c1 b36d 0fc2
000001b0: 3f15 e1c1 1a30 08c2 f301 08c2 f57d 00c2
000001c0: 68e8 efc1 18b0 d6c1 6308 09c2 b4bf 11c2
000001d0: 6d6d f3c1 37a3 edc1 742f 01c2 6b5d e3c1
000001e0: c04e e7c1 f0ad eac1 47b5 0dc2 0c1e e7c1
000001f0: bfb9 06c2 6efb edc1 8fe4 d9c1 d00d 02c2
00000200: a450 f3c1 16d3 f7c1 0ccf d6c1 3483 01c2
00000210: 3398 2ec2 bf0a 04c2 5304 e1c1 1d65 dec1
00000220: 230a 02c2 c99a ffc1 b8c3 dbc1 06cb 06c2
00000230: 4ba4 f5c1 02a6 19c2 f1fa f7c1 4bd2 0ac2
00000240: 0107 dac1 4d92 d7c1 94b7 10c2 8b07 01c2
00000250: 31bf e4c1 d563 16c2 c727 ffc1 073a 10c2
00000260: 3f96 f3c1 4510 cac1 061f e6c1 1eaf 0bc2
00000270: b339 ddc1 8726 06c2 ef60 fec1 6fe3 ebc1
00000280: e2df 05c2 15e0 eac1 9821 dec1 9a48 dfc1
00000290: aede e0c1 0318 29c2 83d5 e6c1 5606 ebc1
000002a0: 6643 e8c1 46e9 f5c1 add0 fac1 b558 f7c1
000002b0: d737 e8c1 e347 07c2 33bf f3c1 0b1c f9c1
000002c0: 82ab e8c1 22b0 0cc2 9df4 14c2 b87c e6c1
000002d0: 7af6 e6c1 abe5 05c2 7d16 eec1 22d0 e6c1
000002e0: 94e1 05c2 dd14 e8c1 3b80 eac1 c501 0bc2
000002f0: f149 07c2 c697 e1c1 30fa e8c1 5281 05c2
00000300: eedd 14c2 f223 f6c1 916f 09c2 5307 edc1
00000310: c073 eec1 b597 fec1 5320 07c2 4545 04c2
00000320: e9fd ffc1 b7c4 d7c1 31c9 e7c1 5353 d3c1
00000330: 0be2 04c2 54e5 05c2 9bd2 fac1 1c8c 3cc2
00000340: 8197 f1c1 3305 e4c1 13a3 f1c1 2a56 fac1
00000350: 5984 e5c1 7a86 25c2 6718 36c2 03ae 04c2
00000360: fbd7 02c2 1a54 06c2 2f5c fcc1 a60d 01c2
00000370: b7fd 0bc2 2a86 3dc2 f510 41c2 70b1 f7c1
00000380: fec9 f9c1 043d 13c2 12ca 08c2 f5d6 dcc1
00000390: 3078 01c2 19da 0ac2 f413 fec1 87c9 00c2
000003a0: d52c e5c1 d67b f5c1 377f 32c2 c611 efc1
000003b0: a238 f4c1 4e02 fdc1 cb25 f9c1 ea29 03c2
000003c0: 66fa e7c1 fa9c f0c1 d122 eec1 3868 dbc1
000003d0: fcf8 ecc1 aa56 fac1 9661 fcc1 2d36 5dc2
000003e0: cd22 e1c1 e5ae f3c1 9aca 11c2 3945 0ec2
000003f0: e244 fdc1 d9a2 00c2 c836 03c2 1c02 f9c1
