model/rnn_model/model1.pth (torch, 76996 bytes, 11 tensors)

word_embeddings.weight f4 [301, 8]
000000 2a 72 85 bf da c3 6d c0 2a b6 8e bf 90 fd 1c c1
       -1.0425465 -3.7150788 -1.1149342 -9.811905
000010 21 59 81 be 8e b7 ee be 6f 00 bb 40 cf a1 71 c0
       -0.25263312 -0.46624416 5.843803 -3.775501
000020 04 e8 3b 41 18 f3 f3 c0 c2 56 a6 3f 76 8d 91 be
       11.744144 -7.6234245 1.2995226 -0.2842824
000030 47 e7 48 3f 0c 92 8d c1 f6 6e 17 41 eb d6 a3 41
       0.784779 -17.696312 9.46459 20.47994
000040 0b 29 45 be 77 bc 12 c1 5b 8d 81 c0 b3 e1 d9 41
       -0.19253938 -9.171012 -4.0485053 27.235205
000050 67 83 12 41 22 61 20 40 b9 9f 2c c1 2f 47 8d 41
       9.157081 2.5059285 -10.788995 17.659758
000060 2e f4 ac 41 77 68 b4 be fa 12 62 41 6d bd dd bd
       21.619228 -0.3523595 14.129633 -0.10827146
000070 4f 09 65 41 3e fe 3e 41 a0 cb 63 40 4c 9f 8b 41
       14.314773 11.937071 3.5593033 17.452782
000080 d9 6e 24 c1 8b 3b b6 40 68 e7 ac c0 5f b6 41 41
       -10.277062 5.6947684 -5.403248 12.107024
000090 ef 2c a8 c0 9e 0a a5 41 67 77 6c c1 1d 19 15 41
       -5.255485 20.630184 -14.779151 9.318631
0000a0 5d f4 2f c0 f6 e7 8b 3f ec ad 91 c1 da f0 8f 41
       -2.7492898 1.0930164 -18.209923 17.992603
0000b0 ce 49 b5 c1 61 d1 9f 40 e4 8b dc 40 23 24 38 40
       -22.661037 4.994309 6.8920765 2.8772056
0000c0 47 4c b0 40 9f e7 0f 41 ed 50 1a 40 0a 93 7d c1
       5.509311 8.994048 2.4111893 -15.848398
0000d0 2c a4 85 41 8d 4b 89 c0 18 4b 88 40 0d 2f 32 c1
       16.705162 -4.2904725 4.2591667 -11.136487
0000e0 ba f0 b2 40 c7 c6 9d 41 7a de 26 41 65 68 51 41
       5.5918856 19.72206 10.429316 13.087987
0000f0 8a e9 a1 40 9d 2c e2 3f 0f c1 f2 c0 07 98 c2 c0
       5.059758 1.7669865 -7.5860667 -6.081058
000100 c8 b3 01 41 f2 3d 29 c0 99 34 bc bf 60 5a 89 c0
       8.106392 -2.6444058 -1.4703552 -4.292282
000110 65 7b ec 3f c9 9d 7b 40 01 52 17 40 81 2f c6 c1
       1.8475157 3.9315054 2.3643801 -24.773195
000120 6e f3 c7 bf 14 46 2a 41 7d 75 63 c1 fa a5 a3 40
       -1.5621164 10.642109 -14.216184 5.114011
000130 aa e2 40 41 bb 23 90 41 73 94 fb 3f 24 53 a2 c1
       12.055338 18.017447 1.9654678 -20.290596
000140 9b 4f 89 40 ce 54 14 40 7e 98 dc bf ac 33 ed 3f
       4.2909675 2.317676 -1.7234037 1.8531394
000150 72 a7 17 bf ae bc 15 c2 82 13 e1 3c 74 19 87 41
       -0.59239876 -37.434258 0.027475122 16.887428
000160 64 38 0f 41 7f 85 fb c0 44 e1 65 c1 e9 f9 a2 41
       8.951267 -7.860046 -14.3674965 20.372026
000170 06 5d d8 40 0e b3 94 c1 26 bc 3b 40 d3 ce 9d 41
       6.7613554 -18.58743 2.9333587 19.725988
000180 5a ad fe c0 b9 1b 0d c1 75 29 e8 3c 5e 78 38 c1
       -7.958661 -8.819268 0.02834008 -11.5293865
000190 e1 1f 36 41 d8 53 9d c1 b7 20 b1 3f 47 2c 82 40
       11.382783 -19.66594 1.3838109 4.067905
0001a0 8d c6 1c c0 fc 54 80 41 fe 18 97 bf e9 ab ce 40
       -2.4496186 16.041496 -1.1804502 6.458485
0001b0 38 af b2 c0 63 3c 91 41 6e 6d 5d 41 b0 a8 d9 40
       -5.583889 18.154486 13.839216 6.8018417
0001c0 a5 d2 6f c0 eb 15 f3 3f 08 af 50 c1 b8 a9 62 40
       -3.7472317 1.8991064 -13.042732 3.5416088
0001d0 57 ee 0b c1 56 e2 35 3f 37 de 53 41 fc 48 84 40
       -8.745688 0.71048486 13.241752 4.133909
0001e0 ae 32 73 3f 5b ed 88 41 03 83 90 40 12 00 e7 40
       0.94999206 17.115896 4.5159926 7.2187586
0001f0 9e 36 a3 c0 28 d7 63 c0 86 49 5b c1 05 75 e5 3f
       -5.100417 -3.560007 -13.70545 1.7926337
000200 52 55 04 41 8a 93 23 41 c0 93 c5 bf c2 a4 6e 41
       8.27083 10.22352 -1.5435715 14.915224
000210 13 03 85 c1 e7 5a ad c1 69 55 6c c1 45 e0 fe 40
       -16.626501 -21.669386 -14.770852 7.9648767
000220 87 5b 78 41 dd 5e af c0 21 3f 80 c0 d3 11 29 c0
       15.522346 -5.48033 -4.007706 -2.641713
000230 29 e1 9c 41 62 96 d4 c0 c9 ee dd bf a2 2f 6d 41
       19.609941 -6.6433573 -1.7338496 14.824129
000240 e8 04 70 c1 e9 87 4c c1 0f a7 95 c1 bf be 11 c1
       -15.001198 -12.783181 -18.706572 -9.109069
000250 71 57 8e bf f6 25 bf 3f 7f 91 a7 3f d9 01 94 41
       -1.1120435 1.493346 1.3091277 18.500902
000260 2b 31 a3 40 62 d9 91 41 0d cd 33 40 32 26 b5 41
       5.099752 18.231144 2.8093903 22.64365
000270 3c a3 c9 41 1a bd 18 41 09 42 fc bc 4b b5 88 40
       25.204704 9.546167 -0.030793207 4.2721305
000280 cc 9c 85 c0 bc 49 a0 41 49 e1 2e 41 7c 11 c7 40
       -4.1753902 20.036003 10.930001 6.2208843
000290 b2 e4 cc bf e6 93 82 40 09 63 d7 3d 00 52 ac 41
       -1.6007292 4.080554 0.10516936 21.54004
0002a0 60 09 2f c1 b8 77 45 c1 e6 db a0 c0 02 b7 71 c1
       -10.939789 -12.341728 -5.026843 -15.10718
0002b0 c4 bf 72 c0 d5 51 18 bd d6 a3 4d 40 86 86 72 40
       -3.7929544 -0.037187416 3.2131248 3.7894607
0002c0 91 d3 7d c1 e2 1c 5a c0 4a c0 2e c1 1d 9b 02 41
       -15.864152 -3.4080129 -10.921946 8.162869
0002d0 c6 00 20 c1 20 f8 1e 41 14 91 2b c1 c6 af ed 40
       -10.000189 9.935577 -10.722919 7.4277067
0002e0 50 9b c6 c1 d5 c5 ad 40 87 94 c1 40 8d e7 09 41
       -24.825836 5.4303994 6.049381 8.619031
0002f0 70 4f 90 c1 86 20 c3 c0 db 79 44 40 c4 d2 4a 41
       -18.038788 -6.09772 3.0699375 12.676456
000300 b4 f0 85 41 48 da e5 c0 79 e9 7a 41 a2 81 23 40
       16.74253 -7.1828957 15.682 2.5547872
000310 b3 cd 97 41 58 04 b0 c0 79 11 a9 3f 60 f5 07 c0
       18.97544 -5.5005302 1.3208457 -2.1243515
000320 7c d0 43 c1 92 8d b1 40 ec 30 2c 41 e6 29 f6 c0
       -12.2383995 5.5485315 10.761944 -7.6926146
000330 a1 e7 68 41 90 f4 cc c0 a4 a9 45 40 94 18 cd be
       14.55655 -6.404854 3.088479 -0.40057814
000340 fe 70 a0 40 12 e1 b9 c0 b6 21 a3 c0 20 57 74 40
       5.013793 -5.8087244 -5.097865 3.8178177
000350 70 b2 bc 41 84 40 91 c0 2e 18 31 c1 e9 9b b5 c0
       23.587128 -4.5391254 -11.068403 -5.675282
000360 78 d3 3f c0 5a be 19 c0 40 9d c4 c0 42 45 6e c1
       -2.997282 -2.4022431 -6.1441956 -14.891909
000370 b3 9f f1 be 1a 65 5a c1 bf 0d d4 c0 2f 0d 9e 40
       -0.47192153 -13.649683 -6.626678 4.9391093
000380 90 78 3d 41 80 0c af 41 00 c4 91 bf 4f 3a 86 bf
       11.841934 21.881104 -1.138794 -1.0486544
000390 5d d4 51 40 51 c2 c8 3c 93 5b 25 c1 0d b9 19 c1
       3.2785866 0.02450672 -10.334857 -9.607678
0003a0 f8 0b d4 41 e3 a0 78 40 73 f5 37 41 0b 43 50 c0
       26.505844 3.8848197 11.497424 -3.254092
0003b0 16 8a e6 be e1 dc 83 c0 e2 74 18 c1 44 2e 82 bf
       -0.45027226 -4.1207128 -9.528536 -1.0170369
0003c0 97 b4 4f 41 d3 7d 15 bf 86 13 fe bf d6 62 14 41
       12.981589 -0.5839512 -1.9849708 9.27413
0003d0 25 25 15 c0 d8 20 43 c1 ac 4d 02 c1 69 7e 54 41
       -2.3303921 -12.1955185 -8.143963 13.280862
0003e0 0d de 94 c0 73 d2 7d 41 db ff a2 40 e6 f9 b8 40
       -4.652106 15.863879 5.0937324 5.780505
0003f0 66 a4 eb c0 84 68 1d 41 49 c2 dd c0 ad 15 26 41
       -7.363818 9.8380165 -6.9299664 10.380292

lstm.weight_ih_l0 f4 [32, 8]
000000 12 39 23 41 86 0e 06 41 62 42 db 40 5b 0f 98 41
       10.201433 8.378546 6.8518534 19.007498
000010 ea 18 54 41 d2 6a 8c 41 87 a8 87 c1 97 3d 69 41
       13.256083 17.552158 -16.957289 14.577537
000020 ca 63 ea 40 2f 0e e0 41 8c 5d 27 40 85 f7 2d c1
       7.3246813 28.006926 2.6150846 -10.87293
000030 bf 13 cf 41 ee 5e 36 c1 94 8e 18 3d 76 d8 1d 41
       25.884642 -11.398176 0.037245348 9.865347
000040 fa 8d 61 41 4b 22 57 c1 fe ed ec 40 92 0d 26 40
       14.097162 -13.445872 7.404052 2.5945783
000050 d7 94 43 41 6f f1 58 c1 90 e5 c5 41 d0 d0 69 3d
       12.223838 -13.558944 24.737091 0.057083905
000060 0d be 71 41 45 fd 21 41 34 21 38 c1 4f 0f a7 41
       15.108899 10.124333 -11.508106 20.882475
000070 37 9f 35 41 7a a3 44 3f 49 ad ef 40 26 41 dd c0
       11.351371 0.76811945 7.489903 -6.9142027
000080 9a d8 95 41 bf 2d 0d c1 1e 69 8a c1 57 55 b7 41
       18.730762 -8.8236685 -17.301327 22.91667
000090 c0 59 cf 40 9c 31 14 41 cc 40 d1 c1 ec 01 89 c1
       6.479706 9.262112 -26.15664 -17.125938
0000a0 e6 92 a5 c0 9c 01 4d c1 95 90 15 41 ee a6 29 c1
       -5.174182 -12.812893 9.347798 -10.603254
0000b0 f6 a9 75 41 1b 53 16 c1 81 9d d2 40 ed 5b bd 41
       15.353994 -9.395289 6.5817266 23.669886
0000c0 72 fd 31 c0 9a e4 92 40 b2 3b b6 c1 14 0c 1a c0
       -2.781094 4.5904055 -22.779148 -2.4069872
0000d0 c5 25 13 c1 5f 90 80 41 09 7b f7 40 7d 73 09 41
       -9.196721 16.070494 7.733769 8.590695
0000e0 6b d8 e4 c1 aa 72 45 c1 19 4f e1 c0 84 b5 11 41
       -28.605673 -12.340494 -7.0409055 9.106815
0000f0 29 35 a7 c1 5f d9 99 c1 94 bd 9c c1 d8 73 ee 41
       -20.900957 -19.231138 -19.592567 29.806564
000100 a7 91 57 be 24 67 dd bd 5e ce 9f be 74 15 a5 be
       -0.21051656 -0.10810688 -0.31212133 -0.3224293
000110 bf 5c b1 3e 17 a9 2c be e9 1c aa 3e 79 eb 9e 3e
       0.34641072 -0.16861378 0.33225182 0.31039026
000120 08 d1 45 3d ef 15 81 be de 37 6a 3e 1c a1 b5 3d
       0.04829505 -0.25212047 0.22872874 0.0886862
000130 66 f7 6d 3e d4 83 f1 bd a0 3e 6f 3d 40 59 be 3d
       0.23238906 -0.11792722 0.058409333 0.09294367
000140 86 e7 55 3e ae 3a 36 3e 60 42 c5 3c 50 5c a3 bc
       0.208891 0.17795822 0.024079502 -0.019941479
000150 0a 48 49 3e 6a dd 21 3e e0 ee 91 bd fc d6 54 be
       0.19656387 0.15807119 -0.0712564 -0.20785135
000160 1e 8c 07 3e 93 5d 69 be 6e db 1f 3e c0 86 c9 3d
       0.13237044 -0.22789602 0.1561105 0.09840155
000170 17 b4 22 be 98 20 14 3d 25 5c 37 be 95 85 98 3e
       -0.15889011 0.036163896 -0.17906244 0.29789415
000180 90 08 17 bd 8d fa a7 be a9 0b 95 3e ec ef be 3d
       -0.0368734 -0.32808343 0.29110458 0.09323105
000190 86 d3 20 3e a8 0b 1d bd 6d 72 98 3e ea 02 9f be
       0.1570569 -0.038341194 0.297748 -0.3105691
0001a0 00 ea 10 3c 1c 45 ab be 47 76 11 be 9a ab 79 3e
       0.008844852 -0.33451164 -0.14205275 0.24381867
0001b0 96 11 f1 bd 3a 90 69 3e e8 61 55 3d 88 9f 95 be
       -0.117709324 0.22808924 0.052095324 -0.29223275
0001c0 77 b4 ae be b0 11 84 3c 00 54 8b bb 73 bb 9b 3e
       -0.3412206 0.016121715 -0.004251957 0.3041645
0001d0 d0 a4 34 3d 8e f3 4c 3e e3 06 8d 3e 18 ca 3f 3d
       0.04410249 0.20014784 0.27544317 0.04682359
0001e0 d8 2c fb bd 71 28 19 be d7 bd 83 3e da ba 75 3e
       -0.12264413 -0.14956833 0.25730774 0.2399706
0001f0 a3 87 93 3e 2d 77 89 3e 6a ac 62 3e 98 87 5c 3d
       0.2881442 0.26848736 0.22136083 0.05384025
000200 05 2e db 3f a2 e0 6b c0 14 0a 2c c0 e5 bd 04 c1
       1.7123419 -3.6855855 -2.6881151 -8.296361
000210 cc 39 55 c1 bf 41 37 41 8b 34 17 c1 c6 54 3c c1
       -13.326611 11.453551 -9.450328 -11.770697
000220 cd de 01 c0 53 26 22 40 51 bb 8f c0 0d 07 2a 40
       -2.0292237 2.5335891 -4.491616 2.6566803
000230 45 f2 7f 41 bd ab 4d 41 d5 d5 43 41 c9 5c 81 c1
       15.996648 12.854428 12.239705 -16.170305
000240 77 34 3a 41 02 6b 50 c0 c3 4b 7e 40 86 3c a6 c0
       11.637809 -3.2565312 3.9733741 -5.194888
000250 b2 cc 88 c1 4d 29 3e c0 39 78 9f c1 8f 9a 31 c1
       -17.099949 -2.9712708 -19.933702 -11.100234
000260 a7 f8 ba bf 4a da 05 c1 59 b5 98 40 a5 40 0c c0
       -1.4607133 -8.365793 4.772137 -2.1914456
000270 43 0a 60 c0 0a 74 e7 3f 41 ba 95 41 28 77 3f c0
       -3.5006263 1.8082287 18.715944 -2.9916477
000280 aa 9e f0 c1 e3 4e e6 40 8e e7 86 c0 42 c3 7c bf
       -30.077473 7.1971297 -4.215766 -0.9873544
000290 79 16 8d 41 d6 76 20 41 7b 4b 37 c0 58 28 0f c1
       17.635973 10.029013 -2.863982 -8.94735
0002a0 98 34 6b 41 02 dc 67 40 8c b6 6a c1 4e 4d 62 41
       14.70034 3.6228032 -14.669567 14.143873
0002b0 a5 c2 ff 3f 5f 67 16 c1 09 c9 38 40 4d 3a 3a c1
       1.9981276 -9.400237 2.8872702 -11.639234
0002c0 b1 9a 85 41 9b bf 00 c1 9f a2 c1 c0 0b 95 f8 c0
       16.700533 -8.046779 -6.051101 -7.7681937
0002d0 19 b4 ea c0 61 b8 c3 40 38 c3 8b 41 77 6c 3b c1
       -7.3344846 6.116257 17.470322 -11.713981
0002e0 aa db 06 c1 42 02 88 40 e5 86 0d be 74 2f 12 41
       -8.428629 4.2502756 -0.1382099 9.136585
0002f0 dd 03 31 c1 21 b3 14 c0 f9 ab 8d c0 cf b9 c6 c1
       -11.063443 -2.3234332 -4.4272428 -24.840727
000300 8b be a6 c0 1a 4d 67 c1 d4 70 a8 41 2e 1d 2b c1
       -5.2107596 -14.456324 21.055092 -10.694624
000310 1c 52 1f 41 10 eb fb bf 2a e3 34 c1 c4 1b 03 41
       9.957546 -1.968111 -11.30546 8.194279
000320 b7 0d 29 41 73 15 c8 c1 fd 59 19 c2 f9 c5 43 41
       10.565848 -25.010473 -38.33788 12.235833
000330 99 de 28 c0 e7 f1 49 c1 8b c4 80 c0 be 72 c7 3e
       -2.6385863 -12.621558 -4.023992 0.3895473
000340 41 45 22 41 9c b2 3e 41 65 56 52 40 af 31 7e 41
       10.141908 11.918606 3.286523 15.88713
000350 3b ae 10 41 b9 32 41 41 73 b6 43 c1 15 7a 89 40
       9.042537 12.074883 -12.232043 4.2961526
000360 61 2f 91 bf 3f fd 44 3f 7e 17 34 41 18 e9 ab c0
       -1.1342584 0.7694892 11.255735 -5.372204
000370 f7 be 32 40 a4 a4 94 c1 88 c4 dd c1 26 a7 b7 40
       2.7929056 -18.58039 -27.720963 5.739154
000380 3d 06 cb c0 eb 6b 8c 40 22 b9 b6 41 7f e7 ba 3f
       -6.3445115 4.3881736 22.840397 1.4601897
000390 d4 5c 01 41 16 98 10 41 ac 54 34 c1 09 19 e7 c1
       8.085163 9.03713 -11.270672 -28.887224
0003a0 6b df 34 c1 56 76 56 41 96 61 fb c0 b4 08 0f 42
       -11.304545 13.403891 -7.8556623 35.7585
0003b0 de be 4f c1 47 be 78 41 a9 56 b6 c0 b0 a5 51 41
       -12.984098 15.546454 -5.6980786 13.102951
0003c0 4b c0 f5 c0 89 f8 7f 41 47 1c 4c 41 6b 05 a6 c0
       -7.6797233 15.998178 12.756904 -5.1881614
0003d0 01 f8 35 c1 ba d7 9d 40 9b e3 ae c1 4c 2f 6d c1
       -11.373048 4.932584 -21.861135 -14.824047
0003e0 6d ae 85 c0 36 f4 b3 41 2d ab 92 40 25 f0 63 41
       -4.177542 22.494244 4.5833955 14.246129
0003f0 76 00 e6 41 10 3f 99 c0 a7 00 37 c0 5c 14 b8 40
       28.750225 -4.788948 -2.8594148 5.7524853

lstm.weight_hh_l0 f4 [32, 8]
000000 2b b5 9a 3e 29 38 78 be 1c b8 ce 3d 92 16 58 3e
       0.30216345 -0.24240173 0.1009371 0.2110236
000010 72 da 0a 3e df 54 42 be 18 1d 3b bd b0 4f 93 bc
       0.13559893 -0.18977688 -0.045682043 -0.017982334
000020 e0 59 f8 3d 9c 68 95 be 92 5d 7b 3e 92 72 25 be
       0.12126517 -0.29181373 0.24547413 -0.16156986
000030 9c 3e 9e be 86 f6 50 3e 48 2a d0 bd 00 6c 94 3c
       -0.30907142 0.20406541 -0.101643145 0.018117905
000040 fb 15 ac 3e 18 90 cd bd f0 45 9b bc e0 de 83 3d
       0.3361052 -0.10037249 -0.018954247 0.064389944
000050 c8 cb 42 bd f8 7f af 3d c5 36 9a be 40 cb dd bb
       -0.047557622 0.0856933 -0.3011991 -0.006768614
000060 78 43 ce 3d 00 76 13 3c 8b d5 ad 3e c5 35 a1 3e
       0.100714624 0.009000301 0.33951983 0.31486335
000070 b9 bc 2c be f6 8e e9 bd c6 98 9b be 81 73 9e 3e
       -0.16868867 -0.11404221 -0.30389994 0.30947497
000080 f1 3e b3 be d1 f5 5b be 71 f6 97 be 30 bd 8c 3d
       -0.35008958 -0.2148049 -0.29680207 0.06872022
000090 a8 ff 02 3d 90 7f 01 3d a8 69 7b 3d 82 1f 9a be
       0.031982094 0.031615794 0.06138006 -0.30102164
0000a0 84 9e c2 bd 50 5f 1c bd bc 23 df bd ef b0 4e be
       -0.09502891 -0.038176835 -0.10895488 -0.20184682
0000b0 63 3c a0 be af 9c a0 3e 3a 95 0e be 62 b0 7a be
       -0.3129607 0.3136954 -0.13924113 -0.24481347
0000c0 1c b2 73 be a0 c9 1e bd 62 91 a9 be ef fa a1 be
       -0.23798412 -0.038766503 -0.3311873 -0.3163676
0000d0 01 d4 a1 3e cf 78 b0 3e 2d 6b 90 3e 60 d2 2f 3c
       0.3160706 0.3446717 0.2820677 0.01073131
0000e0 5c 0f 2e be a9 4d 28 be bb 51 5a be d2 c8 88 be
       -0.16998047 -0.16435875 -0.2132024 -0.26715714
0000f0 a0 51 09 3c e5 30 10 be 39 4c 89 be 14 f4 0c be
       0.008381277 -0.14081152 -0.26815966 -0.13764983
000100 36 4d 4c 3e 00 1b 27 bd 04 3c 82 3d 56 05 54 3e
       0.19951329 -0.040797234 0.06359103 0.2070516
000110 3e b4 30 3e 8c 1a cc bd 45 8f 97 3e 37 94 07 be
       0.17256257 -0.09966001 0.29601493 -0.13240133
000120 45 cb 93 3e 07 d0 9d 3e 5c d9 6d be 48 20 9d bd
       0.2886602 0.30822775 -0.23227447 -0.07672173
000130 30 e7 a3 bc 1a 35 74 3e f8 96 13 bd 0b 0d 4b be
       -0.0200077 0.23848382 -0.036032647 -0.19829194
000140 ac 08 86 3d 41 0f 96 be 40 c2 62 be c1 08 04 be
       0.06544623 -0.29308513 -0.22144413 -0.12893964
000150 c0 ce 9d bd e5 55 93 3e 35 33 83 3e fd 55 91 3e
       -0.0770545 0.2877647 0.25625005 0.28385916
000160 d8 90 17 bd 5a 5d 4f 3e 28 2b 97 3d 59 c8 80 3e
       -0.03700337 0.20250455 0.07381278 0.25152853
000170 90 9e 8b be aa 6a 0d 3e 78 57 94 be 94 e6 f8 3d
       -0.2726941 0.1381022 -0.28972983 0.12153354
000180 84 e4 8d 3d be 64 aa be 78 ff 56 bd 8b 6e ad be
       0.069283515 -0.33279985 -0.052489728 -0.338734
000190 99 79 81 be 80 93 83 bd cc f0 79 be 30 f5 6c bd
       -0.25288084 -0.06424618 -0.24408263 -0.057851017
0001a0 fa 06 6a 3e d8 14 7f be cd ed 15 be 5d 07 9e be
       0.22854224 -0.24910295 -0.14641495 -0.30864993
0001b0 1d 3d b1 3e dc 68 e5 3d 22 5d 8c be 26 9e 5f be
       0.34616938 0.11201641 -0.27414805 -0.21837673
0001c0 f8 2a b2 3d 0b c4 b3 be 80 6d 93 3d 1d 09 b2 be
       0.08699602 -0.35110506 0.0719862 -0.34772578
0001d0 53 1d ae 3e 75 39 9a 3e 20 a6 5c 3c 27 61 91 3e
       0.34006748 0.3012196 0.013467342 0.28394434
0001e0 17 12 aa be 1a 4d 8b be e0 28 62 3c 3e c8 7b 3e
       -0.33216926 -0.2720726 0.013803691 0.24588105
0001f0 e6 09 6a be 15 04 9f be 9a 6a a2 be 64 21 c1 bd
       -0.22855338 -0.31057802 -0.31721956 -0.09430197
000200 7b c7 ae be bf 5d 42 be c0 83 08 3d 10 ed 5d bd
       -0.34136567 -0.18981074 0.03332877 -0.05418116
000210 a2 34 48 3e 4e 57 a4 be 85 6f 92 3e c8 6b 8b bd
       0.19551328 -0.32097858 0.28600708 -0.06807667
000220 24 90 7a be f8 97 b0 bd 63 77 87 3e ab c3 b4 3e
       -0.24469048 -0.08622736 0.26458272 0.35305533
000230 5f bd b3 be 4d 40 b0 3e 35 7a 81 3e 9f 35 a9 3e
       -0.35105416 0.34424058 0.2528855 0.33048722
000240 75 d0 32 be d0 22 05 be 23 03 98 3e 11 3f 96 3e
       -0.17462333 -0.13001561 0.29689893 0.2934499
000250 a8 c9 45 bd 18 b0 8f 3d de 2a 5c 3e 00 d2 54 3c
       -0.048288018 0.07016009 0.21500728 0.012989521
000260 b7 7c 91 3e 10 d6 dd 3c 1a 5e 96 be e6 84 5e be
       0.28415462 0.027079612 -0.2936867 -0.21730384
000270 04 c9 d4 3d ff a2 83 3e 2c 6f 85 bd 6b 47 ac 3e
       0.10389903 0.25710294 -0.06515345 0.33648238
000280 a0 3d ff bc 80 b3 96 bd e7 01 ab be fc bb 69 be
       -0.031157315 -0.07358456 -0.3339989 -0.22825617
000290 03 e4 ae 3e 1e 69 32 3e c0 a0 80 bd 8f cf ac 3e
       0.34158334 0.17422912 -0.06280661 0.33752105
0002a0 f0 96 ed 3d 98 7f 7c bd 62 e8 a3 be 29 20 96 3e
       0.11601055 -0.06164512 -0.32013232 0.2932141
0002b0 81 e0 b4 3e 07 bc 50 be 3e 1b 7d be 88 fa 67 bd
       0.35327533 -0.20384227 -0.24717423 -0.05663541
0002c0 01 fc 68 be 10 11 80 3c 82 1f 6d 3e e5 3c 9c 3e
       -0.22752382 0.015633136 0.2315655 0.3051521
0002d0 50 2a 82 3c b0 95 52 bd 10 2d 9f be c6 5b 22 3e
       0.015889317 -0.051412284 -0.31089067 0.15855321
0002e0 5d 7d 97 be e0 10 b8 bc 9b 52 ac be d0 76 26 bd
       -0.29587832 -0.022468984 -0.33656773 -0.040640652
0002f0 58 b1 1a 3d 85 db 64 be ec 7d 83 3d 64 6c 83 3d
       0.037766784 -0.22349365 0.06420502 0.06417158
000300 eb 9c 27 be 73 c8 38 be 4d 5b b4 be ac b2 e9 bd
       -0.16368453 -0.18045215 -0.35225907 -0.11411032
000310 5a 23 5c 3e 00 24 3e bd cc 7b 5f be f0 58 b1 bd
       0.2149786 -0.04642105 -0.21824569 -0.086595416
000320 f1 c7 94 be 69 4f 80 3e 6d 01 80 3e c0 2c a1 bb
       -0.29058793 0.25060585 0.25001088 -0.0049186647
000330 23 fc a6 3e 62 92 0d be 35 a1 53 be 50 0f 96 bc
       0.3261424 -0.13825372 -0.20666964 -0.018317848
000340 2e d0 3e 3e 60 36 fe 3d 00 0d 88 ba 26 e7 7e 3e
       0.18634102 0.12412715 -0.0010379851 0.24892864
000350 d0 30 93 bc 8a 5e 1a 3e 96 1c 89 be 30 eb ed bc
       -0.017967612 0.15075126 -0.26779622 -0.02904281
000360 96 dc 5f be b8 33 52 bd 96 ae 87 be e6 06 5e 3e
       -0.2186149 -0.051318854 -0.26500386 0.21682319
000370 bc 14 aa be 70 64 3e bd 53 21 82 be 80 64 03 bb
       -0.33218944 -0.046482503 -0.2541605 -0.0020048916
000380 6f 85 9e 3e 8c 88 9b bd da 5a 80 be 54 6c 09 be
       0.30961177 -0.075944036 -0.25069314 -0.1342023
000390 2c 29 8b bd 68 9c 25 3d 73 7a a5 3e 3e b1 6d be
       -0.06794962 0.040432364 0.32319984 -0.23212144
0003a0 fd 27 6d be 51 99 a6 be fd a3 29 be 4b 43 10 be
       -0.23159786 -0.32538846 -0.16566463 -0.1408817
0003b0 08 a7 04 bd ba 15 63 3e 0f 3b 8a 3e 02 a0 12 3e
       -0.032385856 0.22176257 0.26998183 0.1431885
0003c0 20 61 4a 3c 34 f6 f9 3d 7c 19 8c be cc 51 b2 be
       0.012352258 0.12205163 -0.27363193 -0.3482803
0003d0 04 b6 b6 bd 18 18 aa bd 37 52 a6 3e 20 38 06 bc
       -0.089214355 -0.08305377 0.324846 -0.008192092
0003e0 5e 45 13 3e 21 f7 0e be b0 b6 b1 be 68 ba 48 bd
       0.1438193 -0.1396146 -0.34709692 -0.049005896
0003f0 30 87 07 be 53 0f ad 3e 00 ee 45 3d 47 c3 25 be
       -0.13235164 0.33800754 0.048322678 -0.16187774

lstm.bias_ih_l0 f4 [32]
000000 c5 a1 2f c0 da b7 7a c1 3a e3 dd c0 d3 c7 31 c2
       -2.7442486 -15.669886 -6.9339876 -44.44514
000010 30 4c 49 c1 e3 65 2e c1 5f 71 94 c1 06 fb dd c0
       -12.5811 -10.899875 -18.555357 -6.9368925
000020 e5 4d 28 be 3f 68 a3 3e c0 26 9e 3b a0 58 a0 be
       -0.16435964 0.3191547 0.0048263967 -0.31317616
000030 ec 66 91 bd 84 bb 3b be 42 64 95 be 40 ad 85 bd
       -0.07099709 -0.1833325 -0.29178053 -0.065271854
000040 00 11 ee 3f 42 f9 01 c0 8c 0f d0 c0 7e 02 85 c1
       1.8598938 -2.0308385 -6.501898 -16.626217
000050 4f 32 38 c1 a0 dd 57 40 ab fc 4a 40 83 56 9b 3d
       -11.512282 3.372902 3.1716716 0.0758486
000060 4f c1 55 c1 fe 36 83 c1 5f df 9d c1 1e 5c 0b c1
       -13.3596945 -16.401852 -19.734068 -8.70999
000070 5e 11 59 40 6f c6 68 c1 ea 9d f6 c1 eb 88 b5 c1
       3.391685 -14.548446 -30.827106 -22.691854

lstm.bias_hh_l0 f4 [32]
000000 6c 36 38 c0 4f ab 80 c1 2a 70 e7 c0 d3 86 32 c2
       -2.8783216 -16.083647 -7.232442 -44.631664
000010 6a 26 51 c1 67 02 2e c1 ce e0 96 c1 46 7b dd c0
       -13.071878 -10.8755865 -18.859768 -6.921298
000020 34 97 80 3d 5c 9c ad bd 73 6e 89 3e f4 79 1e be
       0.0627884 -0.08477089 0.2684208 -0.15476209
000030 18 95 da bd b3 7c 8b be f6 99 20 be 50 7f f1 3d
       -0.106729686 -0.27243575 -0.15683731 0.11791861
000040 70 8e cf 3f 20 f4 be bf a9 f3 d7 c0 f8 76 86 c1
       1.6215343 -1.4918251 -6.7484937 -16.80809
000050 85 a1 39 c1 22 3c 41 40 3c 99 4c 40 64 34 53 be
       -11.6019335 3.0192952 3.1968527 -0.20625454
000060 c5 11 55 c1 de c5 82 c1 8f 64 9f c1 e5 52 0a c1
       -13.316838 -16.346615 -19.9241 -8.645238
000070 04 1e 7c 40 8f 37 6f c1 c5 33 f7 c1 7f 06 b4 c1
       3.939332 -14.951064 -30.900278 -22.503172

lstm.weight_ih_l0_reverse f4 [32, 8]
000000 bd 44 08 41 22 92 1c c0 8a 4c df 3e 97 92 d1 41
       8.516782 -2.4464192 0.43613082 26.196577
000010 5a ab 48 41 58 c5 a1 41 dd 70 ec 40 ec 61 e1 40
       12.541834 20.22136 7.3887773 7.0432034
000020 44 5e a1 c0 d4 49 87 41 e3 6e f0 3f 0b 5e 45 40
       -5.042757 16.911049 1.878384 3.083865
000030 26 90 25 c0 3e 49 77 c1 21 aa 02 41 a0 be 96 41
       -2.5869231 -15.455381 8.166535 18.843079
000040 2c ce 0a c1 e5 b2 8e 41 bf b8 0e 3e fd 3f d5 41
       -8.675335 17.83735 0.13937663 26.656244
000050 14 e1 4b c0 43 fb 56 c0 36 1f 0e 41 44 3e bf 40
       -3.1856127 -3.3590858 8.88262 5.976351
000060 bc 6a 70 41 b1 c8 d1 c0 fc 1a 64 41 d0 8c 00 42
       15.026058 -6.5557485 14.256588 32.137512
000070 f5 cd 0f c0 22 fa 34 bf 99 71 4a c1 48 b1 3d 41
       -2.2469456 -0.7069417 -12.652734 11.855782
000080 39 f2 14 c1 e1 9d dc 41 57 3d be 40 ef 87 15 3f
       -9.309136 27.57709 5.944988 0.58410543
000090 24 d8 9f c0 57 70 b5 41 7d 5d 93 40 86 b6 21 41
       -4.9951344 22.679853 4.605162 10.107061
0000a0 33 94 53 c0 1f f4 21 41 91 b0 e4 c0 6e 4f 0e c1
       -3.3059204 10.1221 -7.1465535 -8.894392
0000b0 22 44 2c c1 43 72 62 41 07 04 0b 42 19 a0 06 40
       -10.766634 14.152896 34.753933 2.1035216
0000c0 55 ad 15 c1 9f a5 5c c1 e9 bf 52 c1 8e 9e d7 40
       -9.354817 -13.790435 -13.171853 6.738105
0000d0 1f a2 2b c1 47 53 35 c1 ce 0f 0c 41 b5 8b 82 40
       -10.72708 -11.332831 8.753859 4.079554
0000e0 d2 d4 95 41 67 67 35 41 9f e1 da 40 9c be 95 41
       18.728916 11.337745 6.8400416 18.718071
0000f0 03 17 b7 40 62 7a 96 41 1b 45 1f c1 0f 57 1a 41
       5.721559 18.809757 -9.954371 9.646255
000100 60 e0 61 3c 77 6f ab be 3e b0 73 3e 00 f3 82 3d
       0.013786405 -0.33483478 0.237977 0.06394005
000110 b6 aa 2c 3e 28 97 58 3d d8 d4 7c bd dd 27 98 3e
       0.16861996 0.05287853 -0.06172642 0.29717913
000120 40 a1 3c 3c d2 83 48 3e 44 a9 11 be 20 8c 19 3d
       0.011513054 0.19581535 -0.14224726 0.03748715
000130 31 26 a7 be 56 f9 fa bd 51 9e 90 be d0 8e a3 bd
       -0.32646325 -0.12254588 -0.28245786 -0.07986224
000140 10 52 15 3e 30 02 a9 bc 00 30 79 bc 80 a7 11 bd
       0.14582086 -0.020630926 -0.015209198 -0.03556013
000150 a8 b2 bd 3d c8 3b 08 3d 13 6d 83 be 87 ea 91 3e
       0.092625916 0.033260137 -0.25669155 0.28499243
000160 4c 52 a3 bd 10 20 72 3d 79 39 07 be b8 88 21 bd
       -0.07974681 0.05911261 -0.13205518 -0.039437026
000170 73 69 a0 3e 76 64 50 3e 38 b9 4a be 5f ea a3 3e
       0.3133045 0.20350823 -0.19797218 0.32014748
000180 4d b4 20 be 93 3e 4f be fe 63 08 3e 36 22 da bd
       -0.1569378 -0.20238714 0.13319394 -0.106510565
000190 69 91 65 be 33 0f 9a 3e 0c a1 92 bd c0 83 55 be
       -0.22418751 0.3008972 -0.071596235 -0.2085104
0001a0 e9 cf 80 3e b8 30 e9 bd ac e2 92 3d 10 51 e2 bc
       0.25158623 -0.113862455 0.071721405 -0.027626544
0001b0 ee 7d 5a 3e 3a 87 78 be cb 79 a8 3e 00 46 4e ba
       0.21337101 -0.24270335 0.3290542 -0.0007868707
0001c0 15 15 9d 3e 56 15 6a 3e 09 64 93 be 00 22 cf ba
       0.30680147 0.22859702 -0.28787258 -0.001580298
0001d0 c8 12 3f bd 99 a5 69 be 4c 8f 91 bd 9a 80 01 3e
       -0.04664877 -0.22817077 -0.0710741 0.12646714
0001e0 87 23 af 3e 35 d3 92 3e 1d 26 a3 3e f6 bb 2e 3e
       0.34206793 0.28676763 0.31865016 0.17063889
0001f0 34 53 b8 bd 6f 0e 32 be d0 b5 3c bd d3 ae 28 be
       -0.09000245 -0.17388318 -0.046071827 -0.1647294
000200 70 64 e1 bf f7 37 07 40 64 2c 56 c1 c7 16 35 c0
       -1.7608776 2.1127908 -13.385838 -2.8295152
000210 3c 21 c0 c0 45 d8 39 c0 19 96 11 c1 fc 9f 81 41
       -6.004057 -2.903825 -9.099145 16.203117
000220 4b 53 e3 c0 51 d1 42 41 37 7c 31 40 39 3b ce c0
       -7.1039176 12.176103 2.7732065 -6.4447293
000230 07 93 0d c1 af 07 18 c1 de b8 9a c1 1c 02 23 c0
       -8.848395 -9.501876 -19.340267 -2.5470037
000240 ed b7 54 40 d2 88 60 41 c3 92 9c 41 08 74 8d c0
       3.323726 14.033403 19.571661 -4.420414
000250 4a d9 ee 40 a6 39 0e c1 fd 95 a9 c0 a9 0b 1d c1
       7.4640245 -8.889074 -5.299559 -9.815347
000260 51 4f aa c0 9a 2d a6 41 30 b2 a8 41 94 a6 6a 41
       -5.322182 20.772266 21.087006 14.6656685
000270 a8 c3 10 c1 fa 2a f0 40 d7 72 e3 3f 18 1e b7 c0
       -9.047768 7.505246 1.7769421 -5.7224236
000280 11 f4 22 be b0 fc d7 41 9e bd 8b c0 81 d3 5b 40
       -0.15913416 26.998383 -4.3668966 3.4347842
000290 4a ab 55 c0 ea f4 bb bf 76 b4 5e 41 74 86 2a 41
       -3.3385797 -1.4684117 13.919058 10.657825
0002a0 03 b4 98 41 91 0c d9 40 0a 41 b5 bf d9 89 ec 40
       19.087896 6.782784 -1.4160473 7.391827
0002b0 f5 c1 38 c1 0b 14 3b c1 11 15 7f c0 b5 9d 72 c0
       -11.547353 -11.692393 -3.9856608 -3.7908757
0002c0 b9 97 42 41 99 77 a3 c0 40 a3 ec 40 46 b2 1a 40
       12.162042 -5.1083493 7.394928 2.417131
0002d0 14 8b 92 40 91 25 f4 40 03 4b 24 41 3e 84 cc 40
       4.5794773 7.6295857 10.268313 6.391143
0002e0 46 58 1d 3e d7 74 a7 c1 cd 4d ab c1 06 dd fa c0
       0.15365705 -20.93205 -21.412989 -7.8394804
0002f0 45 7c 37 c1 11 41 0a c1 ea c4 36 40 ab 7f 25 41
       -11.467839 -8.640885 2.8557687 10.343669
000300 ef d9 e9 c1 b7 94 fe c0 d1 8f b1 41 0c 30 1f 41
       -29.231413 -7.9556537 22.195223 9.94923
000310 0f 35 2b c0 12 23 ac c0 33 75 15 c1 f5 12 1d 40
       -2.6751134 -5.379281 -9.341113 2.454282
000320 ab f3 6e 41 4b e1 6d 41 85 4f 31 41 9f ed 6d 41
       14.934489 14.867503 11.081914 14.870513
000330 d1 2f 88 c1 0a d6 f5 c0 63 ad 87 41 d6 68 45 3f
       -17.023348 -7.682378 16.959661 0.7711309
000340 cd 18 66 41 3d b3 91 c0 e2 a4 ca bf 98 e9 35 41
       14.381055 -4.5531297 -1.5831568 11.36953
000350 b0 d1 48 c0 58 19 8b 40 b8 ff 91 c1 fd fc b0 41
       -3.1377983 4.3468437 -18.249863 22.12353
000360 64 dd 06 41 64 fb 5e c1 02 0f c7 40 af a3 b3 c0
       8.42905 -13.936375 6.220582 -5.613731
000370 14 b5 24 40 86 e4 c4 c1 78 f9 1e 41 6d 4e de 40
       2.5735521 -24.611584 9.935905 6.9470735
000380 70 e8 2d c1 80 bd ea 40 17 ef 58 41 b3 ee 4d 41
       -10.869247 7.3356323 13.558372 12.870776
000390 e8 40 e4 41 5c ad e9 40 5f 19 2b 41 75 8f 24 41
       28.531693 7.302412 10.693694 10.285024
0003a0 a7 67 3f c1 93 6d cc c0 06 be 8b c1 fe fa 28 42
       -11.962806 -6.3883758 -17.467785 42.24511
0003b0 f3 32 a4 bf 02 6d 96 40 dd 07 5a 40 25 4f ab c0
       -1.2828048 4.7008066 3.40673 -5.353411
0003c0 6a c1 cb 40 ae 1e fb 40 43 fb 84 40 00 05 d2 40
       6.36736 7.847495 4.1556716 6.5631104
0003d0 85 d0 91 40 77 9e 75 40 ce 3f 84 c1 e9 38 ee 40
       4.556704 3.837797 -16.531155 7.444447
0003e0 c1 40 b4 c1 e0 2e a1 41 0b c9 66 41 3a 2b 0f 41
       -22.531618 20.147888 14.424083 8.948053
0003f0 7f 87 ab 40 bf 79 9c 41 d5 e9 be c0 6f 89 d4 c1
       5.36029 19.559446 -5.966044 -26.567106

lstm.weight_hh_l0_reverse f4 [32, 8]
000000 54 b6 ef 3d 80 89 49 3d d8 75 aa be 40 c4 71 3d
       0.11704698 0.049203396 -0.33293033 0.05902505
000010 42 f3 21 3e b4 80 92 bd a4 22 89 be 2f 03 95 3e
       0.15815452 -0.071534544 -0.2678424 0.2910399
000020 46 24 6d 3e d8 2b 21 3d fc 8d 86 be 80 5a fe 3d
       0.23158368 0.039348453 -0.262802 0.12419605
000030 2f f1 af 3e 90 65 98 bc ca eb 5c 3e 1a 25 3d be
       0.34363696 -0.018603116 0.21574321 -0.18471184
000040 78 a3 f6 3d b8 98 0f 3d 12 6d 14 3e c0 9c 35 bd
       0.12042898 0.035057753 0.14494732 -0.04433894
000050 60 28 8b bd 5c 00 77 be 3c 3d cd bd 59 d5 8c 3e
       -0.0679481 -0.24121231 -0.10021445 0.2750652
000060 c2 59 20 be ef f2 ab be c0 87 d1 bb c0 38 f3 3d
       -0.1565924 -0.3358378 -0.0063943565 0.118760586
000070 50 6c a9 bd 81 81 6f be 80 ab 75 3b 54 62 cc bd
       -0.08272612 -0.23389246 0.0037486255 -0.09979692
000080 b6 23 71 3e 0c 86 c5 bd 7e 12 79 3e 06 d6 3a 3e
       0.23548779 -0.09644708 0.2432346 0.18245706
000090 c8 b0 5e be 5d 1f 3c be b0 73 d3 3c d4 f0 a0 bd
       -0.21747124 -0.18371339 0.025812 -0.07858434
0000a0 cd 7b 3b be 84 ef 0c 3e 04 2d db 3d 80 81 53 bd
       -0.18308945 0.13763243 0.107019454 -0.051637173
0000b0 0a d0 20 3e 4c 2b 9f 3d 28 73 c8 3d a8 0b 05 3d
       0.1570436 0.0777193 0.09787589 0.03248182
0000c0 68 b5 a6 bd 62 12 30 3e 20 b4 64 3c f5 7d 83 3e
       -0.08140069 0.17194512 0.013958961 0.25682035
0000d0 b8 1f 9b bd e9 c3 b4 3e e4 16 e4 3d b0 f9 10 bd
       -0.07574409 0.35305718 0.111371785 -0.03539437
0000e0 c6 42 43 3e e0 cc b2 bc 00 03 83 3d 52 f3 d9 bd
       0.19068441 -0.021826208 0.063970566 -0.10642113
0000f0 48 14 bd 3d dc d2 13 3e 62 ce 92 be 70 85 b9 3c
       0.09232384 0.14435905 -0.28673083 0.022646636
000100 10 78 ae be 40 b6 af bb 9a 49 28 3e c0 88 e5 3d
       -0.34075975 -0.005362302 0.16434327 0.112077236
000110 fc ee a0 3d 12 01 4b 3e 20 9d 5e 3d d1 69 96 3e
       0.07858083 0.19824627 0.054349065 0.29377607
000120 30 4f d3 bd 5c f8 07 be 3c 9d 58 be 20 47 0c bc
       -0.10317838 -0.13278335 -0.2115373 -0.008561879
000130 1a eb 1a 3e d0 0d 8b bc 20 62 55 bc 9a 2b ef bd
       0.15128747 -0.01697436 -0.013023883 -0.11678238
000140 20 97 b2 be 35 bb a6 be 1a 57 07 3e 69 bd 96 3e
       -0.34880924 -0.32564703 0.1321682 0.29441383
000150 53 34 88 be 27 09 8a be 4a d8 43 be 75 13 0b be
       -0.2660242 -0.26960108 -0.19125476 -0.13581641
000160 4f 62 0f be 7f 3d ae 3e a4 c4 91 be f1 60 a3 be
       -0.14002346 0.34031293 -0.28470337 -0.31909898
000170 c2 fb 5b 3e 4c 81 14 be 48 af 0e 3e e8 0c 18 bd
       0.21482757 -0.14502448 0.13934052 -0.037121683
000180 55 e5 1e be 64 36 24 be 72 e3 3e 3e 58 cc cd 3d
       -0.1551717 -0.16036373 0.18641451 0.10048741
000190 68 22 6a 3d 60 aa 65 3c c4 24 9b be 52 b4 74 3e
       0.05716172 0.014017671 -0.30301487 0.23896912
0001a0 ee e1 24 3e 80 5b 53 3d 30 c6 51 bd e5 12 98 be
       0.1610181 0.051600933 -0.051214397 -0.29701915
0001b0 26 a6 02 3e 80 44 0d bc 79 3e 19 be 1c d8 d1 3d
       0.12758693 -0.008622289 -0.14965238 0.10246298
0001c0 77 ff 9f be e9 41 af 3e 28 ec c4 bd dd 9d a9 3e
       -0.31249592 0.34229973 -0.09615356 0.33128253
0001d0 65 dd 92 3e 1a cf 12 3e 70 94 27 bd 40 8c cc 3c
       0.28684536 0.14336815 -0.040913045 0.02496922
0001e0 98 2e 92 be bc 8f fa 3d 11 8e 0e be 74 70 da 3d
       -0.28551173 0.122344464 -0.13921382 0.1066598
0001f0 62 a4 02 3e a3 f9 a0 3e 0a 7a 82 be 94 9d b5 bd
       0.1275802 0.31440458 -0.25483733 -0.08867946
000200 80 4c 3a 3d 48 eb c2 bd c7 fe 42 be 59 20 55 be
       0.045483112 -0.095175326 -0.19042502 -0.20813121
000210 92 96 20 be 28 f2 ed bd 5d 18 80 be 41 37 9f 3e
       -0.15682438 -0.11618453 -0.25018588 0.31096843
000220 44 88 9c 3d 15 52 8f 3e 8c f4 f8 bd 4c 22 92 bd
       0.07643178 0.2799231 -0.121560186 -0.07135448
000230 46 89 78 3e 6e 8a dd bd a5 c7 59 be 4e 85 1a 3e
       0.24271116 -0.10817419 -0.21267565 0.15089914
000240 2c 69 a9 3d 6e 2d 3f 3e d4 69 f2 3d 30 ce f1 bc
       0.08272013 0.18669674 0.11836591 -0.029517263
000250 c2 a1 0c 3e f8 3d fb bd 70 ac c6 bd 18 93 75 3d
       0.1373358 -0.12267679 -0.097008586 0.059954733
000260 60 d3 8d 3c 00 90 33 3d e4 27 e5 3d 57 cc b0 3e
       0.017312706 0.0438385 0.11189249 0.345309
000270 80 99 d9 bb 05 0d 8a be 14 4b 92 be 84 e1 67 be
       -0.006640613 -0.26963058 -0.28572905 -0.22644621
000280 08 1d 7b bd 96 57 23 3e ca be 56 be da d9 4c 3e
       -0.061306983 0.1595138 -0.20971218 0.20004979
000290 d0 12 14 3e 5e dd 33 3e 01 22 93 3e 5b 17 ac be
       0.14460301 0.17564914 0.2873688 -0.3361157
0002a0 72 09 1c 3e a0 bf f5 bc 90 da e0 bc c0 bc f9 3b
       0.15237978 -0.0299986 -0.027447969 0.0076213777
0002b0 70 e2 98 be 9a 0b 3c 3e b7 7d 8e 3e ca a6 b4 be
       -0.29860258 0.183638 0.27830288 -0.352835
0002c0 dd df 8a be ba 42 1c 3e 3d e6 05 be c0 3d f3 bc
       -0.2712392 0.15259829 -0.1307611 -0.02969253
0002d0 cc 7b aa bd 00 09 08 bb 73 01 91 be b8 c0 f1 3d
       -0.08324394 -0.0020757318 -0.28321418 0.11804336
0002e0 92 42 63 be 30 dc 74 bd 36 16 5a be 4e c9 a0 be
       -0.22193363 -0.0597803 -0.21297535 -0.31403583
0002f0 30 d8 f9 3c 04 34 6c be f0 45 09 bd 93 9d 28 be
       0.030498594 -0.23066717 -0.033513963 -0.1646636
000300 f2 a9 29 3e ce d8 9f be 64 e8 23 be b7 65 8c 3e
       0.16568735 -0.31220096 -0.16006619 0.27421352
000310 3a c0 9a be 56 e3 40 3e 10 03 c0 3c ed b0 8d 3e
       -0.30224782 0.18836722 0.02343896 0.27674046
000320 a7 c1 a0 3e 10 8c 35 3d 7f da b0 3e 24 52 8a bd
       0.31397745 0.044323027 0.345417 -0.06753948
000330 86 16 69 3e 29 95 8e be e8 84 1c 3d 86 32 d5 bd
       0.22762498 -0.27848175 0.038212687 -0.10410027
000340 5a 22 95 be ee c7 73 be 8a 3e 39 3e 04 30 de 3d
       -0.2912777 -0.23806736 0.18090263 0.10849002
000350 00 2f e4 3c 20 fc 27 bc fe 9c 7e be f0 d2 ad bd
       0.027854443 -0.010252982 -0.24864575 -0.08487499
000360 2f 81 84 3e 8d 1c aa be 30 ea e4 3d 6c 65 57 be
       0.2587981 -0.33224908 0.1117748 -0.21034783
000370 7e 5f 1a 3e 78 b3 9b 3d 80 d5 02 3b 67 2e 6e be
       0.1507549 0.0760259 0.0019963682 -0.23259889
000380 0b 57 9a be a8 0c d4 3d 8c d4 98 be 16 3f af be
       -0.30144534 0.103539765 -0.2984966 -0.34227818
000390 a8 6f 01 3d 56 42 5e 3e 60 7a f7 3d a1 93 99 3e
       0.031600624 0.21704993 0.12083888 0.29995444
0003a0 57 91 16 be 99 0f af 3e b7 e5 a8 3e 8c 19 30 be
       -0.1470388 0.34191588 0.3298776 -0.17197245
0003b0 7c 73 c4 3d e0 5f dc bd 5b 62 98 be 37 a7 b4 3e
       0.095923394 -0.10760474 -0.2976254 0.35283825
0003c0 48 54 6d bd d6 41 2c 3e 93 2a a8 3e 98 dc e9 3d
       -0.057941705 0.1682199 0.32844982 0.11419028
0003d0 ed a8 b4 3e 9c fd bc bd 33 a9 2c be 80 5f a0 3c
       0.3528513 -0.0922806 -0.1686142 0.019576788
0003e0 86 c2 20 3e f1 6e 1b be 78 87 20 3d f0 09 96 3c
       0.15699205 -0.1517904 0.039191693 0.018315285
0003f0 98 61 f5 3d 84 e0 9c be a1 b2 92 3e d0 2c 6e be
       0.11981505 -0.30640042 0.28651908 -0.23259282

lstm.bias_ih_l0_reverse f4 [32]
000000 d7 ee 9d c1 21 36 ad c0 3b ba 1c 41 41 98 b6 c1
       -19.741621 -5.4128575 9.795466 -22.824343
000010 55 46 13 c1 96 23 2d c1 2e d5 04 c2 6f b7 5d c1
       -9.204671 -10.821188 -33.208183 -13.857284
000020 55 82 21 be 40 cb 7a be 70 c0 4b be 04 db 48 be
       -0.15772374 -0.24491596 -0.19897628 -0.19614798
000030 a8 6d 95 3d 57 05 a1 be 15 7b 04 be b8 b6 86 bd
       0.07296306 -0.31449386 -0.12937577 -0.065778196
000040 43 a0 53 40 b9 75 03 c0 49 23 73 bd 52 a6 06 bf
       3.3066566 -2.0540602 -0.059359822 -0.52597535
000050 c8 c3 f9 3f 80 01 a5 3f 9a 7e 9c 40 85 cd 76 c1
       1.9512873 1.2891083 4.8904543 -15.425176
000060 11 60 74 c1 3e 0a 5b c0 54 5c fe c1 dd c7 4d c0
       -15.273454 -3.4225001 -31.795082 -3.2153237
000070 8c 6c da be 0b c0 e5 c1 84 78 dd c1 2d 3c 07 c1
       -0.4266094 -28.718771 -27.683846 -8.452191

lstm.bias_hh_l0_reverse f4 [32]
000000 79 27 a0 c1 dc a2 bb c0 19 6c 1b 41 ff 21 b8 c1
       -20.019274 -5.8636303 9.713891 -23.0166
000010 8c 5a 1b c1 c6 e1 26 c1 07 89 06 c2 d4 46 61 c1
       -9.709606 -10.43012 -33.633816 -14.079792
000020 32 8d 1c 3e 76 78 56 3e 05 af a7 3e 9c c0 bc 3d
       0.15288237 0.2094439 0.32750717 0.09216425
000030 d4 05 ae 3d 73 df 69 be 6f ec 25 be 96 4b 41 3e
       0.084972054 -0.22839145 -0.16203474 0.1887649
000040 4d 59 44 40 30 ac be bf f3 94 a1 3c 07 2d 84 bf
       3.0679505 -1.4896297 0.019724345 -1.0326241
000050 51 71 e3 3f 80 e3 99 3f e4 fc 96 40 10 43 7c c1
       1.7768956 1.2022552 4.7183704 -15.766373
000060 63 16 70 c1 ea 76 6d c0 5d c1 fe c1 47 e3 6a c0
       -15.0054655 -3.710383 -31.844416 -3.670122
000070 f8 38 4b bf 81 9a e7 c1 37 be da c1 0f f4 08 c1
       -0.793838 -28.950441 -27.342878 -8.559585

hidden2tag.weight f4 [878, 16]
000000 3c e5 30 c0 f4 74 da 3f bf fd ca 3f 06 bc a9 40
       -2.7639914 1.7066941 1.5858687 5.304202
000010 b2 02 c3 be 80 80 86 c0 6f 2b 2e 40 61 08 81 be
       -0.38087994 -4.203186 2.721401 -0.25201705
000020 87 bc 97 3e 9a 16 11 3e c4 21 f6 3f b0 89 ea 40
       0.29636022 0.14168778 1.9229054 7.3293076
000030 6c 23 21 c0 51 16 c0 be cc d9 dd bf f4 77 3b 40
       -2.517787 -0.37517026 -1.7332091 2.9291964
000040 7e d0 ed c0 1b 38 6e 41 68 15 a9 3f 95 ff 90 41
       -7.4317007 14.888698 1.3209658 18.124796
000050 90 1c 75 40 68 be d2 3f bd f2 7e 40 3e 8b a1 c0
       3.8298683 1.6464357 3.9835656 -5.0482473
000060 3c 4d 42 40 4e e6 c0 40 d3 82 ff 3d eb 58 73 41
       3.035964 6.0281134 0.124761246 15.2092085
000070 0f 59 ef 40 3e b8 ef 40 3f 76 63 41 d5 f2 52 41
       7.4796214 7.4912405 14.216369 13.184285
000080 25 04 ee 3e 16 66 fe 40 e4 3c 0d 41 cd 6d 91 41
       0.46487537 7.9499617 8.827366 18.178614
000090 28 13 b4 c0 3c f3 a5 3f 4a 68 26 c0 6b d0 b0 c0
       -5.6273384 1.2964854 -2.6001153 -5.5254416
0000a0 4d 2e 5b 40 a8 58 9f 3f 39 cb 08 41 fd 0d ad 41
       3.424701 1.2448931 8.549615 21.63183
0000b0 d5 42 a5 c0 22 84 76 40 5f 36 ff 40 6c 75 80 41
       -5.164408 3.8518147 7.975387 16.057335
0000c0 0a da 84 bf 11 bb 7a 41 41 98 45 41 a6 61 fc 41
       -1.037904 15.6706705 12.349671 31.54768
0000d0 97 9a 0a bf 72 08 fa 40 53 d9 7b c0 85 87 10 c1
       -0.54142135 7.813531 -3.9351394 -9.033086
0000e0 13 e2 1c 3f f7 1c cc 40 ae f9 8a c1 86 6f 96 41
       0.6128246 6.3785357 -17.371914 18.804455
0000f0 6a b7 9e 3f 07 20 56 c0 04 15 e2 41 d1 67 02 42
       1.2399724 -3.3457048 28.260262 32.601383
000100 76 9b 68 c0 6f c0 b6 40 7d d5 7f 41 8c d8 38 41
       -3.6344886 5.7109904 15.989621 11.552868
000110 d1 7c cf c0 f6 3d 19 c0 01 4d 22 40 1e 00 88 c0
       -6.4839864 -2.3944068 2.53595 -4.2500143
000120 5c 1d 0f c1 42 ee 9b be 07 e6 39 3f 76 b8 9e 41
       -8.944668 -0.30455214 0.7261662 19.840069
000130 32 02 2c c0 85 78 06 41 93 74 fd 41 14 49 ab c0
       -2.687634 8.404424 31.681921 -5.3526707
000140 e7 17 03 c1 f6 34 96 41 44 c8 c1 c0 83 26 53 41
       -8.193336 18.77586 -6.0556965 13.196902
000150 2c cb 11 c1 e5 c3 36 c1 0c 9b 07 41 4b 71 5c 40
       -9.1121025 -11.422826 8.475353 3.4444149
000160 2f 89 74 c0 38 2e 62 40 6e d7 1c 40 a3 74 9b 41
       -3.820873 3.534071 2.4506488 19.431952
000170 05 ec 02 41 64 00 6e c0 d5 04 3a 41 52 0d 15 42
       8.182622 -3.7187738 11.62618 37.26301
000180 bf ee 74 3e 35 01 00 41 ec d3 2a 41 aa a7 af 41
       0.239192 8.000295 10.676739 21.956867
000190 2a a1 b7 c0 27 56 2b 3e 6a 6b 11 c0 31 6d b4 c0
       -5.7384233 0.16732083 -2.272181 -5.638329
0001a0 b1 e0 90 40 2c bb 8b 3f 99 f2 08 41 fa 9a b1 41
       4.527428 1.0916495 8.559228 22.200672
0001b0 1e 0b ad c0 50 36 04 41 22 5b 04 41 7b f0 a8 41
       -5.407607 8.26326 8.272249 21.117422
0001c0 a8 a4 9d c0 e6 3f 6b 40 7a d6 1b c0 9c 96 eb 40
       -4.9263496 3.675775 -2.4349656 7.362135
0001d0 6b 6a ab c0 c8 02 00 c1 8d f8 d8 3e c4 b8 3c c0
       -5.3567405 -8.000679 0.4237713 -2.9487772
0001e0 ca ae 6f c0 2f 1d db bf af 9b d9 40 49 21 92 41
       -3.7450433 -1.7118281 6.8002543 18.266253
0001f0 14 a3 d1 c0 c8 84 11 41 c1 2e 23 41 32 5f 07 42
       -6.551157 9.094917 10.198915 33.842964
000200 6b 91 a9 3e 04 8e fa 40 9a 3b 2b 41 77 92 b0 41
       0.33118758 7.829836 10.702051 22.071516
000210 19 b8 b2 c0 5e fb 39 3f b8 8e 23 c0 05 9e b7 c0
       -5.584973 0.7264918 -2.5555859 -5.7380395
000220 44 0c 9d 40 69 9e 96 3f 8b c3 01 41 1b 01 b3 41
       4.9077473 1.1767093 8.11024 22.37554
000230 6b 19 a6 c0 6a ca 06 41 bc fc fd 40 66 f3 aa 41
       -5.190603 8.4244175 7.9371014 21.368847
000240 5f d0 19 bf a5 7f 0b 41 02 a1 14 41 8f 1f 98 41
       -0.60083574 8.718663 9.289309 19.01541
000250 73 4b a3 c0 5c 33 83 c0 65 7d 1c bf 46 1d c7 c0
       -5.10296 -4.1000195 -0.61128837 -6.2223234
000260 63 9d 02 c0 7c 1c 00 40 4e 4f 67 41 4c ee 90 41
       -2.0408561 2.0017385 14.4568615 18.116356
000270 4c 90 9b c0 55 62 63 41 d3 a1 31 41 a0 ab 03 42
       -4.8613644 14.211507 11.102008 32.917603
000280 ea c5 32 c0 62 15 bd bd fc 3a 76 41 6a d3 25 41
       -2.7933297 -0.09232594 15.3894005 10.364115
000290 00 2e 55 3f ff 05 c5 40 60 1f d6 40 b3 f1 0a c1
       0.83273315 6.156982 6.69133 -8.684009
0002a0 cc 80 81 c0 22 b7 35 41 bf 50 ce 3e 80 f3 94 41
       -4.0469723 11.35721 0.4029598 18.618896
0002b0 ae d1 72 40 90 e1 a5 40 8e d7 8c 40 07 a1 24 c0
       3.7940478 5.1837845 4.401313 -2.5723283
0002c0 1d 01 b5 bc de f9 01 41 c2 1b 2e 41 75 82 aa 41
       -0.022095257 8.123503 10.881777 21.3137
0002d0 86 c3 b4 c0 e0 4b 1e bf ae 6a 25 3f 37 68 af c0
       -5.6488676 -0.61834526 0.64615905 -5.4814715
0002e0 cb 27 70 40 a5 13 ce 3e ae 30 1b 41 f5 71 ab 41
       3.7524288 0.40249363 9.699385 21.430643
0002f0 ab 1c ab c0 11 26 00 41 2d 16 47 41 64 95 cf 41
       -5.3472495 8.009294 12.442914 25.947945
000300 53 2c 08 c1 a9 43 9e bf a6 79 a7 40 03 f8 37 3e
       -8.510821 -1.2364398 5.2335997 0.17965703
000310 27 d6 d9 c0 f7 d8 04 41 51 57 6f 40 b2 55 e2 c0
       -6.8073916 8.30297 3.7397044 -7.072961
000320 97 13 7a 40 1d e4 17 41 c8 e2 58 41 e8 a6 60 41
       3.9074457 9.493192 13.5553665 14.040749
000330 6f b9 b7 c0 36 96 2b 40 16 75 68 41 a0 cb 1b 41
       -5.741386 2.6810431 14.528585 9.737213
000340 14 ee 13 3e fb b2 ce 3f e9 e4 b5 bf 37 43 aa 40
       0.14446288 1.614837 -1.4210483 5.320705
000350 63 8f ca c0 3b a6 56 41 95 c2 31 40 64 27 ed c0
       -6.3300033 13.415584 2.7775013 -7.4110584
000360 b1 06 12 40 e7 8f e4 40 ad 3e 28 41 1b 08 84 41
       2.2816584 7.142566 10.515302 16.503958
000370 09 44 0a c1 da 02 d9 40 d9 c8 b5 40 75 4a 2d 40
       -8.64161 6.781598 5.6807675 2.7076695
000380 ce f5 c2 c0 51 bb 10 41 0f 3a 09 41 b2 62 66 41
       -6.0925055 9.045732 8.576674 14.399096
000390 78 b7 b1 c0 82 50 53 c1 7a 70 85 40 f2 84 39 c0
       -5.553646 -13.207155 4.16998 -2.8987393
0003a0 3d 44 79 c0 c4 c2 22 be ae 2c e6 41 31 ca 8c 41
       -3.89479 -0.1589461 28.771816 17.598726
0003b0 e8 de 75 c0 b5 75 60 41 f0 0d 6e 41 68 37 20 42
       -3.84173 14.028737 14.878403 40.054108
0003c0 d5 45 95 be c3 7c 06 41 79 e2 43 41 58 09 9a 41
       -0.2915484 8.405459 12.242791 19.254562
0003d0 58 bd ea c0 13 56 2d 40 bb dc 25 c0 fb e7 b4 c0
       -7.3356133 2.7083786 -2.5915973 -5.653318
0003e0 7e 18 69 40 0a ba a4 3f ba 6b 1b 41 b5 02 88 41
       3.64212 1.2869275 9.7138 17.001322
0003f0 13 ff a3 c0 3e 09 f1 40 c6 70 1b 41 2d fb a0 41
       -5.124887 7.532378 9.715033 20.122644
