model/rnn_model/model10.pth (torch, 76996 bytes, 11 tensors)

word_embeddings.weight f4 [301, 8]
000000 2a 72 85 bf da c3 6d c0 2a b6 8e bf 90 fd 1c c1
       -1.0425465 -3.7150788 -1.1149342 -9.811905
000010 21 59 81 be 8e b7 ee be 6f 00 bb 40 cf a1 71 c0
       -0.25263312 -0.46624416 5.843803 -3.775501
000020 c6 a6 49 41 ce ff 5f 3f 77 66 7b 3e fd 88 b7 40
       12.603216 0.874997 0.24550806 5.735472
000030 eb a6 fe 40 e2 c7 ec c1 31 28 43 41 4a 96 bc 41
       7.9578757 -29.597599 12.197312 23.573383
000040 ac b8 a2 c0 2f bd 7b c1 e6 bf 03 c1 93 52 db 41
       -5.085043 -15.733687 -8.23435 27.41532
000050 26 38 8a 41 20 a0 75 c0 1d 4c ed c0 b5 ce 49 41
       17.277416 -3.8378983 -7.415541 12.612966
000060 3c c2 8f 41 2e e6 33 40 d5 4b 4f 41 68 5a a6 c0
       17.969841 2.810924 12.956014 -5.198536
000070 37 ae a9 41 9f 06 3a 41 6f 9c 5a c0 60 16 bd 41
       21.210066 11.6266165 -3.415798 23.635925
000080 45 19 44 40 be 79 61 41 f2 c8 01 c1 6e 29 89 41
       3.0640423 14.092222 -8.111559 17.14523
000090 21 63 88 3e 44 ee 99 41 11 9f a4 c1 19 08 0c 41
       0.2663813 19.24134 -20.57767 8.751977
0000a0 88 44 25 41 ec c5 86 c1 60 39 ad c1 77 e6 94 41
       10.329231 -16.846642 -21.653015 18.612532
0000b0 d7 70 e8 c1 d5 37 8d 40 3a 26 e8 40 33 aa db bf
       -29.055098 4.4130654 7.2546663 -1.7161316
0000c0 6e 8c 98 40 12 03 80 41 45 25 a0 c0 a4 32 23 c1
       4.7671423 16.0015 -5.0045495 -10.199863
0000d0 1c 50 93 41 ff 3d cd c0 89 07 a9 c0 4e 3a 14 c1
       18.414116 -6.413818 -5.28217 -9.264235
0000e0 69 63 bc 40 68 07 c2 41 22 42 46 3e 08 20 22 41
       5.887135 24.253616 0.19361165 10.13282
0000f0 67 00 35 41 49 2b 39 41 42 56 64 c1 b3 01 7f c1
       11.312598 11.573068 -14.271059 -15.937915
000100 7f c0 46 41 ad bc a1 3f 7d c8 b1 bf c3 0b c0 40
       12.421996 1.2635704 -1.3889309 6.0014358
000110 1c d4 01 40 9e 40 b7 40 4b ff 2b 3e dc a4 da c1
       2.0285711 5.726638 0.16796605 -27.330498
000120 09 db 1f c0 79 82 23 41 f8 2a 5f c1 ee d9 c6 40
       -2.4977438 10.219354 -13.94799 6.2141027
000130 66 06 91 41 a7 37 bc 41 fe db 09 41 a3 31 5b c1
       18.128124 23.527174 8.616209 -13.699618
000140 e4 53 84 c0 88 e3 95 41 34 40 f9 3f 19 26 bb c0
       -4.1352406 18.7361 1.9472718 -5.8484006
000150 e6 a9 bd bf b6 bb 23 c2 9b 75 b1 41 47 2d 65 41
       -1.4817474 -40.93331 22.182425 14.323554
000160 18 0f cf 40 bd 1c c2 3f 7b 47 8d c1 ab bf 87 41
       6.4705925 1.516502 -17.659903 16.968588
000170 9c a3 7c 41 a1 e4 80 c1 d8 e4 07 40 49 c7 ac 41
       15.789944 -16.111635 2.1233425 21.597307
000180 cc 58 57 c1 63 a6 17 c1 71 fc a6 40 e4 e8 2d c1
       -13.459179 -9.478122 5.2183156 -10.869358
000190 73 23 2f 41 f8 3b d5 c1 cf b7 e4 40 3e 52 88 40
       10.946155 -26.654282 7.1474376 4.2600393
0001a0 eb 39 e7 3f 2b 20 80 41 73 42 36 c0 ad 4c 2f 41
       1.806455 16.015707 -2.8478057 10.95622
0001b0 13 24 87 bf c0 5c f0 41 57 1c ec 40 46 41 b7 bc
       -1.0557884 30.045288 7.3784595 -0.022369992
0001c0 a3 76 6a c0 e6 2d 73 c0 9b 41 96 c1 e2 4c 70 40
       -3.663491 -3.7996764 -18.782034 3.7546926
0001d0 0a fd 07 c1 d5 ac d7 40 9d 17 fc 40 c7 05 e9 c0
       -8.499277 6.7398477 7.8778825 -7.2819552
0001e0 fb 63 24 41 b2 49 b1 41 50 f0 fc 40 01 47 25 41
       10.274409 22.160984 7.904335 10.329835
0001f0 73 4d 84 40 1c 97 64 3f 9e b9 99 c0 66 c3 bc bf
       4.1344543 0.89293075 -4.8039083 -1.4747131
000200 08 56 b5 40 bf bf af 41 07 ed 06 41 32 6f 8f 41
       5.666752 21.968626 8.432868 17.929295
000210 b8 30 42 c0 5a 03 a8 c1 ed 90 a8 c1 ba 66 0f 41
       -3.0342236 -21.001637 -21.070765 8.96258
000220 fc 9a 0e 41 fa c2 09 40 69 93 f3 c0 73 38 94 c0
       8.912838 2.1525254 -7.6117444 -4.631891
000230 58 2a cd 41 bc 86 28 c1 b5 e9 72 c0 e7 af 40 41
       25.645676 -10.532894 -3.7955143 12.042945
000240 44 3d 9e c1 32 1c c6 c1 34 fc 6f c1 4f 86 64 c1
       -19.779915 -24.763767 -14.999073 -14.28279
000250 58 63 78 40 7c 59 15 40 70 4f 69 c0 08 45 8a 41
       3.8810635 2.3335867 -3.6454735 17.283707
000260 3b a3 8f 41 af 3f 91 41 fa d8 63 c0 75 88 ec 41
       17.954702 18.156096 -3.5601182 29.56663
000270 03 35 c8 41 8d ac 40 40 92 4b 8a be 00 8a 37 41
       25.025885 3.0105317 -0.2701078 11.471191
000280 b4 a2 7a c0 1b b2 84 41 bf 34 4e 41 98 b0 c1 40
       -3.9161806 16.586966 12.887877 6.052807
000290 a4 44 22 3f 19 f1 8d bf 2f 24 9b c0 ce ef a6 41
       0.6338599 -1.1089202 -4.848167 20.867092
0002a0 60 09 2f c1 b8 77 45 c1 e6 db a0 c0 02 b7 71 c1
       -10.939789 -12.341728 -5.026843 -15.10718
0002b0 c4 bf 72 c0 d5 51 18 bd d6 a3 4d 40 86 86 72 40
       -3.7929544 -0.037187416 3.2131248 3.7894607
0002c0 d7 77 4f c1 5d 9e c5 40 4e af c1 c0 b0 99 58 41
       -12.966758 6.1755815 -6.0526495 13.537521
0002d0 24 bc bc c0 18 55 9c 41 f3 34 4e c1 89 65 53 41
       -5.8979664 19.54155 -12.887927 13.212289
0002e0 ee f1 05 c2 99 b0 66 41 15 46 b9 41 a3 4f 31 41
       -33.48626 14.418115 23.15922 11.081943
0002f0 6b 0d a0 c0 0c 79 29 40 07 9d 41 c1 99 6b 8d 41
       -5.001638 2.648013 -12.100837 17.677538
000300 64 a2 86 40 06 7d ed c0 6b b7 a4 41 e7 c4 8f 41
       4.207323 -7.4215117 20.58956 17.971144
000310 8a 25 8c 41 69 b7 a6 c0 71 be 62 c1 dc 2c 6a c1
       17.51833 -5.209889 -14.1714945 -14.635952
000320 68 ed 3b c0 73 51 4d 41 d0 75 a6 41 2d 6f 97 40
       -2.9363651 12.832385 20.807526 4.7323213
000330 a6 a8 df 41 62 bb a6 40 c7 0b 12 41 d7 0d bb 40
       27.957348 5.210374 9.127875 5.8454394
000340 9f 4f 63 41 9e bf 02 c1 28 ab 00 c1 77 82 92 3f
       14.206939 -8.171782 -8.041786 1.1446065
000350 10 f6 fa 41 52 e3 50 40 1e fe 1d c1 84 7f 00 c1
       31.370148 3.2638745 -9.87454 -8.031132
000360 f3 19 96 c0 f6 57 20 c1 4e 3b d5 c0 b4 3d 5d c1
       -4.6906676 -10.021475 -6.6634893 -13.827564
000370 46 22 df 3f 46 85 21 c1 e6 50 41 c1 13 e6 a1 3e
       1.7432334 -10.095037 -12.082251 0.31620845
000380 d4 f5 ba 41 7e 1b cc 41 8e 58 8f c1 c7 39 92 40
       23.370033 25.513424 -17.91824 4.569553
000390 d4 af b9 c0 28 ef d7 40 69 53 2a c0 28 02 a0 c0
       -5.8027134 6.747944 -2.661341 -5.000263
0003a0 a0 80 c8 41 ab 44 34 40 fc 49 58 41 72 0c 07 3f
       25.062805 2.8166912 13.518063 0.52753365
0003b0 a6 8d f8 40 25 88 a0 be 5f a2 6a c1 78 eb 31 c0
       7.767291 -0.3135387 -14.664641 -2.7799969
0003c0 71 37 50 41 04 c6 a5 bf aa 60 ef 40 31 f7 f4 bf
       13.0135355 -1.2951055 7.48055 -1.9137937
0003d0 2d 5e ee 40 3d 44 30 c1 07 28 90 40 59 1e a2 41
       7.448996 -11.01666 4.504886 20.264818
0003e0 cc a2 21 41 d5 10 67 41 87 57 2c 40 db ec 64 41
       10.102245 14.441609 2.6928422 14.307826
0003f0 95 ca 72 c1 85 0e 4e 41 8c c1 a9 c0 17 db 42 41
       -15.1744585 12.878545 -5.3048763 12.178489

lstm.weight_ih_l0 f4 [32, 8]
000000 13 0d 48 40 0c 76 3b c0 3c 06 b9 40 01 38 c8 41
       3.125798 -2.92908 5.782011 25.027346
000010 aa da 3e 41 77 f7 d1 40 65 42 d7 c1 d0 c8 b5 41
       11.928385 6.561458 -26.90742 22.723053
000020 9b 98 1f 41 03 c0 f8 41 62 e1 b7 40 fe 63 39 40
       9.974757 31.093756 5.7462626 2.896728
000030 18 de 16 42 a2 1c b1 c0 ac 71 af c0 f0 0d c4 41
       37.71689 -5.534745 -5.482626 24.506805
000040 10 60 54 41 66 9c ce c1 bd 74 66 41 8d 00 6b 41
       13.273453 -25.826366 14.403501 14.687634
000050 c6 18 4b 41 34 cf 8d c1 bc 27 df 41 1a df 72 bf
       12.693548 -17.726173 27.894402 -0.94871676
000060 5a 5f fc 41 66 65 64 40 39 e3 42 c1 5f 63 a0 41
       31.546558 3.5686889 -12.180474 20.048521
000070 cb 7a 7e 41 5a b3 dd c0 25 d4 9d c0 14 f2 f2 3f
       15.904979 -6.9281435 -4.9321465 1.8980126
000080 0a 9e 72 41 85 84 8b c1 9c c0 5e c1 64 d9 d2 41
       15.163584 -17.439707 -13.922024 26.356148
000090 ff cb 24 41 e9 53 8c 41 5b d1 d5 c1 11 33 7a c1
       10.299804 17.540972 -26.727224 -15.637467
0000a0 bf 82 2d c1 06 4c 30 c1 a7 29 f6 40 7a 83 2a c1
       -10.84442 -11.01856 7.6925845 -10.657099
0000b0 b9 b3 09 41 35 0e a8 c1 9f dc 71 41 76 4e f6 41
       8.606378 -21.006937 15.116363 30.788311
0000c0 c2 45 49 41 4c 6a a1 c0 f5 f0 e7 c1 1a 2a fd 40
       12.579531 -5.0442257 -28.992655 7.9113894
0000d0 4b 14 40 c1 13 e7 58 41 1b 58 96 41 39 ae ca 40
       -12.004954 13.556415 18.79302 6.3337674
0000e0 03 8d 0c c2 42 47 bd c0 a6 2f 49 c1 93 23 53 41
       -35.137707 -5.9149485 -12.574133 13.196185
0000f0 46 85 06 c1 ed da 42 c1 c1 58 5e c1 75 be 17 42
       -8.407537 -12.178449 -13.896668 37.935993
000100 a7 91 57 be 24 67 dd bd 5e ce 9f be 74 15 a5 be
       -0.21051656 -0.10810688 -0.31212133 -0.3224293
000110 bf 5c b1 3e 17 a9 2c be e9 1c aa 3e 79 eb 9e 3e
       0.34641072 -0.16861378 0.33225182 0.31039026
000120 08 d1 45 3d ef 15 81 be de 37 6a 3e 1c a1 b5 3d
       0.04829505 -0.25212047 0.22872874 0.0886862
000130 66 f7 6d 3e d4 83 f1 bd a0 3e 6f 3d 40 59 be 3d
       0.23238906 -0.11792722 0.058409333 0.09294367
000140 86 e7 55 3e ae 3a 36 3e 60 42 c5 3c 50 5c a3 bc
       0.208891 0.17795822 0.024079502 -0.019941479
000150 0a 48 49 3e 6a dd 21 3e e0 ee 91 bd fc d6 54 be
       0.19656387 0.15807119 -0.0712564 -0.20785135
000160 1e 8c 07 3e 93 5d 69 be 6e db 1f 3e c0 86 c9 3d
       0.13237044 -0.22789602 0.1561105 0.09840155
000170 17 b4 22 be 98 20 14 3d 25 5c 37 be 95 85 98 3e
       -0.15889011 0.036163896 -0.17906244 0.29789415
000180 90 08 17 bd 8d fa a7 be a9 0b 95 3e ec ef be 3d
       -0.0368734 -0.32808343 0.29110458 0.09323105
000190 86 d3 20 3e a8 0b 1d bd 6d 72 98 3e ea 02 9f be
       0.1570569 -0.038341194 0.297748 -0.3105691
0001a0 00 ea 10 3c 1c 45 ab be 47 76 11 be 9a ab 79 3e
       0.008844852 -0.33451164 -0.14205275 0.24381867
0001b0 96 11 f1 bd 3a 90 69 3e e8 61 55 3d 88 9f 95 be
       -0.117709324 0.22808924 0.052095324 -0.29223275
0001c0 77 b4 ae be b0 11 84 3c 00 54 8b bb 73 bb 9b 3e
       -0.3412206 0.016121715 -0.004251957 0.3041645
0001d0 d0 a4 34 3d 8e f3 4c 3e e3 06 8d 3e 18 ca 3f 3d
       0.04410249 0.20014784 0.27544317 0.04682359
0001e0 d8 2c fb bd 71 28 19 be d7 bd 83 3e da ba 75 3e
       -0.12264413 -0.14956833 0.25730774 0.2399706
0001f0 a3 87 93 3e 2d 77 89 3e 6a ac 62 3e 98 87 5c 3d
       0.2881442 0.26848736 0.22136083 0.05384025
000200 f6 49 bf c0 b4 92 c0 c0 d0 c6 02 c1 38 c8 7d c1
       -5.9777784 -6.017908 -8.173538 -15.861382
000210 c4 fa 08 c1 1f be 6e c0 d6 d9 5d c1 82 b6 b1 c1
       -8.561222 -3.730354 -13.865683 -22.214115
000220 af 96 a6 c0 db a2 24 bf 0f 4e a8 bf 48 ac ba 40
       -5.205894 -0.64311 -1.3148822 5.8335304
000230 78 1f 4d 41 8e d8 1a 41 77 a8 76 41 61 e6 4f c1
       12.820183 9.67787 15.416129 -12.993745
000240 d1 fd 3e 41 e9 c3 32 40 b1 52 f7 c0 3b c6 58 c1
       11.936967 2.7932074 -7.728844 -13.548396
000250 77 c8 99 c1 a3 0e 02 c0 31 ce 9b c1 12 50 1a c1
       -19.222883 -2.0321434 -19.47568 -9.644548
000260 fa e0 b2 3f 54 0c 6f c1 5b 63 b0 41 ba 8b d6 bf
       1.3974907 -14.94051 22.048513 -1.6761391
000270 9f f5 9c bf af 54 12 40 75 37 b7 40 95 c9 2c 40
       -1.2262458 2.2864187 5.7255197 2.6998036
000280 60 7b 0c c2 44 4e 00 41 5e 77 9b c0 5b 4e 89 bf
       -35.120483 8.019108 -4.858321 -1.0727037
000290 07 b5 4b 41 6c 16 7e 41 22 83 3e c0 54 96 ad c0
       12.731696 15.880474 -2.9767537 -5.4246006
0002a0 86 8f 31 41 13 23 3f bc c3 c5 3d c1 58 ad 92 41
       11.09754 -0.011666077 -11.860782 18.33464
0002b0 29 65 af 40 45 82 b9 c0 89 ee d2 40 59 23 fd c0
       5.4810987 -5.797152 6.591618 -7.910565
0002c0 a5 17 ae 40 ef 81 15 c1 5d e2 a0 c0 d4 61 27 c1
       5.4403863 -9.344222 -5.027632 -10.461384
0002d0 15 75 3d c1 6e 8d 03 41 25 7f af 41 4e 82 b4 c1
       -11.8410845 8.222029 21.937082 -22.563625
0002e0 9e db 06 c1 3c 03 88 40 1a 86 0d be a1 2f 12 41
       -8.4286175 4.250395 -0.13820687 9.136628
0002f0 23 55 8b c1 db b4 14 c0 59 83 f6 3f 8c b9 c6 c1
       -17.41657 -2.3235385 1.9258834 -24.8406
000300 81 85 ec c0 de 5d a6 c1 9c 24 cb 41 80 d2 80 3f
       -7.391297 -20.795834 25.392876 1.006424
000310 21 c4 6d 41 3c f8 c1 c0 87 fa 0e c0 f4 52 04 41
       14.860383 -6.061552 -2.234041 8.270252
000320 5f 04 c0 41 09 eb fa c1 31 0e 07 c2 33 af ad 41
       24.002134 -31.364763 -33.76386 21.710546
000330 89 40 25 c0 28 9d 69 c1 73 62 a5 c1 5e 41 d5 c0
       -2.582064 -14.600868 -20.67307 -6.6642294
000340 14 40 ab c0 4d a2 77 41 20 e3 2c 3f 72 f4 6a 41
       -5.351572 15.477124 0.67534065 14.684679
000350 9b 0d 49 41 9b 0b 98 41 07 54 b0 c1 08 1a 7b 41
       12.565822 19.005667 -22.041029 15.693855
000360 a4 4b 25 40 23 bf d1 3e 3e 6e 40 c0 f4 72 0c 40
       2.5827417 0.40966138 -3.0067286 2.1945162
000370 a0 94 71 3f d7 8c 66 c1 f1 dd 06 c2 71 c1 43 41
       0.9436741 -14.409385 -33.71674 12.234727
000380 01 a3 3d c1 61 65 54 40 4f 57 fc 41 e7 86 f8 3e
       -11.852296 3.3186877 31.542631 0.48540422
000390 88 c9 c4 c0 a4 af ca 3f f3 16 1b c1 92 0c ea c1
       -6.149601 1.5834851 -9.693103 -29.256138
0003a0 b2 4f 03 c1 ce 50 25 41 66 ac c1 c1 c8 1c 01 42
       -8.206957 10.332228 -24.209179 32.278107
0003b0 e7 e9 ba 40 ac 20 e8 41 7d 16 77 c1 3c a0 b1 bd
       5.8410525 29.015953 -15.44299 -0.086731404
0003c0 1d 7a e1 40 88 55 a4 41 a2 f1 9a 41 2e eb 96 41
       7.0461564 20.541763 19.367985 18.864834
0003d0 ce eb fe c0 8d 6e a0 40 a2 cf 20 c1 02 68 d4 3e
       -7.9662848 5.013495 -10.050692 0.41485602
0003e0 38 d9 a7 be 98 dd d1 41 0d 81 5e 41 61 9c 1c c0
       -0.32782912 26.2332 13.906507 -2.4470446
0003f0 71 66 c2 41 21 89 f5 c0 c1 f5 b3 41 b4 b1 8b 40
       24.30002 -7.6729894 22.494997 4.3654423

lstm.weight_hh_l0 f4 [32, 8]
000000 2b b5 9a 3e 29 38 78 be 1c b8 ce 3d 92 16 58 3e
       0.30216345 -0.24240173 0.1009371 0.2110236
000010 72 da 0a 3e df 54 42 be 18 1d 3b bd b0 4f 93 bc
       0.13559893 -0.18977688 -0.045682043 -0.017982334
000020 e0 59 f8 3d 9c 68 95 be 92 5d 7b 3e 92 72 25 be
       0.12126517 -0.29181373 0.24547413 -0.16156986
000030 9c 3e 9e be 86 f6 50 3e 48 2a d0 bd 00 6c 94 3c
       -0.30907142 0.20406541 -0.101643145 0.018117905
000040 fb 15 ac 3e 18 90 cd bd f0 45 9b bc e0 de 83 3d
       0.3361052 -0.10037249 -0.018954247 0.064389944
000050 c8 cb 42 bd f8 7f af 3d c5 36 9a be 40 cb dd bb
       -0.047557622 0.0856933 -0.3011991 -0.006768614
000060 78 43 ce 3d 00 76 13 3c 8b d5 ad 3e c5 35 a1 3e
       0.100714624 0.009000301 0.33951983 0.31486335
000070 b9 bc 2c be f6 8e e9 bd c6 98 9b be 81 73 9e 3e
       -0.16868867 -0.11404221 -0.30389994 0.30947497
000080 f1 3e b3 be d1 f5 5b be 71 f6 97 be 30 bd 8c 3d
       -0.35008958 -0.2148049 -0.29680207 0.06872022
000090 a8 ff 02 3d 90 7f 01 3d a8 69 7b 3d 82 1f 9a be
       0.031982094 0.031615794 0.06138006 -0.30102164
0000a0 84 9e c2 bd 50 5f 1c bd bc 23 df bd ef b0 4e be
       -0.09502891 -0.038176835 -0.10895488 -0.20184682
0000b0 63 3c a0 be af 9c a0 3e 3a 95 0e be 62 b0 7a be
       -0.3129607 0.3136954 -0.13924113 -0.24481347
0000c0 1c b2 73 be a0 c9 1e bd 62 91 a9 be ef fa a1 be
       -0.23798412 -0.038766503 -0.3311873 -0.3163676
0000d0 01 d4 a1 3e cf 78 b0 3e 2d 6b 90 3e 60 d2 2f 3c
       0.3160706 0.3446717 0.2820677 0.01073131
0000e0 5c 0f 2e be a9 4d 28 be bb 51 5a be d2 c8 88 be
       -0.16998047 -0.16435875 -0.2132024 -0.26715714
0000f0 a0 51 09 3c e5 30 10 be 39 4c 89 be 14 f4 0c be
       0.008381277 -0.14081152 -0.26815966 -0.13764983
000100 36 4d 4c 3e 00 1b 27 bd 04 3c 82 3d 56 05 54 3e
       0.19951329 -0.040797234 0.06359103 0.2070516
000110 3e b4 30 3e 8c 1a cc bd 45 8f 97 3e 37 94 07 be
       0.17256257 -0.09966001 0.29601493 -0.13240133
000120 45 cb 93 3e 07 d0 9d 3e 5c d9 6d be 48 20 9d bd
       0.2886602 0.30822775 -0.23227447 -0.07672173
000130 30 e7 a3 bc 1a 35 74 3e f8 96 13 bd 0b 0d 4b be
       -0.0200077 0.23848382 -0.036032647 -0.19829194
000140 ac 08 86 3d 41 0f 96 be 40 c2 62 be c1 08 04 be
       0.06544623 -0.29308513 -0.22144413 -0.12893964
000150 c0 ce 9d bd e5 55 93 3e 35 33 83 3e fd 55 91 3e
       -0.0770545 0.2877647 0.25625005 0.28385916
000160 d8 90 17 bd 5a 5d 4f 3e 28 2b 97 3d 59 c8 80 3e
       -0.03700337 0.20250455 0.07381278 0.25152853
000170 90 9e 8b be aa 6a 0d 3e 78 57 94 be 94 e6 f8 3d
       -0.2726941 0.1381022 -0.28972983 0.12153354
000180 84 e4 8d 3d be 64 aa be 78 ff 56 bd 8b 6e ad be
       0.069283515 -0.33279985 -0.052489728 -0.338734
000190 99 79 81 be 80 93 83 bd cc f0 79 be 30 f5 6c bd
       -0.25288084 -0.06424618 -0.24408263 -0.057851017
0001a0 fa 06 6a 3e d8 14 7f be cd ed 15 be 5d 07 9e be
       0.22854224 -0.24910295 -0.14641495 -0.30864993
0001b0 1d 3d b1 3e dc 68 e5 3d 22 5d 8c be 26 9e 5f be
       0.34616938 0.11201641 -0.27414805 -0.21837673
0001c0 f8 2a b2 3d 0b c4 b3 be 80 6d 93 3d 1d 09 b2 be
       0.08699602 -0.35110506 0.0719862 -0.34772578
0001d0 53 1d ae 3e 75 39 9a 3e 20 a6 5c 3c 27 61 91 3e
       0.34006748 0.3012196 0.013467342 0.28394434
0001e0 17 12 aa be 1a 4d 8b be e0 28 62 3c 3e c8 7b 3e
       -0.33216926 -0.2720726 0.013803691 0.24588105
0001f0 e6 09 6a be 15 04 9f be 9a 6a a2 be 64 21 c1 bd
       -0.22855338 -0.31057802 -0.31721956 -0.09430197
000200 7b c7 ae be bf 5d 42 be c0 83 08 3d 10 ed 5d bd
       -0.34136567 -0.18981074 0.03332877 -0.05418116
000210 a2 34 48 3e 4e 57 a4 be 85 6f 92 3e c8 6b 8b bd
       0.19551328 -0.32097858 0.28600708 -0.06807667
000220 24 90 7a be f8 97 b0 bd 63 77 87 3e ab c3 b4 3e
       -0.24469048 -0.08622736 0.26458272 0.35305533
000230 5f bd b3 be 4d 40 b0 3e 35 7a 81 3e 9f 35 a9 3e
       -0.35105416 0.34424058 0.2528855 0.33048722
000240 75 d0 32 be d0 22 05 be 23 03 98 3e 11 3f 96 3e
       -0.17462333 -0.13001561 0.29689893 0.2934499
000250 a8 c9 45 bd 18 b0 8f 3d de 2a 5c 3e 00 d2 54 3c
       -0.048288018 0.07016009 0.21500728 0.012989521
000260 b7 7c 91 3e 10 d6 dd 3c 1a 5e 96 be e6 84 5e be
       0.28415462 0.027079612 -0.2936867 -0.21730384
000270 04 c9 d4 3d ff a2 83 3e 2c 6f 85 bd 6b 47 ac 3e
       0.10389903 0.25710294 -0.06515345 0.33648238
000280 a0 3d ff bc 80 b3 96 bd e7 01 ab be fc bb 69 be
       -0.031157315 -0.07358456 -0.3339989 -0.22825617
000290 03 e4 ae 3e 1e 69 32 3e c0 a0 80 bd 8f cf ac 3e
       0.34158334 0.17422912 -0.06280661 0.33752105
0002a0 f0 96 ed 3d 98 7f 7c bd 62 e8 a3 be 29 20 96 3e
       0.11601055 -0.06164512 -0.32013232 0.2932141
0002b0 81 e0 b4 3e 07 bc 50 be 3e 1b 7d be 88 fa 67 bd
       0.35327533 -0.20384227 -0.24717423 -0.05663541
0002c0 01 fc 68 be 10 11 80 3c 82 1f 6d 3e e5 3c 9c 3e
       -0.22752382 0.015633136 0.2315655 0.3051521
0002d0 50 2a 82 3c b0 95 52 bd 10 2d 9f be c6 5b 22 3e
       0.015889317 -0.051412284 -0.31089067 0.15855321
0002e0 5d 7d 97 be e0 10 b8 bc 9b 52 ac be d0 76 26 bd
       -0.29587832 -0.022468984 -0.33656773 -0.040640652
0002f0 58 b1 1a 3d 85 db 64 be ec 7d 83 3d 64 6c 83 3d
       0.037766784 -0.22349365 0.06420502 0.06417158
000300 eb 9c 27 be 73 c8 38 be 4d 5b b4 be ac b2 e9 bd
       -0.16368453 -0.18045215 -0.35225907 -0.11411032
000310 5a 23 5c 3e 00 24 3e bd cc 7b 5f be f0 58 b1 bd
       0.2149786 -0.04642105 -0.21824569 -0.086595416
000320 f1 c7 94 be 69 4f 80 3e 6d 01 80 3e c0 2c a1 bb
       -0.29058793 0.25060585 0.25001088 -0.0049186647
000330 23 fc a6 3e 62 92 0d be 35 a1 53 be 50 0f 96 bc
       0.3261424 -0.13825372 -0.20666964 -0.018317848
000340 2e d0 3e 3e 60 36 fe 3d 00 0d 88 ba 26 e7 7e 3e
       0.18634102 0.12412715 -0.0010379851 0.24892864
000350 d0 30 93 bc 8a 5e 1a 3e 96 1c 89 be 30 eb ed bc
       -0.017967612 0.15075126 -0.26779622 -0.02904281
000360 96 dc 5f be b8 33 52 bd 96 ae 87 be e6 06 5e 3e
       -0.2186149 -0.051318854 -0.26500386 0.21682319
000370 bc 14 aa be 70 64 3e bd 53 21 82 be 80 64 03 bb
       -0.33218944 -0.046482503 -0.2541605 -0.0020048916
000380 6f 85 9e 3e 8c 88 9b bd da 5a 80 be 54 6c 09 be
       0.30961177 -0.075944036 -0.25069314 -0.1342023
000390 2c 29 8b bd 68 9c 25 3d 73 7a a5 3e 3e b1 6d be
       -0.06794962 0.040432364 0.32319984 -0.23212144
0003a0 fd 27 6d be 51 99 a6 be fd a3 29 be 4b 43 10 be
       -0.23159786 -0.32538846 -0.16566463 -0.1408817
0003b0 08 a7 04 bd ba 15 63 3e 0f 3b 8a 3e 02 a0 12 3e
       -0.032385856 0.22176257 0.26998183 0.1431885
0003c0 20 61 4a 3c 34 f6 f9 3d 7c 19 8c be cc 51 b2 be
       0.012352258 0.12205163 -0.27363193 -0.3482803
0003d0 04 b6 b6 bd 18 18 aa bd 37 52 a6 3e 20 38 06 bc
       -0.089214355 -0.08305377 0.324846 -0.008192092
0003e0 5e 45 13 3e 21 f7 0e be b0 b6 b1 be 68 ba 48 bd
       0.1438193 -0.1396146 -0.34709692 -0.049005896
0003f0 30 87 07 be 53 0f ad 3e 00 ee 45 3d 47 c3 25 be
       -0.13235164 0.33800754 0.048322678 -0.16187774

lstm.bias_ih_l0 f4 [32]
000000 43 f4 94 40 22 c4 4a c1 c7 dd 49 c1 96 2c 05 c2
       4.654817 -12.672884 -12.616645 -33.29354
000010 77 4c 92 c1 f6 85 88 c1 33 f9 0c c2 93 96 df c0
       -18.287336 -17.06541 -35.24336 -6.9871306
000020 e5 4d 28 be 3f 68 a3 3e c0 26 9e 3b a0 58 a0 be
       -0.16435964 0.3191547 0.0048263967 -0.31317616
000030 ec 66 91 bd 84 bb 3b be 42 64 95 be 40 ad 85 bd
       -0.07099709 -0.1833325 -0.29178053 -0.065271854
000040 64 00 97 40 41 a3 a6 c0 86 29 89 c1 6f 41 67 c1
       4.7187977 -5.2074285 -17.145275 -14.453475
000050 9a 2f 44 c1 73 a6 c5 40 ad db 72 bf 1b 30 9b 3d
       -12.261621 6.1765685 -0.9486645 0.07577535
000060 82 44 43 c1 3b 95 43 c1 da 11 d6 c1 02 db 1b 3f
       -12.204226 -12.223933 -26.758717 0.60881054
000070 dd 00 13 c0 35 39 04 c2 36 b9 10 c2 14 3f ee c1
       -2.2969277 -33.055866 -36.18087 -29.7808

lstm.bias_hh_l0 f4 [32]
000000 ed a9 90 40 36 61 51 c1 0d a4 4e c1 95 eb 05 c2
       4.520743 -13.086233 -12.915051 -33.48006
000010 94 39 96 c1 38 54 88 c1 e9 30 0e c2 d3 16 df c0
       -18.778114 -17.041122 -35.547764 -6.971536
000020 34 97 80 3d 5c 9c ad bd 73 6e 89 3e f4 79 1e be
       0.0627884 -0.08477089 0.2684208 -0.15476209
000030 18 95 da bd b3 7c 8b be f6 99 20 be 50 7f f1 3d
       -0.106729686 -0.27243575 -0.15683731 0.11791861
000040 be 5f 8f 40 a8 63 95 c0 8f 22 8b c1 66 2a 6a c1
       4.4804373 -4.668415 -17.391874 -14.635351
000050 d0 9e 45 c1 b4 55 ba 40 6d 69 6c bf a4 47 53 be
       -12.351273 5.822962 -0.92348367 -0.20632797
000060 f8 94 42 c1 fb b2 42 c1 0a 97 d7 c1 b2 6e 2c 3f
       -12.161369 -12.168696 -26.94875 0.6735641
000070 f2 e7 df bf 7e d5 05 c2 24 04 11 c2 a8 bc ec c1
       -1.7492659 -33.45849 -36.254044 -29.592117

lstm.weight_ih_l0_reverse f4 [32, 8]
000000 a1 d3 a7 41 91 92 ca 40 f8 1e 15 41 4b 64 f9 41
       20.978334 6.3303914 9.320061 31.173971
000010 92 74 6d 40 02 06 b9 40 49 42 2c 40 48 a7 2b 41
       3.71024 5.7819834 2.6915457 10.72834
000020 b4 08 d8 c0 c9 10 bc 41 42 43 03 41 38 93 5c c1
       -6.7510624 23.508196 8.20392 -13.785942
000030 c8 1a d6 40 05 3a 6f c1 cd 2d 8c 41 3b 4c 77 41
       6.690769 -14.951665 17.522364 15.456111
000040 20 da c3 c0 e0 1d ba 40 4f de 57 41 1e 5d 07 42
       -6.1203766 5.816147 13.491775 33.840935
000050 57 d8 1a c1 b0 76 3b c0 7f ae 03 c1 5e 65 97 bf
       -9.677817 -2.929119 -8.230102 -1.182781
000060 c0 f8 e6 41 bc d6 fe c0 04 55 dc 41 2f cc 11 42
       28.87146 -7.9637127 27.541512 36.449398
000070 ba 17 fd c0 24 5e 0c 41 7a 58 0b c1 ba cb 82 40
       -7.9091463 8.772984 -8.709101 4.087369
000080 bb b6 00 c0 4c 40 f2 41 4b 39 65 41 76 0a 61 c0
       -2.011153 30.281395 14.326488 -3.5162635
000090 29 af 60 40 ab 06 c8 41 2a 3c 33 c0 29 41 f1 3f
       3.510691 25.003256 -2.8005471 1.884801
0000a0 b3 1e 9f c0 71 03 d0 40 cd c1 c2 c0 bf 04 76 c1
       -4.9724975 6.50042 -6.0861573 -15.376159
0000b0 19 a7 43 c1 93 59 e0 40 04 f7 ef 41 bf e9 aa 3f
       -12.228295 7.0109344 29.995613 1.3352584
0000c0 43 9c 64 3f cd cc fa c1 80 ec d1 c1 34 9d 3b c0
       0.89300936 -31.35 -26.240479 -2.93147
0000d0 2a 17 20 c1 e2 1c dd bf c8 37 2b 41 57 0a af 40
       -10.005655 -1.7274439 10.701118 5.470012
0000e0 40 e0 24 41 b5 81 30 41 8a 2b 82 40 77 37 d8 41
       10.304749 11.031667 4.067815 27.027082
0000f0 1a 54 5c 40 76 e4 91 41 71 d8 80 c1 81 af 41 41
       3.4426332 18.236553 -16.105684 12.105348
000100 60 e0 61 3c 77 6f ab be 3e b0 73 3e 00 f3 82 3d
       0.013786405 -0.33483478 0.237977 0.06394005
000110 b6 aa 2c 3e 28 97 58 3d d8 d4 7c bd dd 27 98 3e
       0.16861996 0.05287853 -0.06172642 0.29717913
000120 40 a1 3c 3c d2 83 48 3e 44 a9 11 be 20 8c 19 3d
       0.011513054 0.19581535 -0.14224726 0.03748715
000130 31 26 a7 be 56 f9 fa bd 51 9e 90 be d0 8e a3 bd
       -0.32646325 -0.12254588 -0.28245786 -0.07986224
000140 10 52 15 3e 30 02 a9 bc 00 30 79 bc 80 a7 11 bd
       0.14582086 -0.020630926 -0.015209198 -0.03556013
000150 a8 b2 bd 3d c8 3b 08 3d 13 6d 83 be 87 ea 91 3e
       0.092625916 0.033260137 -0.25669155 0.28499243
000160 4c 52 a3 bd 10 20 72 3d 79 39 07 be b8 88 21 bd
       -0.07974681 0.05911261 -0.13205518 -0.039437026
000170 73 69 a0 3e 76 64 50 3e 38 b9 4a be 5f ea a3 3e
       0.3133045 0.20350823 -0.19797218 0.32014748
000180 4d b4 20 be 93 3e 4f be fe 63 08 3e 36 22 da bd
       -0.1569378 -0.20238714 0.13319394 -0.106510565
000190 69 91 65 be 33 0f 9a 3e 0c a1 92 bd c0 83 55 be
       -0.22418751 0.3008972 -0.071596235 -0.2085104
0001a0 e9 cf 80 3e b8 30 e9 bd ac e2 92 3d 10 51 e2 bc
       0.25158623 -0.113862455 0.071721405 -0.027626544
0001b0 ee 7d 5a 3e 3a 87 78 be cb 79 a8 3e 00 46 4e ba
       0.21337101 -0.24270335 0.3290542 -0.0007868707
0001c0 15 15 9d 3e 56 15 6a 3e 09 64 93 be 00 22 cf ba
       0.30680147 0.22859702 -0.28787258 -0.001580298
0001d0 c8 12 3f bd 99 a5 69 be 4c 8f 91 bd 9a 80 01 3e
       -0.04664877 -0.22817077 -0.0710741 0.12646714
0001e0 87 23 af 3e 35 d3 92 3e 1d 26 a3 3e f6 bb 2e 3e
       0.34206793 0.28676763 0.31865016 0.17063889
0001f0 34 53 b8 bd 6f 0e 32 be d0 b5 3c bd d3 ae 28 be
       -0.09000245 -0.17388318 -0.046071827 -0.1647294
000200 04 76 b5 40 7d bc 70 c0 b8 fd 64 c1 b6 1d 05 c1
       5.670656 -3.7615044 -14.311943 -8.319754
000210 be 63 02 40 2a 89 46 c1 ca 59 53 c1 4b 1a 58 41
       2.0373378 -12.408487 -13.209421 13.506419
000220 a7 66 86 c1 b0 b8 7d 41 eb e6 4e c0 2b 70 99 3f
       -16.800123 15.85759 -3.232844 1.1987356
000230 0a 5e 66 c1 ec 5a 72 c0 ee b2 8a c1 87 26 d3 bf
       -14.397959 -3.7867994 -17.337368 -1.6496133
000240 88 47 7a 41 05 0a 1d 41 ad c7 02 42 09 f8 ba 40
       15.642464 9.814946 32.694996 5.8427777
000250 f2 2b 7f bf 39 3c 0c c0 d5 df 15 c1 f8 90 14 40
       -0.9967643 -2.1911757 -9.3671465 2.3213482
000260 e8 cc 92 c0 87 d1 47 41 a3 d5 c3 41 d8 1c 88 41
       -4.587513 12.488654 24.479315 17.014084
000270 c8 b4 63 c1 41 cb 49 bf d3 f5 be 40 07 1c 7b c1
       -14.231636 -0.78825766 5.967508 -15.694343
000280 72 49 01 40 74 a3 f5 41 e6 66 36 c1 b4 6a a5 40
       2.0201077 30.704811 -11.400122 5.1692753
000290 11 b8 ef bf 8d 01 59 be 88 39 92 41 09 69 72 41
       -1.8728048 -0.21191998 18.278091 15.150643
0002a0 dc 29 ae 41 68 81 b1 40 9c d9 d1 bf a3 04 6a 40
       21.77044 5.5470467 -1.6394534 3.656533
0002b0 95 f0 fb c0 62 d5 a0 c1 44 35 47 c1 53 7b b0 c0
       -7.873118 -20.10419 -12.450504 -5.515054
0002c0 2e 9a 0e 41 98 1d ea bf 35 63 98 40 41 83 a1 40
       8.912642 -1.8290281 4.76211 5.047272
0002d0 3a 38 02 41 16 33 2b 41 ed 53 56 41 cd 5e 50 40
       8.138727 10.699972 13.39549 3.2557862
0002e0 db 08 d1 c0 12 6a 92 c1 6f 0e c4 c1 b4 22 9b c1
       -6.532331 -18.301792 -24.507048 -19.391945
0002f0 0f ad 64 c1 38 09 ab 3e 3b 32 9b be 7d 57 5b 41
       -14.292251 0.3340547 -0.3031176 13.708859
000300 6b 64 fa c1 82 c3 90 c1 b0 0a d1 41 d8 2b da 40
       -31.299032 -18.095463 26.130219 6.817852
000310 1d 64 b5 c1 40 48 94 c1 93 ef d0 c1 e4 96 c4 c0
       -22.673883 -18.535278 -26.11698 -6.1434193
000320 32 6b a0 41 04 11 94 41 f8 5a 72 c0 f6 b9 be 41
       20.052341 18.508308 -3.7868023 23.840801
000330 95 ba 4f c1 db 2f ec 3f ef bc 96 41 25 1b ef 40
       -12.983052 1.8452104 18.842253 7.4720635
000340 53 4d 5f 41 28 66 9a c1 9c 71 1a c1 cc a0 74 41
       13.956378 -19.299881 -9.652737 15.289257
000350 a5 bd 8b c0 ae cb 4c c1 fb b8 d8 c1 f5 2b 6b 41
       -4.3669 -12.7997265 -27.090322 14.698232
000360 53 54 d3 40 cd 92 06 c1 82 9f 4d c1 70 df 08 c0
       6.6040435 -8.41084 -12.851442 -2.1386375
000370 fc af a0 c0 67 c6 e4 c1 d9 6e 2d 41 c2 0a 87 41
       -5.0214825 -28.596876 10.839562 16.880253
000380 63 66 12 c1 83 29 c2 be 35 9a 31 41 f1 ec ed 41
       -9.149997 -0.37922296 11.100148 29.740694
000390 f8 9b 4c 41 41 88 69 3f c3 80 07 41 27 e4 05 42
       12.788078 0.9122353 8.468936 33.472805
0003a0 21 6f 0d c0 51 67 cd c0 a4 b1 9e c1 8f 4a 42 42
       -2.2099078 -6.418862 -19.836739 48.57281
0003b0 02 e8 b6 3f c1 53 54 41 0a 77 a1 40 64 b8 54 c1
       1.4289553 13.270448 5.045781 -13.295017
0003c0 4a 09 e8 c0 6a d9 c2 41 30 e4 15 41 0e c4 f3 40
       -7.251134 24.35616 9.36821 7.6176825
0003d0 f0 e0 4d 41 cd af 93 40 37 6f 8c c1 30 62 0f 41
       12.867416 4.61521 -17.554304 8.961472
0003e0 ce 9e ef c1 87 ed 8b 41 a1 07 b5 41 ab 23 8c 40
       -29.952541 17.49098 22.628725 4.379354
0003f0 47 8e 65 41 5e 45 b1 41 37 fc 22 c1 20 88 04 c2
       14.347236 22.15887 -10.186576 -33.132935

lstm.weight_hh_l0_reverse f4 [32, 8]
000000 54 b6 ef 3d 80 89 49 3d d8 75 aa be 40 c4 71 3d
       0.11704698 0.049203396 -0.33293033 0.05902505
000010 42 f3 21 3e b4 80 92 bd a4 22 89 be 2f 03 95 3e
       0.15815452 -0.071534544 -0.2678424 0.2910399
000020 46 24 6d 3e d8 2b 21 3d fc 8d 86 be 80 5a fe 3d
       0.23158368 0.039348453 -0.262802 0.12419605
000030 2f f1 af 3e 90 65 98 bc ca eb 5c 3e 1a 25 3d be
       0.34363696 -0.018603116 0.21574321 -0.18471184
000040 78 a3 f6 3d b8 98 0f 3d 12 6d 14 3e c0 9c 35 bd
       0.12042898 0.035057753 0.14494732 -0.04433894
000050 60 28 8b bd 5c 00 77 be 3c 3d cd bd 59 d5 8c 3e
       -0.0679481 -0.24121231 -0.10021445 0.2750652
000060 c2 59 20 be ef f2 ab be c0 87 d1 bb c0 38 f3 3d
       -0.1565924 -0.3358378 -0.0063943565 0.118760586
000070 50 6c a9 bd 81 81 6f be 80 ab 75 3b 54 62 cc bd
       -0.08272612 -0.23389246 0.0037486255 -0.09979692
000080 b6 23 71 3e 0c 86 c5 bd 7e 12 79 3e 06 d6 3a 3e
       0.23548779 -0.09644708 0.2432346 0.18245706
000090 c8 b0 5e be 5d 1f 3c be b0 73 d3 3c d4 f0 a0 bd
       -0.21747124 -0.18371339 0.025812 -0.07858434
0000a0 cd 7b 3b be 84 ef 0c 3e 04 2d db 3d 80 81 53 bd
       -0.18308945 0.13763243 0.107019454 -0.051637173
0000b0 0a d0 20 3e 4c 2b 9f 3d 28 73 c8 3d a8 0b 05 3d
       0.1570436 0.0777193 0.09787589 0.03248182
0000c0 68 b5 a6 bd 62 12 30 3e 20 b4 64 3c f5 7d 83 3e
       -0.08140069 0.17194512 0.013958961 0.25682035
0000d0 b8 1f 9b bd e9 c3 b4 3e e4 16 e4 3d b0 f9 10 bd
       -0.07574409 0.35305718 0.111371785 -0.03539437
0000e0 c6 42 43 3e e0 cc b2 bc 00 03 83 3d 52 f3 d9 bd
       0.19068441 -0.021826208 0.063970566 -0.10642113
0000f0 48 14 bd 3d dc d2 13 3e 62 ce 92 be 70 85 b9 3c
       0.09232384 0.14435905 -0.28673083 0.022646636
000100 10 78 ae be 40 b6 af bb 9a 49 28 3e c0 88 e5 3d
       -0.34075975 -0.005362302 0.16434327 0.112077236
000110 fc ee a0 3d 12 01 4b 3e 20 9d 5e 3d d1 69 96 3e
       0.07858083 0.19824627 0.054349065 0.29377607
000120 30 4f d3 bd 5c f8 07 be 3c 9d 58 be 20 47 0c bc
       -0.10317838 -0.13278335 -0.2115373 -0.008561879
000130 1a eb 1a 3e d0 0d 8b bc 20 62 55 bc 9a 2b ef bd
       0.15128747 -0.01697436 -0.013023883 -0.11678238
000140 20 97 b2 be 35 bb a6 be 1a 57 07 3e 69 bd 96 3e
       -0.34880924 -0.32564703 0.1321682 0.29441383
000150 53 34 88 be 27 09 8a be 4a d8 43 be 75 13 0b be
       -0.2660242 -0.26960108 -0.19125476 -0.13581641
000160 4f 62 0f be 7f 3d ae 3e a4 c4 91 be f1 60 a3 be
       -0.14002346 0.34031293 -0.28470337 -0.31909898
000170 c2 fb 5b 3e 4c 81 14 be 48 af 0e 3e e8 0c 18 bd
       0.21482757 -0.14502448 0.13934052 -0.037121683
000180 55 e5 1e be 64 36 24 be 72 e3 3e 3e 58 cc cd 3d
       -0.1551717 -0.16036373 0.18641451 0.10048741
000190 68 22 6a 3d 60 aa 65 3c c4 24 9b be 52 b4 74 3e
       0.05716172 0.014017671 -0.30301487 0.23896912
0001a0 ee e1 24 3e 80 5b 53 3d 30 c6 51 bd e5 12 98 be
       0.1610181 0.051600933 -0.051214397 -0.29701915
0001b0 26 a6 02 3e 80 44 0d bc 79 3e 19 be 1c d8 d1 3d
       0.12758693 -0.008622289 -0.14965238 0.10246298
0001c0 77 ff 9f be e9 41 af 3e 28 ec c4 bd dd 9d a9 3e
       -0.31249592 0.34229973 -0.09615356 0.33128253
0001d0 65 dd 92 3e 1a cf 12 3e 70 94 27 bd 40 8c cc 3c
       0.28684536 0.14336815 -0.040913045 0.02496922
0001e0 98 2e 92 be bc 8f fa 3d 11 8e 0e be 74 70 da 3d
       -0.28551173 0.122344464 -0.13921382 0.1066598
0001f0 62 a4 02 3e a3 f9 a0 3e 0a 7a 82 be 94 9d b5 bd
       0.1275802 0.31440458 -0.25483733 -0.08867946
000200 80 4c 3a 3d 48 eb c2 bd c7 fe 42 be 59 20 55 be
       0.045483112 -0.095175326 -0.19042502 -0.20813121
000210 92 96 20 be 28 f2 ed bd 5d 18 80 be 41 37 9f 3e
       -0.15682438 -0.11618453 -0.25018588 0.31096843
000220 44 88 9c 3d 15 52 8f 3e 8c f4 f8 bd 4c 22 92 bd
       0.07643178 0.2799231 -0.121560186 -0.07135448
000230 46 89 78 3e 6e 8a dd bd a5 c7 59 be 4e 85 1a 3e
       0.24271116 -0.10817419 -0.21267565 0.15089914
000240 2c 69 a9 3d 6e 2d 3f 3e d4 69 f2 3d 30 ce f1 bc
       0.08272013 0.18669674 0.11836591 -0.029517263
000250 c2 a1 0c 3e f8 3d fb bd 70 ac c6 bd 18 93 75 3d
       0.1373358 -0.12267679 -0.097008586 0.059954733
000260 60 d3 8d 3c 00 90 33 3d e4 27 e5 3d 57 cc b0 3e
       0.017312706 0.0438385 0.11189249 0.345309
000270 80 99 d9 bb 05 0d 8a be 14 4b 92 be 84 e1 67 be
       -0.006640613 -0.26963058 -0.28572905 -0.22644621
000280 08 1d 7b bd 96 57 23 3e ca be 56 be da d9 4c 3e
       -0.061306983 0.1595138 -0.20971218 0.20004979
000290 d0 12 14 3e 5e dd 33 3e 01 22 93 3e 5b 17 ac be
       0.14460301 0.17564914 0.2873688 -0.3361157
0002a0 72 09 1c 3e a0 bf f5 bc 90 da e0 bc c0 bc f9 3b
       0.15237978 -0.0299986 -0.027447969 0.0076213777
0002b0 70 e2 98 be 9a 0b 3c 3e b7 7d 8e 3e ca a6 b4 be
       -0.29860258 0.183638 0.27830288 -0.352835
0002c0 dd df 8a be ba 42 1c 3e 3d e6 05 be c0 3d f3 bc
       -0.2712392 0.15259829 -0.1307611 -0.02969253
0002d0 cc 7b aa bd 00 09 08 bb 73 01 91 be b8 c0 f1 3d
       -0.08324394 -0.0020757318 -0.28321418 0.11804336
0002e0 92 42 63 be 30 dc 74 bd 36 16 5a be 4e c9 a0 be
       -0.22193363 -0.0597803 -0.21297535 -0.31403583
0002f0 30 d8 f9 3c 04 34 6c be f0 45 09 bd 93 9d 28 be
       0.030498594 -0.23066717 -0.033513963 -0.1646636
000300 f2 a9 29 3e ce d8 9f be 64 e8 23 be b7 65 8c 3e
       0.16568735 -0.31220096 -0.16006619 0.27421352
000310 3a c0 9a be 56 e3 40 3e 10 03 c0 3c ed b0 8d 3e
       -0.30224782 0.18836722 0.02343896 0.27674046
000320 a7 c1 a0 3e 10 8c 35 3d 7f da b0 3e 24 52 8a bd
       0.31397745 0.044323027 0.345417 -0.06753948
000330 86 16 69 3e 29 95 8e be e8 84 1c 3d 86 32 d5 bd
       0.22762498 -0.27848175 0.038212687 -0.10410027
000340 5a 22 95 be ee c7 73 be 8a 3e 39 3e 04 30 de 3d
       -0.2912777 -0.23806736 0.18090263 0.10849002
000350 00 2f e4 3c 20 fc 27 bc fe 9c 7e be f0 d2 ad bd
       0.027854443 -0.010252982 -0.24864575 -0.08487499
000360 2f 81 84 3e 8d 1c aa be 30 ea e4 3d 6c 65 57 be
       0.2587981 -0.33224908 0.1117748 -0.21034783
000370 7e 5f 1a 3e 78 b3 9b 3d 80 d5 02 3b 67 2e 6e be
       0.1507549 0.0760259 0.0019963682 -0.23259889
000380 0b 57 9a be a8 0c d4 3d 8c d4 98 be 16 3f af be
       -0.30144534 0.103539765 -0.2984966 -0.34227818
000390 a8 6f 01 3d 56 42 5e 3e 60 7a f7 3d a1 93 99 3e
       0.031600624 0.21704993 0.12083888 0.29995444
0003a0 57 91 16 be 99 0f af 3e b7 e5 a8 3e 8c 19 30 be
       -0.1470388 0.34191588 0.3298776 -0.17197245
0003b0 7c 73 c4 3d e0 5f dc bd 5b 62 98 be 37 a7 b4 3e
       0.095923394 -0.10760474 -0.2976254 0.35283825
0003c0 48 54 6d bd d6 41 2c 3e 93 2a a8 3e 98 dc e9 3d
       -0.057941705 0.1682199 0.32844982 0.11419028
0003d0 ed a8 b4 3e 9c fd bc bd 33 a9 2c be 80 5f a0 3c
       0.3528513 -0.0922806 -0.1686142 0.019576788
0003e0 86 c2 20 3e f1 6e 1b be 78 87 20 3d f0 09 96 3c
       0.15699205 -0.1517904 0.039191693 0.018315285
0003f0 98 61 f5 3d 84 e0 9c be a1 b2 92 3e d0 2c 6e be
       0.11981505 -0.30640042 0.28651908 -0.23259282

lstm.bias_ih_l0_reverse f4 [32]
000000 a2 05 92 c1 38 9b 95 c1 1b f0 9f 40 0f 2b ba c1
       -18.25275 -18.70079 4.9980597 -23.271025
000010 f6 76 1a c1 04 4b 9d c1 bf 2f 14 c2 ec 14 1e c1
       -9.654043 -19.661629 -37.046627 -9.880108
000020 55 82 21 be 40 cb 7a be 70 c0 4b be 04 db 48 be
       -0.15772374 -0.24491596 -0.19897628 -0.19614798
000030 a8 6d 95 3d 57 05 a1 be 15 7b 04 be b8 b6 86 bd
       0.07296306 -0.31449386 -0.12937577 -0.065778196
000040 8b ab 90 bf 15 9c 4b c0 b0 e4 25 41 17 4b 6d 40
       -1.1302351 -3.1814015 10.368332 3.7077081
000050 f8 3b 48 3f 4f 81 e6 c0 e6 40 d9 3f 4b 54 44 c1
       0.78216505 -7.2032847 1.697293 -12.270579
000060 62 7d a9 c1 ef 9a bd c0 18 27 21 c2 25 63 9b c1
       -21.186222 -5.925163 -40.288177 -19.42341
000070 ae 94 96 c1 e5 e2 07 c2 6c 42 1d c2 7e 5f b5 c0
       -18.822598 -33.971577 -39.314865 -5.6679068

lstm.bias_hh_l0_reverse f4 [32]
000000 44 3e 94 c1 68 36 99 c1 53 53 9d 40 cd b4 bb c1
       -18.530403 -19.151566 4.9164214 -23.463282
000010 2d 8b 22 c1 1c 2a 9a c1 97 e3 15 c2 55 a4 21 c1
       -10.158978 -19.270561 -37.472256 -10.10262
000020 32 8d 1c 3e 76 78 56 3e 05 af a7 3e 9c c0 bc 3d
       0.15288237 0.2094439 0.32750717 0.09216425
000030 d4 05 ae 3d 73 df 69 be 6f ec 25 be 96 4b 41 3e
       0.084972054 -0.22839145 -0.16203474 0.1887649
000040 7e 39 af bf 6a 7c 27 c0 9c 28 27 41 23 de 4c 40
       -1.368942 -2.6169686 10.447414 3.2010581
000050 18 97 1b 3f cf 48 e9 c0 09 3a c3 3f d6 c9 49 c1
       0.60777426 -7.290138 1.5252086 -12.611776
000060 83 58 a7 c1 5b d1 c6 c0 9c 59 21 c2 6d 06 9f c1
       -20.918219 -6.213056 -40.33751 -19.878138
000070 c2 84 99 c1 1f d0 08 c2 50 e5 1b c2 42 cf b8 c0
       -19.189823 -34.203243 -38.973938 -5.7753

hidden2tag.weight f4 [878, 16]
000000 ee ed 3d c0 af 63 94 40 c7 f3 e9 3f 26 52 0f 41
       -2.967647 4.6371684 1.827752 8.957556
000010 90 90 86 bf 2e f6 11 c0 ec ee fc bf 31 47 5d c0
       -1.0512867 -2.2806506 -1.9760413 -3.4574702
000020 78 07 08 c0 e4 fa b7 40 97 bf 89 40 61 70 50 41
       -2.1254559 5.7493763 4.3046374 13.027436
000030 5e 48 da c0 b5 67 e8 40 98 79 b6 40 0e c6 ee 40
       -6.821334 7.2626595 5.702343 7.4616766
000040 af 30 89 c1 de d5 dc 41 f8 81 6d 41 7e 0e bb 41
       -17.148771 27.604427 14.844231 23.382076
000050 17 87 88 c1 dd 99 40 41 bd 67 7e c1 2b 27 b9 c1
       -17.065962 12.037564 -15.900327 -23.144125
000060 79 83 b0 bf 48 89 29 41 51 92 4c 41 04 17 e3 41
       -1.3790122 10.596016 12.785722 28.386238
000070 fb 25 ab c0 ca 6b 99 41 e5 11 bf 3e 45 6d 8b c1
       -5.3483863 19.177631 0.3731834 -17.428354
000080 12 9f 9b c1 ec 0f 50 41 6b 38 28 41 55 05 ad 41
       -19.452671 13.003887 10.513774 21.627604
000090 66 c1 cd c0 19 b2 46 bf d6 00 88 c1 8d d5 65 c1
       -6.429858 -0.77615505 -17.000408 -14.364636
0000a0 39 31 38 c1 1e be a3 41 d8 e2 41 41 2b b6 eb 41
       -11.512017 20.46783 12.117882 29.46395
0000b0 13 27 fd c0 fd f6 b7 41 5f b7 cb 40 91 24 82 40
       -7.91102 22.9956 6.366134 4.0669637
0000c0 27 9a f5 c1 36 d0 5d 41 dc bf 9f 41 cd 1a 90 41
       -30.70027 13.863333 19.968681 18.013086
0000d0 52 e1 26 c1 15 b9 07 c0 5a 99 31 c1 61 e6 30 c1
       -10.43001 -2.1206715 -11.099939 -11.056245
0000e0 9c 37 fd c0 b0 05 9d 41 60 d0 0c bf d8 ab e7 41
       -7.9130383 19.627777 -0.55005455 28.958908
0000f0 29 96 1e 40 53 30 52 41 2d 23 62 c1 1c 24 fc 41
       2.477915 13.136798 -14.133588 31.517632
000100 6f a6 97 c1 03 e0 2e 41 1f d7 f9 40 12 65 ae 41
       -18.956266 10.92969 7.80751 21.79935
000110 59 e3 d7 c0 a9 5b 89 c0 09 6d 23 c1 f8 6a 76 c1
       -6.7465024 -4.292439 -10.21412 -15.401115
000120 14 00 f8 c0 56 38 a3 41 7c 7c e1 41 28 82 b2 41
       -7.7500095 20.402508 28.185783 22.313553
000130 8d 52 63 c1 c2 c0 ce 41 a6 32 94 42 ef 41 11 c1
       -14.207654 25.84412 74.09892 -9.078597
000140 09 42 01 c2 fc 74 d4 41 2f c8 34 41 9d 80 a4 41
       -32.314487 26.557121 11.298873 20.5628
000150 6e 05 b7 c1 2a 22 b2 41 c4 88 be c0 93 ab 2d c1
       -22.877651 22.266682 -5.954195 -10.854388
000160 94 70 97 c1 c7 ad 8c 41 d1 78 b0 41 7d 20 cc 41
       -18.92997 17.584852 22.058992 25.515863
000170 fe 7b 60 41 29 a8 93 40 68 8f 03 c1 99 bc 88 41
       14.030272 4.6142774 -8.222511 17.092089
000180 a0 cf 98 c1 5c 1d 52 41 d3 7f 1b 41 a5 72 ad 41
       -19.10138 13.132168 9.718707 21.680979
000190 c8 46 86 c0 49 2b 8d 40 b0 f2 83 c1 ec 62 67 c1
       -4.1961403 4.411534 -16.4935 -14.461651
0001a0 f2 90 43 c1 bc 1e a4 41 ad 56 66 41 f7 a7 eb 41
       -12.222887 20.515007 14.396161 29.457014
0001b0 42 53 00 c1 b7 c3 c2 41 b6 2f 80 41 0b a8 2e 40
       -8.020327 24.345564 16.023296 2.7290065
0001c0 ea 01 94 c1 8b 65 d5 40 cf 96 a1 40 11 c4 a6 41
       -18.500935 6.6686454 5.0496593 20.845736
0001d0 d3 06 b1 c0 dd 90 21 41 a7 2e 43 c1 cb 89 66 c1
       -5.532083 10.097867 -12.19889 -14.408641
0001e0 a7 a8 5a c1 0a 1a 7f 41 a0 b0 bf 41 24 32 9e 41
       -13.666175 15.943857 23.961243 19.774483
0001f0 df e4 d5 c0 5a c7 bb 41 17 a9 a2 40 f2 bb 76 40
       -6.6841884 23.47234 5.083141 3.8552213
000200 32 6e 98 c1 67 8b 4c 41 3f 41 27 41 62 74 a7 41
       -19.053806 12.784034 10.453429 20.931828
000210 b2 37 71 c0 f4 9e 19 40 4b 74 89 c1 93 4d 66 c1
       -3.7690244 2.4003267 -17.181784 -14.393939
000220 95 5f 33 c1 c1 13 a4 41 83 c7 4c 41 81 80 e9 41
       -11.210835 20.509645 12.798709 29.187746
000230 63 1a f5 c0 89 14 c3 41 81 3b e0 40 93 96 2a 40
       -7.659471 24.385027 7.0072637 2.6654403
000240 9a fe 5a c1 b8 49 4c 41 a2 1a a7 41 a4 62 a4 41
       -13.687159 12.767998 20.888004 20.548164
000250 c1 aa 83 c0 4b 38 96 c0 0a 66 9b c1 2f 55 66 c1
       -4.114594 -4.6943717 -19.424824 -14.395797
000260 16 c2 09 c1 c2 b1 a3 41 61 4f 1d bf 5a fb 6d 41
       -8.609884 20.461796 -0.6144925 14.873865
000270 c0 cd 07 c1 19 33 bf 41 9d fd 03 41 23 02 6c be
       -8.487732 23.89995 8.249417 -0.2304769
000280 ac f8 72 c1 87 73 84 41 8e 6b fd 41 22 21 89 41
       -15.185711 16.55641 31.677517 17.141178
000290 04 60 a4 3f e4 b6 c5 40 d2 8b 22 c2 aa 0a 98 c0
       1.2841802 6.1785755 -40.636543 -4.751302
0002a0 40 09 f5 bf 85 7d 68 41 44 db a4 c0 f8 61 92 41
       -1.9143448 14.530644 -5.151766 18.297836
0002b0 ec 65 1b c1 74 a0 c2 41 1f bf 1c 41 27 cc 7d c1
       -9.712383 24.328346 9.79666 -15.862342
0002c0 cd fb 9b c1 5f 64 58 41 42 fe 39 41 06 3a aa 41
       -19.49795 13.524505 11.624575 21.278332
0002d0 32 12 87 c0 36 0f 96 40 7c 85 83 c1 96 96 64 c1
       -4.220971 4.689357 -16.440178 -14.286764
0002e0 f8 fd 3d c1 28 de 8c 41 1a 71 54 41 1b 9e ea 41
       -11.874504 17.608475 13.277613 29.3272
0002f0 e4 3a 00 c1 b7 11 c3 41 63 f0 68 41 f5 d9 30 40
       -8.014378 24.38365 14.558688 2.763303
000300 72 13 11 c2 78 a5 f3 40 3d 30 15 41 f6 0f 04 41
       -36.26899 7.613949 9.324277 8.253897
000310 32 4b 20 c1 c1 99 96 40 2d 22 87 c1 a8 a0 97 c1
       -10.018358 4.706269 -16.891687 -18.953445
000320 92 0b a5 c0 e8 71 e7 41 8c ea fc 40 c4 17 ae 41
       -5.1576624 28.930618 7.903631 21.761604
000330 b6 31 14 c1 13 1c c7 41 15 29 20 42 f7 33 18 41
       -9.262136 24.888708 40.04012 9.512687
000340 b4 dd c2 c1 6d 87 5c 41 9e f6 06 41 e4 8e 51 41
       -24.358253 13.783063 8.435209 13.097385
000350 b4 54 e8 c0 00 d9 d0 40 1f f9 1e c1 10 10 57 c1
       -7.2603397 6.5264893 -9.935821 -13.4414215
000360 99 a9 45 c1 26 b9 a9 41 0d 94 dc 41 02 d2 aa 41
       -12.353906 21.215405 27.57229 21.352543
000370 05 48 42 c1 26 aa db 41 fc 69 81 42 bb 9b 0e c0
       -12.142583 27.45808 64.707 -2.228255
000380 55 4c 7c c1 81 f4 8a 41 26 88 f0 40 d2 70 e4 41
       -15.768636 17.369387 7.5166197 28.555088
000390 83 a7 bd c0 c7 4a ae 40 bf 68 14 40 b4 c0 4a c1
       -5.926698 5.446628 2.3188932 -12.672047
0003a0 50 a9 bd 3f a9 8f a4 41 68 bb 3a 41 8f f6 c9 41
       1.4817295 20.570147 11.6707535 25.24539
0003b0 19 07 53 c1 ef a7 b5 41 91 6d e5 40 bd 0b 01 41
       -13.189233 22.706999 7.169625 8.065366
0003c0 a3 9f 88 c1 d7 f7 8d 41 61 92 54 41 d5 a8 cb 41
       -17.077948 17.746016 13.285737 25.457438
0003d0 d4 5c 83 c0 c3 2d 17 40 ee 37 0e c1 9b 3a 67 c1
       -4.1050816 2.362168 -8.888655 -14.451808
0003e0 65 0a 61 c1 c2 d1 a7 41 bc 97 84 41 4e 7f 08 42
       -14.065038 20.97742 16.57409 34.12432
0003f0 d5 71 b0 c0 e2 8d c2 41 c0 61 4e 41 de 2d e7 3f
       -5.5138955 24.319279 12.898865 1.8060873
