model/rnn_model/model2.pth (torch, 76996 bytes, 11 tensors)

word_embeddings.weight f4 [301, 8]
00000000: 2a72 85bf dac3 6dc0 2ab6 8ebf 90fd 1cc1
00000010: 2159 81be 8eb7 eebe 6f00 bb40 cfa1 71c0
00000020: c13c 7441 7239 2740 cb02 c140 4a3f b140
00000030: 4822 df40 edfc ddc1 2967 8b41 920b a941
00000040: fb74 7ec0 8aaa a0c1 1a9b b7c0 0b3a c141
00000050: 9936 5c41 d1e9 853e e836 1dc1 35f4 6941
00000060: 2e99 a241 fead e93e 78f6 5041 ef82 80c0
00000070: adcb 8941 61ff 7241 5247 0d40 e2ff 9f41
00000080: 1f4d 27c1 2686 4b41 17a2 5140 dd0f 9641
00000090: 8d95 1b3f 9094 d541 be1f 69c1 d4aa 4540
000000a0: f6c1 5840 9b5c 8dc0 b9d1 c1c1 d6d2 c241
000000b0: b2e1 82c1 a8b0 8640 93f1 b03f c2aa 10c0
000000c0: fc22 1440 71c1 4941 cdb9 a5bf 1848 47c1
000000d0: d01e 5c41 2a95 8dbf 1fb9 c33e 8d03 64c1
000000e0: 5cd0 9a40 0e93 d641 4c90 0341 67c7 ce3f
000000f0: 921a 5141 405c 1141 904d ccc0 7ae0 56c1
00000100: 1a25 4741 4986 d33f 4469 ddbf 3011 b040
00000110: 7082 d23f c7d5 c540 98a3 a73f 08ee d9c1
00000120: 7947 2ac0 4265 2441 1e0e 59c1 3d2f ca40
00000130: f06a 9041 d2b5 bc41 deea 0641 b9bd 60c1
00000140: 714c 0840 7510 ec40 f9f5 dabf ec78 1640
00000150: fe5a d7c0 ffe7 31c2 2bc6 4041 13f1 9441
00000160: 2969 1a41 3631 ccbf 9c6e a6c1 4e63 a141
00000170: f606 4a41 fbb4 4ec1 219f a840 42ef 9341
00000180: 8fd8 2ec1 c1f4 3ec1 91a4 3940 c614 6bc1
00000190: f87a 0341 1c80 b6c1 f1b5 9140 fb5b 653f
000001a0: d22b 383f 90fe 4c41 ce8a 8bc0 34a8 5740
000001b0: 25ee 1dc0 8048 ae41 cff8 8641 fcf6 1b41
000001c0: 58e1 dac0 7683 1fbf 05b0 79c1 1e00 143f
000001d0: c353 aac0 a90c 6440 0edf 3041 4e5f 83c0
000001e0: 98bf 1640 9422 9641 41be 8240 b0e8 5441
000001f0: c72e 073f 3eee 69c0 75d3 f7c0 3fd5 e13f
00000200: 8836 1941 4163 8541 fe45 8340 d483 a141
00000210: b1b0 06c1 0ae8 81c1 88d9 cfc1 be55 a340
00000220: 7b5a 8841 6aff 92c0 2979 53c0 d41c 83bf
00000230: ff99 9441 f0a5 e2c0 95a5 11bf 1d2f 7441
00000240: f13d 2ac1 017f a9c1 3631 45c1 6201 32c1
00000250: 7749 3e3f 5949 48bf eba3 7fbe 298b a241
00000260: 0c2c 8f41 ab41 9041 43da 65c0 7ef3 ec41
00000270: d208 c841 3709 1841 e3b2 cfbe b9c8 a040
00000280: d8c6 85c0 c744 8741 3919 5141 d072 b840
00000290: f7a8 3d3f 5459 53bf 4e6c 8cc0 506d a441
000002a0: 6009 2fc1 b877 45c1 e6db a0c0 02b7 71c1
000002b0: c4bf 72c0 d551 18bd d6a3 4d40 8686 7240
000002c0: 068b 71c1 ac26 5c40 378e 52c0 dfef 6241
000002d0: 1287 55c0 9615 8e41 8f77 66c1 741c 7941
000002e0: cb28 eac1 33b2 8240 66ad 9541 ed03 b440
000002f0: 3de3 6bc1 20de dec0 7961 88c0 b941 e041
00000300: 907b de40 a158 aec0 c10b 8d41 7bd1 6941
00000310: c5c9 a341 3e3d 47c0 a532 28c1 b0f0 3dc1
00000320: 6971 ddbd 1802 2d41 7ccc 8741 ec4e 893f
00000330: 0d9c d741 fa1f f3be 374a 1741 79d5 9c40
00000340: ef26 d740 33bf 95c0 b786 8cc0 6fbf c8be
00000350: fcaf e941 5e95 bd3f 64e6 f0c0 6b62 d2c0
00000360: 6123 363f c820 16c1 b3dc 2fc0 4a78 39c1
00000370: e579 1940 4ffd 1ac1 ea86 7cc1 a19b fd40
00000380: c0cb a741 8f0d aa41 cd6a 25c1 f127 0341
00000390: 9f74 c0c0 6b69 bd40 7211 2ac1 89f2 16c1
000003a0: 844c d241 b4e0 ca3f 0f35 5141 125e 81c0
000003b0: e0e9 fc40 fa5e 493d ed48 34c1 1268 8ec0
000003c0: e983 5241 5843 66c0 68bd df40 be8b bd40
000003d0: ede8 a640 00d7 78c1 6641 d2bf af3e 4941
000003e0: ea64 fe3f aa94 b241 1c2f 9740 6ddd bc40
000003f0: 40c3 e8c0 9cf5 1f41 a0cf f1c0 fda3 2641
-1.0425465 -3.7150788 -1.1149342 -9.811905 -0.25263312 -0.46624416 5.843803 -3.775501
15.2648325 2.6128812 6.031591 5.5389757 6.9729347 -27.748499 17.425371 21.13065
-3.97589 -20.083271 -5.7376833 24.153341 13.7633295 0.2615495 -9.825905 14.622121
20.324795 0.45640558 13.060173 -4.015983 17.224451 15.187348 2.207478 19.999943
-10.456328 12.720251 3.2755182 18.757746 0.6077507 26.69754 -14.57025 3.0885515
3.3868384 -4.4175544 -24.227404 24.352947 -16.360203 4.2090645 1.3823723 -2.2604222
2.3146353 12.609727 -1.2947327 -12.455101 13.757523 -1.1061146 0.38227174 -14.250867
4.8379345 26.821804 8.222729 1.6154603 13.068987 9.085022 -6.384468 -13.429804
12.446558 1.6525356 -1.729775 5.502098 1.6446056 6.182346 1.30968 -27.241226
-2.6606123 10.274721 -13.565947 6.3182664 18.052216 23.58878 8.432341 -14.046319
2.1296656 7.377009 -1.7106315 2.3511305 -6.7298574 -44.47656 12.048381 18.617712
9.650674 -1.5952518 -20.804008 20.173489 12.626699 -12.919185 5.269425 18.491825
-10.927871 -11.934754 2.9006693 -14.692572 8.217522 -22.812553 4.5534596 0.89593476
0.71941864 12.812149 -4.360694 3.3696413 -2.4676602 21.7854 16.871489 9.747799
-6.840008 -0.6230997 -15.6054735 0.5781268 -5.322725 3.5632727 11.054457 -4.105384
2.355444 18.766884 4.0857244 13.306808 0.5280575 -3.6551661 -7.7445626 1.7643203
9.575813 16.673464 4.102294 20.18937 -8.418138 -16.2383 -25.981216 5.1042166
17.04418 -4.5936785 -3.30427 -1.0243173 18.575193 -7.082756 -0.56893283 15.261502
-10.640122 -21.187014 -12.324514 -11.125338 0.7433085 -0.7823692 -0.24964873 20.31795
17.896507 18.032064 -3.5914466 29.618893 25.004307 9.50225 -0.40566167 5.0245023
-4.180523 16.908583 13.068658 5.764015 0.74085945 -0.8255818 -4.388221 20.553375
-10.939789 -12.341728 -5.026843 -15.10718 -3.7929544 -0.037187416 3.2131248 3.7894607
-15.096441 3.4398603 -3.28993 14.183562 -3.336369 17.76054 -14.404189 15.569447
-29.269918 4.084253 18.709667 5.625479 -14.742978 -6.964615 -4.2618985 28.032091
6.9525833 -5.448319 17.63074 14.613643 20.47352 -3.113113 -10.512364 -11.871262
-0.10812647 10.813011 16.974846 1.072721 26.951197 -0.47485334 9.455619 4.9010587
6.7235026 -4.6795897 -4.3914447 -0.39208552 29.21093 1.4811208 -7.528124 -6.574514
0.71147734 -9.383003 -2.7478454 -11.591867 2.3980649 -9.686843 -15.782938 7.9252477
20.974487 21.25662 -10.338574 8.197251 -6.014236 5.9191184 -10.629259 -9.434213
26.287361 1.5849824 13.075454 -4.042733 7.903549 0.049162842 -11.267804 -4.450204
13.157205 -3.5978603 6.991871 5.9233084 5.2159333 -15.55249 -1.6426208 12.577804
1.9874547 22.32259 4.7245007 5.9020295 -7.273834 9.997463 -7.556595 10.415036

lstm.weight_ih_l0 f4 [32, 8]
00000000: 3d88 fabf fd6b b740 1649 80c0 7008 3341
00000010: 1f78 8741 e861 f340 1ce3 96c1 f3c1 f241
00000020: d7b9 c240 620e ea41 abf0 44be 52f5 75c1
00000030: 8269 d041 ff0b 56c1 0f4c b53f 311c 9d41
00000040: 3f16 2241 4205 bec1 7d0c 8b41 6e3f 6841
00000050: 643f 7141 be9a 70c1 8ced c141 025f 0240
00000060: fcb4 7341 813e 5e41 884b 42c1 8a8f 9041
00000070: 991c 8541 4ded dfbf 2f3b 5a40 4e87 27c1
00000080: 9ade 7241 f2f0 31c1 da84 a1c1 507e d341
00000090: 84c9 2341 0bd4 8c41 07b5 d5c1 dcc1 79c1
000000a0: 46c9 05c1 2b74 dfc0 affb 2741 b888 dec0
000000b0: 58b8 ce40 25cf 88c1 4486 5e41 237e f741
000000c0: 7d95 4841 1a53 883f 24f6 e7c1 2d8f a63f
000000d0: e9bc b1c0 d151 9c41 bcaf 4c41 b543 ca40
000000e0: 314f 01c2 c8f4 75c1 1e60 21c1 a87d 2c41
000000f0: 7c4c 8cc1 95c5 adc1 a45a 86c1 f68a e441
00000100: a791 57be 2467 ddbd 5ece 9fbe 7415 a5be
00000110: bf5c b13e 17a9 2cbe e91c aa3e 79eb 9e3e
00000120: 08d1 453d ef15 81be de37 6a3e 1ca1 b53d
00000130: 66f7 6d3e d483 f1bd a03e 6f3d 4059 be3d
00000140: 86e7 553e ae3a 363e 6042 c53c 505c a3bc
00000150: 0a48 493e 6add 213e e0ee 91bd fcd6 54be
00000160: 1e8c 073e 935d 69be 6edb 1f3e c086 c93d
00000170: 17b4 22be 9820 143d 255c 37be 9585 983e
00000180: 9008 17bd 8dfa a7be a90b 953e ecef be3d
00000190: 86d3 203e a80b 1dbd 6d72 983e ea02 9fbe
000001a0: 00ea 103c 1c45 abbe 4776 11be 9aab 793e
000001b0: 9611 f1bd 3a90 693e e861 553d 889f 95be
000001c0: 77b4 aebe b011 843c 0054 8bbb 73bb 9b3e
000001d0: d0a4 343d 8ef3 4c3e e306 8d3e 18ca 3f3d
000001e0: d82c fbbd 7128 19be d7bd 833e daba 753e
000001f0: a387 933e 2d77 893e 6aac 623e 9887 5c3d
00000200: 32c0 cec0 5485 56bf e82e 70c1 9788 29c1
00000210: 819b fcc0 738f 7440 9af3 11c1 eb1b 75c1
00000220: 46e0 01c0 5a24 2240 10ba 8fc0 7a0b 2a40
00000230: adf2 7f41 c8ab 4d41 3ad5 4341 cf5c 81c1
00000240: 0ed1 7141 8608 bf40 21ac 91c0 fef2 25c1
00000250: 1b32 b3c1 e3ad a6c0 8d64 82c1 aaf9 cec0
00000260: b716 f63f 742c 8bc1 fee0 5741 b05e ca3e
00000270: 9be6 3ac0 1dd0 b93f ef5d 1141 cb4c 6340
00000280: 607b 0cc2 444e 0041 5e77 9bc0 5b4e 89bf
00000290: 07b5 4b41 6c16 7e41 2283 3ec0 5496 adc0
000002a0: a8d9 6641 3720 6740 e78b 71c1 e7e1 6641
000002b0: 910f d43f 38a8 15c1 5653 5040 e078 31c1
000002c0: a7e3 2741 f687 fec0 11ad c0c0 ca7f d6c0
000002d0: b258 55c1 0685 3c41 81ff 9541 2997 8ec1
000002e0: db10 a8c0 9773 893f f024 54c0 a202 4541
000002f0: 0dd7 63c1 3460 5a3f 3116 a0bf 1b23 e0c1
00000300: f387 8ec0 24c7 a1c1 b16e d141 f1d9 d43f
00000310: 8026 1941 3aa5 a8c0 81bc cec0 aa98 7440
00000320: e4db 7941 0a0e abc1 6265 16c2 501a 8d41
00000330: b1ec 52c1 98f8 86c1 80b9 18c1 8fe2 ae40
00000340: 3d17 47c0 2088 2c41 b8e3 5c40 2dd1 6b41
00000350: cb03 0e41 d294 3241 b0d5 aac1 b075 7541
00000360: 17b3 26c0 ba1c 8640 5046 8140 094d 50c0
00000370: 2e31 8240 c625 39c1 1557 17c2 e035 b040
00000380: 1ae5 01c1 ffd2 283f 2116 ca41 a21f 1941
00000390: 2261 f7bf 0187 0c40 4a22 7cc1 93bf e1c1
000003a0: 3247 30c1 9d05 5741 eb61 7ec1 c4da 0d42
000003b0: be81 20c1 f357 4841 a63c 15c1 ed65 1241
000003c0: 1cd2 dac0 31ff a341 3d39 8e41 74a0 2241
000003d0: 0f16 dbc0 b15e b4c0 b561 68c1 1307 2bc1
000003e0: e76d 4fc0 be5f e941 ac97 8740 9e56 0041
000003f0: d2b7 de41 3efe 1cc1 5473 3e41 b65c b73f
-1.9572827 5.731932 -4.0089216 11.18956 16.933653 7.6057014 -18.860893 30.344702
6.0851855 29.257023 -0.19232433 -15.372393 26.051517 -13.377929 1.4163836 19.638765
10.130431 -23.752567 17.381098 14.515486 15.077976 -15.037779 24.24099 2.0370488
15.231686 13.89026 -12.14344 18.070087 16.638964 -1.7494293 3.4098623 -10.470533
15.179346 -11.121325 -20.189869 26.436676 10.236698 17.603537 -26.713392 -15.609829
-8.361639 -6.9829307 10.498946 -6.9541893 6.460003 -17.101145 13.90778 30.93659
12.536496 1.065036 -28.995186 1.3012444 -5.5543103 19.53995 12.792904 6.320765
-32.327335 -15.372261 -10.085966 10.780678 -17.537346 -21.721476 -16.794258 28.567852
-0.21051656 -0.10810688 -0.31212133 -0.3224293 0.34641072 -0.16861378 0.33225182 0.31039026
0.04829505 -0.25212047 0.22872874 0.0886862 0.23238906 -0.11792722 0.058409333 0.09294367
0.208891 0.17795822 0.024079502 -0.019941479 0.19656387 0.15807119 -0.0712564 -0.20785135
0.13237044 -0.22789602 0.1561105 0.09840155 -0.15889011 0.036163896 -0.17906244 0.29789415
-0.0368734 -0.32808343 0.29110458 0.09323105 0.1570569 -0.038341194 0.297748 -0.3105691
0.008844852 -0.33451164 -0.14205275 0.24381867 -0.117709324 0.22808924 0.052095324 -0.29223275
-0.3412206 0.016121715 -0.004251957 0.3041645 0.04410249 0.20014784 0.27544317 0.04682359
-0.12264413 -0.14956833 0.25730774 0.2399706 0.2881442 0.26848736 0.22136083 0.05384025
-6.4609613 -0.8379719 -15.011452 -10.595847 -7.8939824 3.8212554 -9.121973 -15.319316
-2.0293136 2.5334687 -4.4914627 2.6569505 15.996747 12.854439 12.239557 -16.170317
15.113539 5.9697905 -4.552262 -10.371824 -22.399466 -5.2087264 -16.299097 -6.4679766
1.9225682 -17.396706 13.49243 0.39525366 -2.920325 1.4516636 9.085433 3.551562
-35.120483 8.019108 -4.858321 -1.0727037 12.731696 15.880474 -2.9767537 -5.4246006
14.428139 3.6113412 -15.096656 14.430152 1.656725 -9.353569 3.2550864 -11.0920105
10.493079 -7.954097 -6.0211263 -6.7030993 -13.334154 11.782476 18.749758 -17.823809
-5.2520576 1.07384 -3.3147545 12.313143 -14.240003 0.85303044 -1.2506772 -28.017141
-4.4540954 -20.222237 26.179049 1.662901 9.571899 -5.2701693 -6.4605107 3.8218179
15.616184 -21.381855 -37.599007 17.637848 -13.182786 -16.871384 -9.545288 5.465156
-3.1107934 10.783234 3.4513988 14.738568 8.875926 11.161333 -21.35434 15.341232
-2.6046808 4.1910067 4.039833 -3.2547019 4.0685034 -11.571722 -37.83504 5.5065765
-8.118433 0.65946954 25.260805 9.570223 -1.9326518 2.19574 -15.758371 -28.218542
-11.017382 13.43887 -15.898906 35.46364 -10.031675 12.521472 -9.327307 9.149884
-6.838148 20.499605 17.777948 10.164173 -6.8464427 -5.636559 -14.523854 -10.689227
-3.241083 29.17175 4.2372646 8.021147 27.839756 -9.812071 11.903156 1.4325168

lstm.weight_hh_l0 f4 [32, 8]
00000000: 2bb5 9a3e 2938 78be 1cb8 ce3d 9216 583e
00000010: 72da 0a3e df54 42be 181d 3bbd b04f 93bc
00000020: e059 f83d 9c68 95be 925d 7b3e 9272 25be
00000030: 9c3e 9ebe 86f6 503e 482a d0bd 006c 943c
00000040: fb15 ac3e 1890 cdbd f045 9bbc e0de 833d
00000050: c8cb 42bd f87f af3d c536 9abe 40cb ddbb
00000060: 7843 ce3d 0076 133c 8bd5 ad3e c535 a13e
00000070: b9bc 2cbe f68e e9bd c698 9bbe 8173 9e3e
00000080: f13e b3be d1f5 5bbe 71f6 97be 30bd 8c3d
00000090: a8ff 023d 907f 013d a869 7b3d 821f 9abe
000000a0: 849e c2bd 505f 1cbd bc23 dfbd efb0 4ebe
000000b0: 633c a0be af9c a03e 3a95 0ebe 62b0 7abe
000000c0: 1cb2 73be a0c9 1ebd 6291 a9be effa a1be
000000d0: 01d4 a13e cf78 b03e 2d6b 903e 60d2 2f3c
000000e0: 5c0f 2ebe a94d 28be bb51 5abe d2c8 88be
000000f0: a051 093c e530 10be 394c 89be 14f4 0cbe
00000100: 364d 4c3e 001b 27bd 043c 823d 5605 543e
00000110: 3eb4 303e 8c1a ccbd 458f 973e 3794 07be
00000120: 45cb 933e 07d0 9d3e 5cd9 6dbe 4820 9dbd
00000130: 30e7 a3bc 1a35 743e f896 13bd 0b0d 4bbe
00000140: ac08 863d 410f 96be 40c2 62be c108 04be
00000150: c0ce 9dbd e555 933e 3533 833e fd55 913e
00000160: d890 17bd 5a5d 4f3e 282b 973d 59c8 803e
00000170: 909e 8bbe aa6a 0d3e 7857 94be 94e6 f83d
00000180: 84e4 8d3d be64 aabe 78ff 56bd 8b6e adbe
00000190: 9979 81be 8093 83bd ccf0 79be 30f5 6cbd
000001a0: fa06 6a3e d814 7fbe cded 15be 5d07 9ebe
000001b0: 1d3d b13e dc68 e53d 225d 8cbe 269e 5fbe
000001c0: f82a b23d 0bc4 b3be 806d 933d 1d09 b2be
000001d0: 531d ae3e 7539 9a3e 20a6 5c3c 2761 913e
000001e0: 1712 aabe 1a4d 8bbe e028 623c 3ec8 7b3e
000001f0: e609 6abe 1504 9fbe 9a6a a2be 6421 c1bd
00000200: 7bc7 aebe bf5d 42be c083 083d 10ed 5dbd
00000210: a234 483e 4e57 a4be 856f 923e c86b 8bbd
00000220: 2490 7abe f897 b0bd 6377 873e abc3 b43e
00000230: 5fbd b3be 4d40 b03e 357a 813e 9f35 a93e
00000240: 75d0 32be d022 05be 2303 983e 113f 963e
00000250: a8c9 45bd 18b0 8f3d de2a 5c3e 00d2 543c
00000260: b77c 913e 10d6 dd3c 1a5e 96be e684 5ebe
00000270: 04c9 d43d ffa2 833e 2c6f 85bd 6b47 ac3e
00000280: a03d ffbc 80b3 96bd e701 abbe fcbb 69be
00000290: 03e4 ae3e 1e69 323e c0a0 80bd 8fcf ac3e
000002a0: f096 ed3d 987f 7cbd 62e8 a3be 2920 963e
000002b0: 81e0 b43e 07bc 50be 3e1b 7dbe 88fa 67bd
000002c0: 01fc 68be 1011 803c 821f 6d3e e53c 9c3e
000002d0: 502a 823c b095 52bd 102d 9fbe c65b 223e
000002e0: 5d7d 97be e010 b8bc 9b52 acbe d076 26bd
000002f0: 58b1 1a3d 85db 64be ec7d 833d 646c 833d
00000300: eb9c 27be 73c8 38be 4d5b b4be acb2 e9bd
00000310: 5a23 5c3e 0024 3ebd cc7b 5fbe f058 b1bd
00000320: f1c7 94be 694f 803e 6d01 803e c02c a1bb
00000330: 23fc a63e 6292 0dbe 35a1 53be 500f 96bc
00000340: 2ed0 3e3e 6036 fe3d 000d 88ba 26e7 7e3e
00000350: d030 93bc 8a5e 1a3e 961c 89be 30eb edbc
00000360: 96dc 5fbe b833 52bd 96ae 87be e606 5e3e
00000370: bc14 aabe 7064 3ebd 5321 82be 8064 03bb
00000380: 6f85 9e3e 8c88 9bbd da5a 80be 546c 09be
00000390: 2c29 8bbd 689c 253d 737a a53e 3eb1 6dbe
000003a0: fd27 6dbe 5199 a6be fda3 29be 4b43 10be
000003b0: 08a7 04bd ba15 633e 0f3b 8a3e 02a0 123e
000003c0: 2061 4a3c 34f6 f93d 7c19 8cbe cc51 b2be
000003d0: 04b6 b6bd 1818 aabd 3752 a63e 2038 06bc
000003e0: 5e45 133e 21f7 0ebe b0b6 b1be 68ba 48bd
000003f0: 3087 07be 530f ad3e 00ee 453d 47c3 25be
0.30216345 -0.24240173 0.1009371 0.2110236 0.13559893 -0.18977688 -0.045682043 -0.017982334
0.12126517 -0.29181373 0.24547413 -0.16156986 -0.30907142 0.20406541 -0.101643145 0.018117905
0.3361052 -0.10037249 -0.018954247 0.064389944 -0.047557622 0.0856933 -0.3011991 -0.006768614
0.100714624 0.009000301 0.33951983 0.31486335 -0.16868867 -0.11404221 -0.30389994 0.30947497
-0.35008958 -0.2148049 -0.29680207 0.06872022 0.031982094 0.031615794 0.06138006 -0.30102164
-0.09502891 -0.038176835 -0.10895488 -0.20184682 -0.3129607 0.3136954 -0.13924113 -0.24481347
-0.23798412 -0.038766503 -0.3311873 -0.3163676 0.3160706 0.3446717 0.2820677 0.01073131
-0.16998047 -0.16435875 -0.2132024 -0.26715714 0.008381277 -0.14081152 -0.26815966 -0.13764983
0.19951329 -0.040797234 0.06359103 0.2070516 0.17256257 -0.09966001 0.29601493 -0.13240133
0.2886602 0.30822775 -0.23227447 -0.07672173 -0.0200077 0.23848382 -0.036032647 -0.19829194
0.06544623 -0.29308513 -0.22144413 -0.12893964 -0.0770545 0.2877647 0.25625005 0.28385916
-0.03700337 0.20250455 0.07381278 0.25152853 -0.2726941 0.1381022 -0.28972983 0.12153354
0.069283515 -0.33279985 -0.052489728 -0.338734 -0.25288084 -0.06424618 -0.24408263 -0.057851017
0.22854224 -0.24910295 -0.14641495 -0.30864993 0.34616938 0.11201641 -0.27414805 -0.21837673
0.08699602 -0.35110506 0.0719862 -0.34772578 0.34006748 0.3012196 0.013467342 0.28394434
-0.33216926 -0.2720726 0.013803691 0.24588105 -0.22855338 -0.31057802 -0.31721956 -0.09430197
-0.34136567 -0.18981074 0.03332877 -0.05418116 0.19551328 -0.32097858 0.28600708 -0.06807667
-0.24469048 -0.08622736 0.26458272 0.35305533 -0.35105416 0.34424058 0.2528855 0.33048722
-0.17462333 -0.13001561 0.29689893 0.2934499 -0.048288018 0.07016009 0.21500728 0.012989521
0.28415462 0.027079612 -0.2936867 -0.21730384 0.10389903 0.25710294 -0.06515345 0.33648238
-0.031157315 -0.07358456 -0.3339989 -0.22825617 0.34158334 0.17422912 -0.06280661 0.33752105
0.11601055 -0.06164512 -0.32013232 0.2932141 0.35327533 -0.20384227 -0.24717423 -0.05663541
-0.22752382 0.015633136 0.2315655 0.3051521 0.015889317 -0.051412284 -0.31089067 0.15855321
-0.29587832 -0.022468984 -0.33656773 -0.040640652 0.037766784 -0.22349365 0.06420502 0.06417158
-0.16368453 -0.18045215 -0.35225907 -0.11411032 0.2149786 -0.04642105 -0.21824569 -0.086595416
-0.29058793 0.25060585 0.25001088 -0.0049186647 0.3261424 -0.13825372 -0.20666964 -0.018317848
0.18634102 0.12412715 -0.0010379851 0.24892864 -0.017967612 0.15075126 -0.26779622 -0.02904281
-0.2186149 -0.051318854 -0.26500386 0.21682319 -0.33218944 -0.046482503 -0.2541605 -0.0020048916
0.30961177 -0.075944036 -0.25069314 -0.1342023 -0.06794962 0.040432364 0.32319984 -0.23212144
-0.23159786 -0.32538846 -0.16566463 -0.1408817 -0.032385856 0.22176257 0.26998183 0.1431885
0.012352258 0.12205163 -0.27363193 -0.3482803 -0.089214355 -0.08305377 0.324846 -0.008192092
0.1438193 -0.1396146 -0.34709692 -0.049005896 -0.13235164 0.33800754 0.048322678 -0.16187774

lstm.bias_ih_l0 f4 [32]
00000000: a12f f03f 8c55 88c1 93e6 19c1 018b 27c2
00000010: 8f14 95c1 86ac 4ec1 45f8 e7c1 ad51 1fc1
00000020: e54d 28be 3f68 a33e c026 9e3b a058 a0be
00000030: ec66 91bd 84bb 3bbe 4264 95be 40ad 85bd
00000040: 012c 93be abf9 01c0 c77f 5fc1 f83e 4fc1
00000050: 9a2f 44c1 3628 5a40 c33b 5840 326f 46c0
00000060: d6c5 49c1 84cc 55c1 39ee d9c1 a884 0dc1
00000070: c80a 9540 6d32 c2c1 79e6 19c2 6e73 dcc1
1.8764535 -17.04177 -9.618793 -41.885746 -18.635038 -12.91712 -28.996225 -9.95744
-0.16435964 0.3191547 0.0048263967 -0.31317616 -0.07099709 -0.1833325 -0.29178053 -0.065271854
-0.2874451 -2.0308635 -13.968696 -12.952873 -12.261621 3.4087043 3.3786476 -3.1005368
-12.6108 -13.362431 -27.24132 -8.844887 4.657566 -24.274622 -38.47507 -27.556362

lstm.bias_hh_l0 f4 [32]
00000000: 5406 df3f 18a4 8bc1 d9ac 1ec1 014a 28c2
00000010: ac01 99c1 0a49 4ec1 b367 eac1 cd11 1fc1
00000020: 3497 803d 5c9c adbd 736e 893e f479 1ebe
00000030: 1895 dabd b37c 8bbe f699 20be 507f f13d
00000040: 2c9b 06bf f3f4 bebf d771 63c1 ef27 52c1
00000050: d09e 45c1 b886 4340 54d8 5940 2d7d 58c0
00000060: 4c16 49c1 44ea 54c1 6973 dbc1 6f7b 0cc1
00000070: 1791 a640 fe6a c5c1 6731 1ac2 02f1 dac1
1.7423806 -17.455124 -9.917199 -42.07227 -19.125816 -12.892832 -29.300634 -9.941846
0.0627884 -0.08477089 0.2684208 -0.15476209 -0.106729686 -0.27243575 -0.15683731 0.11791861
-0.52580523 -1.4918503 -14.215293 -13.134749 -12.351273 3.0550976 3.4038286 -3.3826401
-12.567944 -13.307194 -27.431353 -8.780135 5.205211 -24.677242 -38.548244 -27.36768

lstm.weight_ih_l0_reverse f4 [32, 8]
00000000: 289d a741 ee31 ca40 1454 4240 5b1f f941
00000010: 3af2 6e40 bcde b440 0154 2a40 1059 8941
00000020: 1206 23c0 2ca1 8741 a97e c440 412c 85c0
00000030: aee7 193f faf2 d2c1 30b0 5e41 3a53 8c41
00000040: 8ec0 0ac1 1c97 1141 8b91 0741 c38e ff41
00000050: 5b7b f2c0 4244 79c0 b62b 8cc0 772d de3f
00000060: f9a7 8d41 af05 67c1 ae96 8a41 449c ac41
00000070: 57fc c5c0 9ac5 17c0 c343 a3c1 80be 7141
00000080: ed1e 7ec0 981b d541 fa64 7841 73d8 aec0
00000090: 2f0d 583f 2c96 ca41 52bb dd3d b28a ca40
000000a0: a3d0 e1c0 1c06 7441 6663 ddc0 a741 b3c0
000000b0: 03fe 3fc1 778f 2e41 4d82 ea41 3acb 0140
000000c0: 0442 15c1 8c13 cfc1 1f89 63c1 1741 7ac0
000000d0: 5ba3 70c1 04cc 7bc0 edf4 8640 e019 0c40
000000e0: 64b3 5741 235d fb40 b8d1 e740 fca0 f141
000000f0: f14b 883e 914d ab41 c6dd 4ec1 4fdc 0e41
00000100: 60e0 613c 776f abbe 3eb0 733e 00f3 823d
00000110: b6aa 2c3e 2897 583d d8d4 7cbd dd27 983e
00000120: 40a1 3c3c d283 483e 44a9 11be 208c 193d
00000130: 3126 a7be 56f9 fabd 519e 90be d08e a3bd
00000140: 1052 153e 3002 a9bc 0030 79bc 80a7 11bd
00000150: a8b2 bd3d c83b 083d 136d 83be 87ea 913e
00000160: 4c52 a3bd 1020 723d 7939 07be b888 21bd
00000170: 7369 a03e 7664 503e 38b9 4abe 5fea a33e
00000180: 4db4 20be 933e 4fbe fe63 083e 3622 dabd
00000190: 6991 65be 330f 9a3e 0ca1 92bd c083 55be
000001a0: e9cf 803e b830 e9bd ace2 923d 1051 e2bc
000001b0: ee7d 5a3e 3a87 78be cb79 a83e 0046 4eba
000001c0: 1515 9d3e 5615 6a3e 0964 93be 0022 cfba
000001d0: c812 3fbd 99a5 69be 4c8f 91bd 9a80 013e
000001e0: 8723 af3e 35d3 923e 1d26 a33e f6bb 2e3e
000001f0: 3453 b8bd 6f0e 32be d0b5 3cbd d3ae 28be
00000200: 8733 f740 33ad 77c0 2d07 3fc1 fdaa 02c1
00000210: 8d7e 4dbf f33f 29c1 3092 2dc1 f374 8341
00000220: a766 86c1 b0b8 7d41 ebe6 4ec0 2b70 993f
00000230: 0a5e 66c1 ec5a 72c0 eeb2 8ac1 8726 d3bf
00000240: 48d4 c340 73ae 4941 2e05 aa41 b018 31c0
00000250: 95c2 1441 536a 4ac1 edf5 e1c0 b0e6 d7c0
00000260: 8b69 95c0 bf94 c141 ea3b 9841 f31e 4041
00000270: 8dc7 e5c0 0d0b 9240 f2dd c5be de5e 0ec1
00000280: 2890 0c3d d4e2 0442 00e8 02c1 a3b1 ff40
00000290: b2d4 b53f 32e6 2d40 84e4 7c41 7103 3841
000002a0: dc29 ae41 6881 b140 9cd9 d1bf a304 6a40
000002b0: 95f0 fbc0 62d5 a0c1 4435 47c1 537b b0c0
000002c0: 36f4 0f41 5a1b f8bf d3c4 8740 1634 b240
000002d0: 7a96 f840 5dde 2c41 68e3 5641 c5ba 4c40
000002e0: db08 d1c0 126a 92c1 6f0e c4c1 b422 9bc1
000002f0: 0fad 64c1 3809 ab3e 3b32 9bbe 7d57 5b41
00000300: 6aef ffc1 8c9f 14c1 d449 ab41 5076 1b41
00000310: 9fd6 68c1 b0a3 55c1 9596 96c1 8e86 efbd
00000320: 3a2e bb41 9285 4141 dc11 8440 f588 a641
00000330: 7fbd f5c0 87a5 1bc0 4172 2141 20df 9f40
00000340: 343f c740 74f9 16c1 c5ca 21c0 6697 8d41
00000350: 4e4e aec0 e108 a1c0 db96 c7c1 dd3f be41
00000360: cd95 6440 74eb fec0 13a8 84bf 733d 1bc1
00000370: ff91 18c1 c006 0cc2 3b52 0041 33cb f940
00000380: b064 12c1 4ab4 c6be fb99 3141 f8ec ed41
00000390: 2f9b 4c41 7176 693f 9780 0741 27e4 0542
000003a0: 1e84 0dc1 3305 83c1 6450 7ec1 d213 1a42
000003b0: 0dbe c940 96a2 a840 44c3 963f 5429 8bc1
000003c0: 30c5 b3c0 5928 a241 ba12 8e40 f32e 4241
000003d0: b478 6640 35ed 0041 665a 82c1 56cb ea40
000003e0: 0829 e7c1 fac9 b741 9d3b 8a41 6d39 a73f
000003f0: f958 2941 c743 bd41 1174 08c0 4a48 e8c1
20.951736 6.318595 3.0363817 31.14031 3.7335343 5.6521893 2.6613772 17.168488
-2.5472455 16.953697 6.1404614 -4.161652 0.6011914 -26.36864 13.918015 17.540638
-8.67201 9.099392 8.473033 31.944708 -7.577558 -3.8947911 -4.380336 1.7357625
17.707018 -14.438888 17.323574 21.576302 -6.187053 -2.3714356 -20.408087 15.109009
-3.9706376 26.638474 15.5246525 -5.463922 0.84395117 25.323326 0.10826744 6.3294306
-7.0567183 15.251492 -6.9183836 -5.601764 -11.999515 10.910026 29.313623 2.028029
-9.328617 -25.884544 -14.220977 -3.9102228 -15.039882 -3.9343271 4.217398 2.1890793
13.481297 7.855119 7.2443504 30.203606 0.2662044 21.412874 -12.929144 8.928786
0.013786405 -0.33483478 0.237977 0.06394005 0.16861996 0.05287853 -0.06172642 0.29717913
0.011513054 0.19581535 -0.14224726 0.03748715 -0.32646325 -0.12254588 -0.28245786 -0.07986224
0.14582086 -0.020630926 -0.015209198 -0.03556013 0.092625916 0.033260137 -0.25669155 0.28499243
-0.07974681 0.05911261 -0.13205518 -0.039437026 0.3133045 0.20350823 -0.19797218 0.32014748
-0.1569378 -0.20238714 0.13319394 -0.106510565 -0.22418751 0.3008972 -0.071596235 -0.2085104
0.25158623 -0.113862455 0.071721405 -0.027626544 0.21337101 -0.24270335 0.3290542 -0.0007868707
0.30680147 0.22859702 -0.28787258 -0.001580298 -0.04664877 -0.22817077 -0.0710741 0.12646714
0.34206793 0.28676763 0.31865016 0.17063889 -0.09000245 -0.17388318 -0.046071827 -0.1647294
7.72504 -3.8699462 -11.939252 -8.166745 -0.80271226 -10.578113 -10.84819 16.432104
-16.800123 15.85759 -3.232844 1.1987356 -14.397959 -3.7867994 -17.337368 -1.6496133
6.1196632 12.60509 21.25253 -2.7671318 9.297505 -12.650958 -7.06127 -6.74691
-4.6691337 24.19763 19.029255 12.007556 -7.180609 4.563849 -0.38645893 -8.898161
0.034317166 33.22151 -8.181641 7.990434 1.4205534 2.717175 15.80579 11.50084
21.77044 5.5470467 -1.6394534 3.656533 -7.873118 -20.10419 -12.450504 -5.515054
8.997122 -1.9383347 4.2427764 5.568858 7.7683687 10.804288 13.430519 3.1988995
-6.532331 -18.301792 -24.507048 -19.391945 -14.292251 0.3340547 -0.3031176 13.708859
-31.991901 -9.288952 21.411049 9.716385 -14.552398 -13.352463 -18.823526 -0.11695586
23.397572 12.09511 4.12718 20.816874 -7.679382 -2.431978 10.090394 4.995987
6.226465 -9.435902 -2.528001 17.698925 -5.4470587 -5.032334 -24.94866 23.781183
3.571643 -7.966242 -1.0363792 -9.702502 -9.535644 -35.00659 8.020076 7.8060546
-9.149582 -0.38809425 11.100093 29.740707 12.787887 0.9119635 8.468894 33.472805
-8.844755 -16.377539 -15.894627 38.519356 6.3044496 5.269847 1.177834 -17.39518
-5.6178207 20.269701 4.439786 12.136462 3.6011171 8.057912 -16.29414 7.3373213
-28.895035 22.973621 17.279108 1.30644 10.584222 23.658094 -2.1320841 -29.035297

lstm.weight_hh_l0_reverse f4 [32, 8]
00000000: 54b6 ef3d 8089 493d d875 aabe 40c4 713d
00000010: 42f3 213e b480 92bd a422 89be 2f03 953e
00000020: 4624 6d3e d82b 213d fc8d 86be 805a fe3d
00000030: 2ff1 af3e 9065 98bc caeb 5c3e 1a25 3dbe
00000040: 78a3 f63d b898 0f3d 126d 143e c09c 35bd
00000050: 6028 8bbd 5c00 77be 3c3d cdbd 59d5 8c3e
00000060: c259 20be eff2 abbe c087 d1bb c038 f33d
00000070: 506c a9bd 8181 6fbe 80ab 753b 5462 ccbd
00000080: b623 713e 0c86 c5bd 7e12 793e 06d6 3a3e
00000090: c8b0 5ebe 5d1f 3cbe b073 d33c d4f0 a0bd
000000a0: cd7b 3bbe 84ef 0c3e 042d db3d 8081 53bd
000000b0: 0ad0 203e 4c2b 9f3d 2873 c83d a80b 053d
000000c0: 68b5 a6bd 6212 303e 20b4 643c f57d 833e
000000d0: b81f 9bbd e9c3 b43e e416 e43d b0f9 10bd
000000e0: c642 433e e0cc b2bc 0003 833d 52f3 d9bd
000000f0: 4814 bd3d dcd2 133e 62ce 92be 7085 b93c
00000100: 1078 aebe 40b6 afbb 9a49 283e c088 e53d
00000110: fcee a03d 1201 4b3e 209d 5e3d d169 963e
00000120: 304f d3bd 5cf8 07be 3c9d 58be 2047 0cbc
00000130: 1aeb 1a3e d00d 8bbc 2062 55bc 9a2b efbd
00000140: 2097 b2be 35bb a6be 1a57 073e 69bd 963e
00000150: 5334 88be 2709 8abe 4ad8 43be 7513 0bbe
00000160: 4f62 0fbe 7f3d ae3e a4c4 91be f160 a3be
00000170: c2fb 5b3e 4c81 14be 48af 0e3e e80c 18bd
00000180: 55e5 1ebe 6436 24be 72e3 3e3e 58cc cd3d
00000190: 6822 6a3d 60aa 653c c424 9bbe 52b4 743e
000001a0: eee1 243e 805b 533d 30c6 51bd e512 98be
000001b0: 26a6 023e 8044 0dbc 793e 19be 1cd8 d13d
000001c0: 77ff 9fbe e941 af3e 28ec c4bd dd9d a93e
000001d0: 65dd 923e 1acf 123e 7094 27bd 408c cc3c
000001e0: 982e 92be bc8f fa3d 118e 0ebe 7470 da3d
000001f0: 62a4 023e a3f9 a03e 0a7a 82be 949d b5bd
00000200: 804c 3a3d 48eb c2bd c7fe 42be 5920 55be
00000210: 9296 20be 28f2 edbd 5d18 80be 4137 9f3e
00000220: 4488 9c3d 1552 8f3e 8cf4 f8bd 4c22 92bd
00000230: 4689 783e 6e8a ddbd a5c7 59be 4e85 1a3e
00000240: 2c69 a93d 6e2d 3f3e d469 f23d 30ce f1bc
00000250: c2a1 0c3e f83d fbbd 70ac c6bd 1893 753d
00000260: 60d3 8d3c 0090 333d e427 e53d 57cc b03e
00000270: 8099 d9bb 050d 8abe 144b 92be 84e1 67be
00000280: 081d 7bbd 9657 233e cabe 56be dad9 4c3e
00000290: d012 143e 5edd 333e 0122 933e 5b17 acbe
000002a0: 7209 1c3e a0bf f5bc 90da e0bc c0bc f93b
000002b0: 70e2 98be 9a0b 3c3e b77d 8e3e caa6 b4be
000002c0: dddf 8abe ba42 1c3e 3de6 05be c03d f3bc
000002d0: cc7b aabd 0009 08bb 7301 91be b8c0 f13d
000002e0: 9242 63be 30dc 74bd 3616 5abe 4ec9 a0be
000002f0: 30d8 f93c 0434 6cbe f045 09bd 939d 28be
00000300: f2a9 293e ced8 9fbe 64e8 23be b765 8c3e
00000310: 3ac0 9abe 56e3 403e 1003 c03c edb0 8d3e
00000320: a7c1 a03e 108c 353d 7fda b03e 2452 8abd
00000330: 8616 693e 2995 8ebe e884 1c3d 8632 d5bd
00000340: 5a22 95be eec7 73be 8a3e 393e 0430 de3d
00000350: 002f e43c 20fc 27bc fe9c 7ebe f0d2 adbd
00000360: 2f81 843e 8d1c aabe 30ea e43d 6c65 57be
00000370: 7e5f 1a3e 78b3 9b3d 80d5 023b 672e 6ebe
00000380: 0b57 9abe a80c d43d 8cd4 98be 163f afbe
00000390: a86f 013d 5642 5e3e 607a f73d a193 993e
000003a0: 5791 16be 990f af3e b7e5 a83e 8c19 30be
000003b0: 7c73 c43d e05f dcbd 5b62 98be 37a7 b43e
000003c0: 4854 6dbd d641 2c3e 932a a83e 98dc e93d
000003d0: eda8 b43e 9cfd bcbd 33a9 2cbe 805f a03c
000003e0: 86c2 203e f16e 1bbe 7887 203d f009 963c
000003f0: 9861 f53d 84e0 9cbe a1b2 923e d02c 6ebe
0.11704698 0.049203396 -0.33293033 0.05902505 0.15815452 -0.071534544 -0.2678424 0.2910399
0.23158368 0.039348453 -0.262802 0.12419605 0.34363696 -0.018603116 0.21574321 -0.18471184
0.12042898 0.035057753 0.14494732 -0.04433894 -0.0679481 -0.24121231 -0.10021445 0.2750652
-0.1565924 -0.3358378 -0.0063943565 0.118760586 -0.08272612 -0.23389246 0.0037486255 -0.09979692
0.23548779 -0.09644708 0.2432346 0.18245706 -0.21747124 -0.18371339 0.025812 -0.07858434
-0.18308945 0.13763243 0.107019454 -0.051637173 0.1570436 0.0777193 0.09787589 0.03248182
-0.08140069 0.17194512 0.013958961 0.25682035 -0.07574409 0.35305718 0.111371785 -0.03539437
0.19068441 -0.021826208 0.063970566 -0.10642113 0.09232384 0.14435905 -0.28673083 0.022646636
-0.34075975 -0.005362302 0.16434327 0.112077236 0.07858083 0.19824627 0.054349065 0.29377607
-0.10317838 -0.13278335 -0.2115373 -0.008561879 0.15128747 -0.01697436 -0.013023883 -0.11678238
-0.34880924 -0.32564703 0.1321682 0.29441383 -0.2660242 -0.26960108 -0.19125476 -0.13581641
-0.14002346 0.34031293 -0.28470337 -0.31909898 0.21482757 -0.14502448 0.13934052 -0.037121683
-0.1551717 -0.16036373 0.18641451 0.10048741 0.05716172 0.014017671 -0.30301487 0.23896912
0.1610181 0.051600933 -0.051214397 -0.29701915 0.12758693 -0.008622289 -0.14965238 0.10246298
-0.31249592 0.34229973 -0.09615356 0.33128253 0.28684536 0.14336815 -0.040913045 0.02496922
-0.28551173 0.122344464 -0.13921382 0.1066598 0.1275802 0.31440458 -0.25483733 -0.08867946
0.045483112 -0.095175326 -0.19042502 -0.20813121 -0.15682438 -0.11618453 -0.25018588 0.31096843
0.07643178 0.2799231 -0.121560186 -0.07135448 0.24271116 -0.10817419 -0.21267565 0.15089914
0.08272013 0.18669674 0.11836591 -0.029517263 0.1373358 -0.12267679 -0.097008586 0.059954733
0.017312706 0.0438385 0.11189249 0.345309 -0.006640613 -0.26963058 -0.28572905 -0.22644621
-0.061306983 0.1595138 -0.20971218 0.20004979 0.14460301 0.17564914 0.2873688 -0.3361157
0.15237978 -0.0299986 -0.027447969 0.0076213777 -0.29860258 0.183638 0.27830288 -0.352835
-0.2712392 0.15259829 -0.1307611 -0.02969253 -0.08324394 -0.0020757318 -0.28321418 0.11804336
-0.22193363 -0.0597803 -0.21297535 -0.31403583 0.030498594 -0.23066717 -0.033513963 -0.1646636
0.16568735 -0.31220096 -0.16006619 0.27421352 -0.30224782 0.18836722 0.02343896 0.27674046
0.31397745 0.044323027 0.345417 -0.06753948 0.22762498 -0.27848175 0.038212687 -0.10410027
-0.2912777 -0.23806736 0.18090263 0.10849002 0.027854443 -0.010252982 -0.24864575 -0.08487499
0.2587981 -0.33224908 0.1117748 -0.21034783 0.1507549 0.0760259 0.0019963682 -0.23259889
-0.30144534 0.103539765 -0.2984966 -0.34227818 0.031600624 0.21704993 0.12083888 0.29995444
-0.1470388 0.34191588 0.3298776 -0.17197245 0.095923394 -0.10760474 -0.2976254 0.35283825
-0.057941705 0.1682199 0.32844982 0.11419028 0.3528513 -0.0922806 -0.1686142 0.019576788
0.15699205 -0.1517904 0.039191693 0.018315285 0.11981505 -0.30640042 0.28651908 -0.23259282

lstm.bias_ih_l0_reverse f4 [32]
00000000: 2ba3 91c1 f2fb 5fc1 9f68 513f bed7 88c1
00000010: c027 54c1 931c 76c1 3174 19c2 a985 d6c0
00000020: 5582 21be 40cb 7abe 70c0 4bbe 04db 48be
00000030: a86d 953d 5705 a1be 157b 04be b8b6 86bd
00000040: 651d 8bbe 159c 4bc0 d5d5 1440 97f2 12c0
00000050: 27f3 6f40 4f81 e6c0 d781 dc3f 4b54 44c1
00000060: 9542 8ac1 1092 b5c0 33ae 0ec2 1919 9dc1
00000070: ae94 96c1 0ad8 0dc2 87d6 13c2 d54a a2c0
-18.204672 -13.99901 0.81800264 -17.105343 -13.259705 -15.381976 -38.36347 -6.703816
-0.15772374 -0.24491596 -0.19897628 -0.19614798 0.07296306 -0.31449386 -0.12937577 -0.065778196
-0.27170864 -3.1814015 2.3255513 -2.2960565 3.7492158 -7.2032847 1.7227124 -12.270579
-17.28251 -5.67408 -35.670116 -19.637255 -18.822598 -35.460976 -36.9595 -5.071635

lstm.bias_hh_l0_reverse f4 [32]
00000000: cddb 93c1 5232 67c1 8f86 3c3f 7c61 8ac1
00000010: f73b 5cc1 c3da 6fc1 0a28 1bc2 79a4 ddc0
00000020: 328d 1c3e 7678 563e 05af a73e 9cc0 bc3d
00000030: d405 ae3d 73df 69be 6fec 25be 964b 413e
00000040: 9aaa 02bf 6a7c 27c0 8be5 1940 875f 33c0
00000050: efc9 6440 cf48 e9c0 fa7a c63f d6c9 49c1
00000060: b61d 88c1 7bc8 bec0 b7e0 0ec2 61bc a0c1
00000070: c284 99c1 45c5 0ec2 6b79 12c2 98ba a5c0
-18.482325 -14.449785 0.7364282 -17.2976 -13.76464 -14.990909 -38.7891 -6.926327
0.15288237 0.2094439 0.32750717 0.09216425 0.084972054 -0.22839145 -0.16203474 0.1887649
-0.5104157 -2.6169686 2.4046352 -2.8027055 3.574825 -7.290138 1.550628 -12.611776
-17.014507 -5.9619727 -35.719448 -20.091982 -19.189823 -35.692646 -36.618572 -5.1790276

hidden2tag.weight f4 [878, 16]
00000000: f11b d0bf 38d3 9240 138e dd3f 9f39 0c41
00000010: 1ada 5bbf eaf8 85c0 2908 2f40 ca7a 62be
00000020: abfb 08c0 7398 0f3e 2627 8c40 caa2 4c41
00000030: 92d0 0cc0 7f01 acbe 6299 9540 cc65 4040
00000040: 139e 22c1 9549 a541 9f2a 3e3f e310 7d41
00000050: 7573 e3c0 5c16 8940 1476 7540 27ac 65c0
00000060: df41 0b41 70aa 5f3f fc8b 09c1 8593 6c41
00000070: 4f79 96c0 2450 6640 f842 e241 fdba 25c1
00000080: bc6f 04c1 4f24 0f41 22b7 a940 4f39 8441
00000090: 0ed6 bec0 c8ad 8c40 645a 83c0 c80a c9c0
000000a0: 3e93 c53f c278 3540 7b5c 3f40 8742 e041
000000b0: 8343 ccc0 4ed0 2741 306e 1542 2c49 ca40
000000c0: 1efe fdc0 a0e9 d540 fe4e 6341 7471 c741
000000d0: 063e 0141 0bf0 9140 3d4a 973f 5d7d 4dc0
000000e0: 93ab ca40 d535 e240 62b8 b040 d09c cb41
000000f0: 6311 cd40 c73c 8741 c68e 3c42 f687 8041
00000100: 8ce1 4ec1 43ee e740 21ab 3341 2492 5941
00000110: dff5 c3c0 4fdc 4641 4fdf 97c0 9d0c a2c0
00000120: d4f4 76bf 2706 f73f 9213 ea40 9c8d bd41
00000130: 78ac b7c0 02a6 3141 aba4 8041 70fe 89c0
00000140: e173 7bc1 0962 9641 debe afbf f1f1 5341
00000150: 4beb 16c1 0181 a541 2abe 3040 54bb bbc0
00000160: 186e 80c0 1b00 8740 49fb da40 9c15 8741
00000170: 0b93 7340 b20b 0fc0 c3a1 8141 f6c9 0e41
00000180: 84c5 03c1 3181 0c41 15fa d640 5335 8d41
00000190: afdb 70c0 abc2 8840 2559 35c0 d7a9 c6c0
000001a0: 381f a83f 0109 1c40 100d 5840 3327 e441
000001b0: 3a61 bbc0 5199 4041 4914 1542 5b94 b840
000001c0: 77ab 03c1 940c ea40 5503 6840 72fc 9941
000001d0: 7cf9 71c0 19fc cb40 ca5f 03c1 e029 cec0
000001e0: 7c9a 8540 181b fd3f 5784 0841 129e c041
000001f0: 9f85 5fc0 bd2c 3d41 3602 0f42 b48f f440
00000200: 4a1c 03c1 5aa0 0c41 2282 b940 d855 9341
00000210: 05ff 5dc0 1a29 cd40 6403 2ec0 44c2 c3c0
00000220: 7b0c 133f 02d7 1d40 7881 4240 3355 e041
00000230: ac2d b5c0 8bf6 4541 caf2 1442 1f9e dd40
00000240: 7fa6 f0c0 688e 0f41 cf09 d540 b060 8941
00000250: 4bac 9fc0 dfa3 9d40 d44b 44c0 b274 c5c0
00000260: d15f 853f 060f 2d40 50dc a340 515d df41
00000270: 19e9 a9c0 83b9 6541 0a00 1e42 32fe d640
00000280: 3b38 07c1 1713 7c40 9d6e 9141 76ae 0f41
00000290: a02f 87c0 844f 6341 8d64 2f40 0caa 21c1
000002a0: 1c7e 1dbf e7eb c53f 8fe5 3240 67c7 c941
000002b0: 7b3a 9bbf 30b2 4c41 1a18 f741 4516 c5c0
000002c0: 3775 0bc1 548b 1241 251b af40 7a89 8c41
000002d0: 6fd0 69c0 6111 ce40 a232 15c1 9fc0 cac0
000002e0: 7a30 90be a8b8 3b40 9231 6e40 7101 eb41
000002f0: b605 cfc0 186d 3a41 c531 1c42 d56e f240
00000300: d1e7 0cc1 6a25 2740 c007 2a41 f293 6140
00000310: c691 c3c0 5de0 6041 5d93 9840 eb66 5ac1
00000320: 4886 b73e f264 0e41 2928 0941 6a86 9e41
00000330: ebac 59bf 437d 4841 9d58 7441 9966 a240
00000340: 3363 bdc0 85eb a140 10dc 0041 bed3 0941
00000350: bbae d3c0 43a0 8041 ec79 c23f d968 34c1
00000360: 759f 2340 11ce c140 8772 2641 b758 a841
00000370: d584 eec0 9d94 4f41 41ef a941 b2a1 d93f
00000380: c820 24c1 c448 6241 519f a240 d434 ab41
00000390: 5633 55c0 b0ef 4fc1 96c8 5841 afe2 b0c0
000003a0: a1fa 4841 0f63 5040 dd90 3440 8927 b541
000003b0: 0e96 efc0 393c 3b41 b31d 3042 78e8 3841
000003c0: 55ed e8c0 02ab 1b41 9b0b e640 5ea4 9a41
000003d0: 352c 1fc0 2679 3c40 a597 47c0 6ef0 c0c0
000003e0: 9cf9 0140 2594 2440 f2ea 5940 0644 ae41
000003f0: 4cdf bec0 f7b2 3f41 b92f 1142 872d db40
-1.6258527 4.5882835 1.7308983 8.764068 -0.8587967 -4.186635 2.734873 -0.22117153
-2.1403606 0.14022999 4.379779 12.789743 -2.2002301 -0.3359489 4.6749735 3.0062132
-10.163592 20.660929 0.74283785 15.816623 -7.107844 4.2839794 3.835332 -3.5886323
8.703582 0.8736944 -8.596676 14.7860155 -4.702308 3.5986414 28.2827 -10.358151
-8.277279 8.946364 5.303605 16.527983 -5.9636297 4.3962135 -4.104784 -6.282566
1.543556 2.8354955 2.9900196 28.032484 -6.383241 10.488356 37.357605 6.321432
-7.93727 6.6847687 14.206785 24.930397 8.077642 4.560552 1.1819531 -3.2107766
6.333444 7.0690713 5.5225077 25.451569 6.4083724 16.904676 47.139427 16.066387
-12.930065 7.2478347 11.2292795 13.598179 -6.1237636 12.428786 -4.7460093 -5.0640397
-0.9646733 1.9298753 7.314889 23.694145 -5.7398033 11.103029 16.080404 -4.3123093
-15.715791 18.797869 -1.3730123 13.246568 -9.432445 20.68799 2.7616067 -5.866617
-4.013439 4.218763 6.8431745 16.885551 3.8058498 -2.2350888 16.203985 8.924307
-8.235722 8.781541 6.7180276 17.651037 -3.7634084 4.273763 -2.833566 -6.2082324
1.3134527 2.4380496 3.3757973 28.51914 -5.8556185 12.037431 37.26981 5.76811
-8.229362 7.3140354 3.6252034 19.248264 -3.7808523 6.3745236 -8.210886 -6.4426117
4.175108 1.9773893 8.53231 24.077183 -3.4925306 11.823422 35.75216 7.642542
-8.1944065 8.789148 5.7971354 18.416916 -3.4686902 6.4112673 -2.718957 -6.117464
0.5744092 2.466248 3.0391521 28.041601 -5.661825 12.372691 37.2371 6.925552
-7.520324 8.972267 6.6574473 17.17221 -4.989782 4.926254 -3.0671282 -6.170495
1.0419866 2.704042 5.1206436 27.920565 -5.3097043 14.357791 39.50004 6.7185297
-8.451228 3.9386652 18.17901 8.980093 -4.2245636 14.206913 2.7405121 -10.104015
-0.6152055 1.5462617 2.7952611 25.222364 -1.2127222 12.793503 30.886768 -6.1589684
-8.716117 9.159016 5.4720635 17.567127 -3.6533468 6.4396214 -9.324862 -6.3360133
-0.28161985 2.9331455 3.7217755 29.375704 -6.469447 11.651634 39.048603 7.5760293
-8.806596 2.6116586 10.626892 3.5246549 -6.1115446 14.054776 4.7679887 -13.650126
0.35844636 8.899645 8.572305 19.815632 -0.85029477 12.530581 15.271634 5.075024
-5.9183593 5.06 8.053726 8.614195 -6.6150794 16.078253 1.5193458 -11.275598
2.5566075 6.0564046 10.402961 21.043318 -7.453715 12.973783 21.241823 1.700247
-10.258003 14.142765 5.081948 21.400795 -3.3312583 -12.996017 13.548971 -5.5276713
12.561189 3.256046 2.8213418 22.644304 -7.487067 11.702203 44.029003 11.556755
-7.278971 9.72925 7.1889167 19.330257 -2.4870732 2.9448943 -3.1186306 -6.0293493
2.03086 2.571542 3.404965 21.783215 -5.964758 11.981193 36.296604 6.8493075

hidden2tag.bias f4 [878]
00000000: 6ca7 14c2 2023 23c1 3c64 a6c0 875d 1ac1
00000010: 44cb 87c0 3a61 5bc1 a97d b2c0 a21c 91c0
00000020: f25a 96c0 6aac a8c0 d99f 0fc1 55bf a2c0
00000030: ec42 9dc0 67d5 c3c0 f8a1 8dc0 f6f2 b3c0
00000040: 13b8 89c0 7737 16c1 95e7 4bc1 c8b4 10c1
00000050: 6cad e0c0 7159 adc0 c30d ccc0 2146 97c0
00000060: 5718 83c1 d298 a8c0 1d9d d2c0 d74f 8cc0
00000070: d2e5 10c1 c159 8dc0 9453 bec0 3841 c9c0
00000080: 0eda efc0 4c96 95c0 0f65 d7c0 acfb e3c0
00000090: 21aa 83c0 5962 0bc1 9d8b 67c2 8b81 b8c0
000000a0: da05 63c1 301d 1cc1 1395 48c1 cc3b aac0
000000b0: 3810 1fc1 92e5 0bc1 019c 3dc1 bd51 90c1
000000c0: f76a b0c0 09f1 1ac1 b07b 8dc0 ae2f 4ac1
000000d0: 6cb7 0bc1 9988 2ac1 905c 38c1 5a2e 15c1
000000e0: 7c0d 20c1 1467 13c1 7c75 10c1 abe5 a2c1
000000f0: 2935 0ec1 501c 8dc1 d2fe 62c1 2fb1 e6c0
00000100: 0482 89c0 aa1f 29c1 c3ef b8c0 26ec 80c0
00000110: ff75 d1c0 7aac dac0 34b4 0ec1 1db4 1fc1
00000120: 3d8e d4c0 01d0 b3c1 fd69 16c1 946b 9bc0
00000130: 9148 62c1 b740 8dc0 c969 c5c0 fc66 3fc2
00000140: 2f86 59c1 40b6 e2c0 5aef 37c1 8f22 e0c0
00000150: e462 13c1 8f0f dac0 3473 24c1 12b9 1fc1
00000160: 619d bbc0 5fe0 7ac1 ffbe 3ac1 9555 5cc1
00000170: 21d0 08c1 bc1b 28c1 b8a8 a1c0 9329 d1c1
00000180: bdf4 fbc0 9f06 08c1 01bc 6dc1 0279 94c1
00000190: bd43 c2c0 689d 02c1 87d6 00c1 cdb2 08c1
000001a0: 50a2 cac0 d555 57c1 9197 13c1 1ba3 78c1
000001b0: 79f3 ddc0 0e6c 57c1 9f8d 31c1 f162 2fc1
000001c0: 4de3 dbc0 e3a2 b5c0 15e2 2cc1 486c 74c1
000001d0: 6016 14c1 7ef8 09c1 0780 0ec1 96da e7c0
000001e0: 14a8 f7c0 7570 04c1 76d9 69c1 2be1 f6c0
000001f0: cecb 81c1 584f 09c1 55e9 bfc0 4d93 2dc1
00000200: 2156 0ac1 620b 1dc1 890c b6c0 d91c 35c1
00000210: 2f02 b7c1 99a3 3ac1 7cb5 dec0 815a d4c0
00000220: 5134 38c1 f7f1 2bc1 96e0 c9c0 c1b6 48c1
00000230: 5450 25c1 da02 8ac1 6542 1dc1 450e 67c1
00000240: 9759 c3c0 e3ac b3c0 a6b2 37c1 0880 31c1
00000250: 315f edc0 694e 84c1 d6c6 1fc1 e9d3 30c1
00000260: 3290 14c1 ffeb 82c0 a618 f3c0 14ac 5ac1
00000270: 178e cfc0 af4d 4bc1 591e 2ac1 3f01 05c1
00000280: b2fc 49c1 f49d d6c0 5e55 d3c0 60d2 d4c0
00000290: eeeb ddc0 7d91 99c1 9d01 f6c0 3a54 03c1
000002a0: e879 fbc0 ef2f 19c1 69fa 22c1 0011 1cc1
000002b0: 4fda 08c1 f8aa 4ac1 23b8 14c1 5787 1fc1
000002c0: 9ebb fcc0 cdb8 5fc1 df61 82c1 2e20 f2c0
000002d0: 394f f5c0 7725 50c1 0b93 09c1 8799 f3c0
000002e0: 59bc 42c1 209d f2c0 4757 02c1 f7c0 5ec1
000002f0: 702e 4fc1 814e e1c0 aec4 fac0 fdc5 3ac1
00000300: 1672 80c1 8f9b 19c1 06fb 53c1 836b 05c1
00000310: ff2f 0ac1 e196 2ac1 98fa 48c1 afce 3bc1
00000320: 04d3 1fc1 101a c6c0 01ab f9c0 7255 a6c0
00000330: de8b 37c1 129f 4ec1 940c 23c1 6ce5 edc1
00000340: c162 10c1 b3e4 efc0 1d9f 10c1 c103 22c1
00000350: 6fb2 f0c0 e8f8 94c1 2f3b c0c1 7846 40c1
00000360: 3ff5 35c1 fce1 46c1 9a67 27c1 9988 32c1
00000370: e007 79c1 eb2c d6c1 3084 02c2 08eb 1cc1
00000380: a84d 1ec1 2845 7ac1 e5a6 50c1 4e38 cec0
00000390: 4d03 34c1 e643 65c1 f83a abc1 c9f3 3cc1
000003a0: 1e64 efc0 ec46 18c1 f7fb b8c1 0c7a 0bc1
000003b0: cda1 15c1 2164 27c1 09a6 16c1 00a2 2cc1
000003c0: 4d6a fac0 b572 08c1 dca8 09c1 5f1a c8c0
000003d0: 533b 0bc1 9f79 24c1 2ed9 28c1 fe2b e4c1
000003e0: 2d3c dfc0 54aa 14c1 5fa3 74c1 d946 42c1
000003f0: 05aa 37c1 6d19 30c1 f950 3ac1 a73b 22c1
-37.163498 -10.196075 -5.1997356 -9.647834 -4.2435627 -13.711237 -5.5778394 -4.534745
-4.6986017 -5.2710466 -8.976525 -5.085856 -4.914419 -6.1198 -4.4260216 -5.6234083
-4.30372 -9.388541 -12.744039 -9.044136 -7.0211697 -5.417168 -6.37668 -4.7273107
-16.386885 -5.268655 -6.581679 -4.384746 -9.056108 -4.4172063 -5.9477024 -6.2892113
-7.495368 -4.674597 -6.7310863 -7.1244717 -4.1145177 -8.711511 -57.88634 -5.7658134
-14.188929 -9.757126 -12.536395 -5.3197994 -9.94146 -8.743547 -11.850587 -18.039911
-5.513057 -9.683846 -4.4213486 -12.636641 -8.732281 -10.658349 -11.522598 -9.323816
-10.003292 -9.212666 -9.028683 -20.362143 -8.887979 -17.638824 -14.187212 -7.209129
-4.297121 -10.5702305 -5.779268 -4.0288267 -6.545654 -6.8335543 -8.918995 -9.981473
-6.642363 -22.476564 -9.400876 -4.856882 -14.142716 -4.4141498 -6.169163 -47.85057
-13.59526 -7.0847473 -11.495935 -7.0042186 -9.211643 -6.8143992 -10.278126 -9.982683
-5.8629613 -15.679778 -11.67163 -13.770894 -8.550813 -10.506771 -5.0518456 -26.1453
-7.8736253 -8.5016165 -14.858399 -18.559086 -6.070769 -8.163429 -8.052375 -8.543653
-6.3323135 -13.458455 -9.2245035 -15.539821 -6.935971 -13.463881 -11.097075 -10.961656
-6.8714967 -5.6761336 -10.805196 -15.276436 -9.255463 -8.623167 -8.906257 -7.245433
-7.7392673 -8.277455 -14.615591 -7.7149863 -16.224514 -8.581871 -5.997233 -10.848462
-8.646028 -9.815279 -5.68903 -11.319543 -22.876066 -11.664941 -6.959654 -6.636048
-11.512773 -10.746573 -6.3086653 -12.544618 -10.332111 -17.251392 -9.82871 -14.440984
-6.1046863 -5.6148543 -11.481115 -11.093758 -7.41787 -16.538286 -9.986044 -11.051736
-9.285204 -4.091308 -7.596759 -13.667011 -6.486095 -12.706466 -10.632409 -8.312804
-12.624193 -6.7067814 -6.604171 -6.6506805 -6.93505 -19.19604 -7.687697 -8.208063
-7.858631 -9.574203 -10.186135 -9.75415 -8.553298 -12.66674 -9.294955 -9.970542
-7.8979025 -13.982617 -16.297789 -7.566428 -7.6659207 -13.009147 -8.598399 -7.612491
-12.170983 -7.5816803 -8.146308 -13.922111 -12.948837 -7.040833 -7.8365088 -11.673337
-16.055706 -9.600478 -13.248785 -8.338748 -8.636718 -10.661836 -12.56118 -11.73796
-9.9890175 -6.1906815 -7.8021245 -5.1979303 -11.471647 -12.913836 -10.190571 -29.737022
-9.02411 -7.4966674 -9.038846 -10.1259165 -7.5217814 -18.621536 -24.028898 -12.017204
-11.372375 -12.430172 -10.462793 -11.158349 -15.564423 -26.771933 -32.62909 -9.807381
-9.893959 -15.641884 -13.040746 -6.444373 -11.250806 -14.329077 -21.403793 -11.809518
-7.4809713 -9.517315 -23.12303 -8.717297 -9.352002 -10.461946 -9.415536 -10.789551
-7.825476 -8.528005 -8.603725 -6.253219 -8.701983 -10.279693 -10.553022 -28.52148
-6.9760957 -9.291584 -15.2898855 -12.142297 -11.479009 -11.006207 -11.644769 -10.139564
